Assets/results/Run03/RobotPathFinder/RobotPathFinder-1570.onnx (onnx, 280587 bytes, 6 tensors)

distribution.branches.0.bias f4 [4]
00000000: 0000 0000 0000 0000 0000 0000 0000 0000
0.0 0.0 0.0 0.0

distribution.branches.0.weight f4 [4, 128]
00000000: e883 dc39 c8c3 eb3b 1ba2 55ba e5f4 5b3c
00000010: b8f3 65bb 6606 0e3c e20a 4a3c 571d b33b
00000020: 36ec b0bb 3d2e ebbc cf39 453b 14da 0a3c
00000030: f31c 2fbc 88fc 5ebb 909e c03b a0ba 713b
00000040: 8210 41bc 63ab 09bb f7fb b8bb 3a38 e13b
00000050: da3c 803b a1a6 8a3a 5b02 89bc ff51 953b
00000060: afb8 90bb 2519 01bc 2b74 0dbc b737 1e3b
00000070: 63a9 3fbc ce98 923c 1901 49b9 b81e 8cbb
00000080: 9beb 413c 47f3 83ba 3590 f13b 22d2 f53a
00000090: a072 f5bb 0d85 97bb 876e 4a3a 415a af3a
000000a0: e2a4 36bc 62f0 963c a266 53bb e1a0 903b
000000b0: e07b a1ba 4f91 3abc d7b8 61b9 cd3d 083c
000000c0: 4c5f 123b 3be7 15bb c709 a2b9 5df0 563c
000000d0: 95b4 1e3b 0a23 753b 68b0 ebbb cfa1 043c
000000e0: 9000 6a3b 0fc0 753c 72a4 37ba 2bc1 853b
000000f0: f7f5 fdbb adbd f83b 6020 9cbb 8e00 98bb
00000100: d72c 793c 77d2 293b ead1 ddba 27c9 edbb
00000110: 8be6 c1bc 8311 063c c5cb abbb 959d 02bc
00000120: e786 6b3a def9 29ba 684d 1a3a 8b27 f7ba
00000130: 91b8 92b7 93bc f0bb c972 ccba 5438 0a3b
00000140: 6d59 91bb 91c4 903b 36ab ad3b 3f28 8fbc
00000150: e418 2dbc 1787 4a3b 60aa 21bc 2f2a e63b
00000160: d737 c33b e30f 8d3b 58f3 8d3b 819b 24bc
00000170: 8788 5c3b ce57 083b c4a8 8d3b 56c6 93bc
00000180: 7d2b 743b 8746 d93b 3fca 35bc 6094 a33b
00000190: 8ddf ab3c 2430 283c 555b 6f3c 9198 383b
000001a0: a871 18bc 8391 3a3b 3e51 0d3a caff 1f3c
000001b0: 4527 833b 5db1 67b9 9ba7 a0bc 88a0 4ebc
000001c0: d604 4a3c 7736 a33c ca83 1abb d01c 183c
000001d0: f4a1 bbba cd26 d93b 0061 dfb8 e76d 4f3b
000001e0: eff0 7db9 8a7c 083c 0a1a 583c 42a7 fabb
000001f0: 2553 0c3b 76b5 07bb 3ace d4bc 4dcc 153b
00000200: ca8c 883b 310d acbc 1539 40bc 5b68 b4bb
00000210: 2f8e 13bc 633a 203c 4819 92bb 6304 843b
00000220: 46c0 143c 6d0d f43a 0330 8bbb aea5 163c
00000230: c39b 303c 1189 46bc 57e3 9238 8f4b 5ebb
00000240: c739 7cbb 8ad9 c43b ef23 2ebb 028d be3b
00000250: 6be6 01bb a6fc 99bb e226 cdba 8cb6 48bc
00000260: 7111 933b a387 5ebc 1296 3f3c 7569 b63b
00000270: 0bbe 15bc 7b9b c0bb a3af 193b 8d78 233b
00000280: 43e5 153b 20a7 03bb 052d 68b9 f0b1 bc3b
00000290: 23c1 a4ba 6c5a 953b 77a8 1dbc 5b12 dabb
000002a0: c9a7 853b d367 963b 1225 b1b9 a0dc 4c37
000002b0: ff89 803b bc4a cb3b 1fb6 4c3c 50b4 d03a
000002c0: 60a2 503c 9bb1 913c dbfc fcbb 146f cabb
000002d0: 72b1 9f3c 6f25 dc3a 5d81 b93a d404 963c
000002e0: 6236 e73b 4a69 a6bb 8ccd 24bb 36e1 ba3b
000002f0: 5053 06bc 4a8e e2bb cfaa a8bb f90a 263b
00000300: cdd2 323b 36db 8239 e4a4 92bb ca60 a83a
00000310: 0db6 ec3b e119 26bc e6de c93b 1ecd 05bc
00000320: 37f9 1c3b e0b4 2e3c c202 d93a a7db 2cba
00000330: f08d 9b3b c0c2 39bb f5b5 f1b9 8713 01bc
00000340: 84b0 9a3b a355 80bb bbf1 8bbb ec13 2abc
00000350: a51d 863c 5231 90ba 9a16 afbb 3090 723c
00000360: df9e 0dbb 0009 0e3c 5556 5a3b c48d 3e3c
00000370: 46ea 813b 6897 d73b afd7 c9bb 96b2 85bc
00000380: 95d8 693b 9549 913b 1fef ff3b 4c63 873c
00000390: 9a62 62ba a3f3 993b df63 89bb 7d92 b43b
000003a0: 2f32 fabb 7f62 0bbc 7384 c73a 7fc1 ddbb
000003b0: 45c0 313c 13d9 e63b cbb0 92bb 130d bcbb
000003c0: 63d3 b5bb 6d4e cf3a 7a9c 743c 7f93 913c
000003d0: 188b 5ebb 77dc 593c 5119 bc3a 2f94 de3b
000003e0: 0bc6 bd3b 7c27 373c 9fee cb3b dfa2 10bb
000003f0: 05b2 3a3c 354f f33b e264 49bb 3224 fb3b
0.00042059948 0.00719497 -0.0008149461 0.013425087 -0.0035087895 0.008668518 0.012331696 0.005466144
-0.0053992523 -0.028708572 0.003009427 0.008474845 -0.010688054 -0.0034025032 0.005878277 0.0036884919
-0.011783721 -0.0021006695 -0.005645271 0.006873158 0.003913504 0.0010578224 -0.016724756 0.004556894
-0.0044165473 -0.00787953 -0.008633654 0.0024142095 -0.0116981 0.017895129 -0.00019169263 -0.004276123
0.011835958 -0.0010067009 0.007371927 0.0018754641 -0.007490471 -0.004624015 0.00077221583 0.0013378338
-0.01114771 0.01842517 -0.003225722 0.0044137095 -0.0012320243 -0.011387183 -0.0002152653 0.008315516
0.0022334633 -0.002287342 -0.00030906333 0.0131188305 0.0024216522 0.0037404918 -0.00719266 0.008095219
0.0035705902 0.014999404 -0.00070054 0.0040818653 -0.0077502686 0.0075909705 -0.0047646016 -0.004638738
0.015208445 0.00259128 -0.0016923521 -0.0072566452 -0.023669502 0.008182886 -0.005242797 -0.007972141
0.00089846406 -0.00064840715 0.0005886168 -0.0018856389 -1.7490502e-05 -0.0073466985 -0.0015598173 0.0021090703
-0.004435709 0.004417964 0.005299951 -0.017475246 -0.010565016 0.0030903274 -0.009867281 0.0070240716
0.0059575844 0.0043048724 0.0043319874 -0.010046841 0.0033650713 0.0020804289 0.004323097 -0.01803891
0.0037257366 0.006630722 -0.0110955825 0.004992053 0.02098062 0.010265384 0.014609178 0.0028167109
-0.0093044415 0.002846808 0.0005390829 0.009765575 0.004002484 -0.0002209595 -0.01961117 -0.012611516
0.012330255 0.019923432 -0.0023577088 0.009284213 -0.0014315234 0.00662694 -0.00010651536 0.00316512
-0.00024217715 0.008330474 0.013189802 -0.007649333 0.0021411863 -0.0020707524 -0.025977243 0.0022857368
0.004167174 -0.021002384 -0.011732359 -0.005505604 -0.009006067 0.0097795455 -0.00445858 0.0040288433
0.009079045 0.0018619724 -0.004247667 0.009194775 0.010779324 -0.01211764 7.004168e-05 -0.0033919548
-0.0038486586 0.006007378 -0.002657171 0.0058151493 -0.0019821178 -0.0046993075 -0.0015651847 -0.012250554
0.004488163 -0.013582143 0.011693494 0.0055667707 -0.009139548 -0.0058779097 0.0023450635 0.002494368
0.0022872246 -0.0020088628 -0.00022142015 0.0057585165 -0.0012569766 0.0045578983 -0.009622685 -0.00665502
0.0040788394 0.0045900135 -0.0003378769 1.2210716e-05 0.0039227004 0.0062039774 0.012494593 0.0015922878
0.012734026 0.017784884 -0.0077205724 -0.0061777923 0.019493792 0.0016795824 0.0014152933 0.01831285
0.0070560435 -0.0050784694 -0.002514693 0.0057031168 -0.008198574 -0.006913935 -0.005147315 0.002533613
0.0027286292 0.00024958857 -0.004475223 0.0012846228 0.0072238506 -0.010138006 0.006160605 -0.0081665795
0.0023952255 0.010663241 0.0016556608 -0.000659401 0.004747145 -0.002834484 -0.0004610267 -0.007878191
0.0047207493 -0.0039164587 -0.00427076 -0.010380726 0.016371557 -0.0011001027 -0.0053432705 0.014804885
-0.0021609587 0.008669138 0.0033315618 0.011630479 0.003964695 0.0065793283 -0.0061597447 -0.016320508
0.0035682071 0.0044338205 0.007810488 0.01652684 -0.00086359086 0.004698233 -0.0041928138 0.005510627
-0.007635377 -0.00850737 0.0015221968 -0.0067674513 0.010849063 0.00704492 -0.004476642 -0.0057388633
-0.005548881 0.0015816219 0.014929885 0.017770527 -0.0033957418 0.013297192 0.0014350807 0.006792567
0.005791431 0.011178847 0.006223514 -0.0022069735 0.011394982 0.0074252137 -0.0030730297 0.007664227

network_body.linear_encoder.seq_layers.0.bias f4 [128]
00000000: 0000 0000 0000 0000 0000 0000 0000 0000
00000010: 0000 0000 0000 0000 0000 0000 0000 0000
00000020: 0000 0000 0000 0000 0000 0000 0000 0000
00000030: 0000 0000 0000 0000 0000 0000 0000 0000
00000040: 0000 0000 0000 0000 0000 0000 0000 0000
00000050: 0000 0000 0000 0000 0000 0000 0000 0000
00000060: 0000 0000 0000 0000 0000 0000 0000 0000
00000070: 0000 0000 0000 0000 0000 0000 0000 0000
00000080: 0000 0000 0000 0000 0000 0000 0000 0000
00000090: 0000 0000 0000 0000 0000 0000 0000 0000
000000a0: 0000 0000 0000 0000 0000 0000 0000 0000
000000b0: 0000 0000 0000 0000 0000 0000 0000 0000
000000c0: 0000 0000 0000 0000 0000 0000 0000 0000
000000d0: 0000 0000 0000 0000 0000 0000 0000 0000
000000e0: 0000 0000 0000 0000 0000 0000 0000 0000
000000f0: 0000 0000 0000 0000 0000 0000 0000 0000
00000100: 0000 0000 0000 0000 0000 0000 0000 0000
00000110: 0000 0000 0000 0000 0000 0000 0000 0000
00000120: 0000 0000 0000 0000 0000 0000 0000 0000
00000130: 0000 0000 0000 0000 0000 0000 0000 0000
00000140: 0000 0000 0000 0000 0000 0000 0000 0000
00000150: 0000 0000 0000 0000 0000 0000 0000 0000
00000160: 0000 0000 0000 0000 0000 0000 0000 0000
00000170: 0000 0000 0000 0000 0000 0000 0000 0000
00000180: 0000 0000 0000 0000 0000 0000 0000 0000
00000190: 0000 0000 0000 0000 0000 0000 0000 0000
000001a0: 0000 0000 0000 0000 0000 0000 0000 0000
000001b0: 0000 0000 0000 0000 0000 0000 0000 0000
000001c0: 0000 0000 0000 0000 0000 0000 0000 0000
000001d0: 0000 0000 0000 0000 0000 0000 0000 0000
000001e0: 0000 0000 0000 0000 0000 0000 0000 0000
000001f0: 0000 0000 0000 0000 0000 0000 0000 0000
0.0 0.0 0.0 0.0 0.0 0.0 0.0 0.0
0.0 0.0 0.0 0.0 0.0 0.0 0.0 0.0
0.0 0.0 0.0 0.0 0.0 0.0 0.0 0.0
0.0 0.0 0.0 0.0 0.0 0.0 0.0 0.0
0.0 0.0 0.0 0.0 0.0 0.0 0.0 0.0
0.0 0.0 0.0 0.0 0.0 0.0 0.0 0.0
0.0 0.0 0.0 0.0 0.0 0.0 0.0 0.0
0.0 0.0 0.0 0.0 0.0 0.0 0.0 0.0
0.0 0.0 0.0 0.0 0.0 0.0 0.0 0.0
0.0 0.0 0.0 0.0 0.0 0.0 0.0 0.0
0.0 0.0 0.0 0.0 0.0 0.0 0.0 0.0
0.0 0.0 0.0 0.0 0.0 0.0 0.0 0.0
0.0 0.0 0.0 0.0 0.0 0.0 0.0 0.0
0.0 0.0 0.0 0.0 0.0 0.0 0.0 0.0
0.0 0.0 0.0 0.0 0.0 0.0 0.0 0.0
0.0 0.0 0.0 0.0 0.0 0.0 0.0 0.0

network_body.linear_encoder.seq_layers.0.weight f4 [128, 410]
00000000: 3131 593d ced9 c3bb 20e2 a83c 338a ab3b
00000010: 3dc1 e4bd 2e2a 5abd 198a 043d a8eb 8e3d
00000020: 14ce 623d 9db5 3d3c 8855 9b3c 491a 08bd
00000030: f222 133d 4ee0 ccbc 29ce 17bd 51fa 983b
00000040: 9438 f9b9 0633 8ebd c796 50bd fee2 443d
00000050: 46a4 03bd 9ccc 8a3c 76c0 de3c 5e57 8cbd
00000060: 9229 07bc e4c2 613b a435 0a3c ca56 3ebd
00000070: bb7d 5fbd 857d 073d b776 bcbd fa1f b73d
00000080: 6044 8e3d 5fe2 573d 8fcc ee3c 223a 0abc
00000090: 6899 84bd 9bb9 183c 1207 aabc 5e40 f7bc
000000a0: f64a 8dbd 2554 a33d d2c8 c13c 2f2c 363d
000000b0: 90e2 7e3d 7888 87bc 5649 133d 156c 16bd
000000c0: e8ed 26bb bb19 15bc f8d1 06bd 7d7d 88bc
000000d0: 35fe ccbd 3838 423d 8539 1abd d741 7b3d
000000e0: 00ee 40bc bc43 cf3c 57fb 27bc 2d89 ee3c
000000f0: 6ab2 353c 05a8 ca3c b203 d7bc 0f33 b03b
00000100: 1443 103d 417c 66bc bb17 ef3c 36e8 0a3c
00000110: 85f4 993d e474 543b ac8c 2cbd 4411 b0bd
00000120: ed46 f03b aa04 1d3b 0390 3bbc 8c90 d5bc
00000130: dd6c d0bc 48ae 173d 0df0 9ebd 6f8c d23b
00000140: a906 81bd 7516 ab3c 315e 2fbd 912b 473d
00000150: 410f 063e 8a4f 8d3c 1b24 8e3d e43d 3a3d
00000160: 1a81 30bd be0b c13b 98e5 2a3e d6fe 04bd
00000170: 0b89 8bbd 9a0d 71bd d950 84bc 3f7f a6bc
00000180: 467c 4d3d 4875 c83a e4ab 50bd 2b3e c0bc
00000190: 3d0f b8bd ecb1 4e3d 87a0 863d e69a 4e3d
000001a0: 674a e1bd 9b27 3fbd 9424 7cba 2b4a 503d
000001b0: 3b0a c6bc a690 c5bd 7970 183d e43e bcbc
000001c0: f988 a7bb 0c0b a2bc a4ea 133d 19fa 0dbc
000001d0: 0809 4d3d 3584 863d e0ee 743d 1e34 0fbd
000001e0: 390c a4bd 21dd dcbc 94b8 2d3d 9fde 1ebd
000001f0: 27e6 39bd bece e73d 3c36 e5bc 7f9b 523d
00000200: 8a90 463c cbed 3f3c ae5f c63c 2d23 cdb8
00000210: f44b 9ebc 731c 20bd 5071 613a 9ca9 95bc
00000220: 3588 063c f2d4 5e3c ed98 7bbc 8e63 5f3d
00000230: acb5 213d 546e 89bd 577b b0bc 28ac 5dbd
00000240: 06b2 d8bc 39e8 c7bc 33a9 0bbd 0806 923d
00000250: da1b c8bb 6dfa 243b c8e1 973d 7437 643c
00000260: 66c0 283c ca63 523d 85c7 853c 675c c4bd
00000270: 4138 153c ee73 96bd 8057 87ba a7dd b53d
00000280: 279b 20bd 0232 aebc 10a3 4fbd 6fcb 0c38
00000290: 044a 03bd 9be0 a63d b222 29bd b2f3 523c
000002a0: 408b f9bc c948 b1bc d7a0 85bc cebb 6cbd
000002b0: 535e 873d 9b94 d6bc 7be7 503d d03c 98bc
000002c0: 2934 0ebd bb61 c9bd ec20 7fbd f9e0 4e3c
000002d0: be40 7d3c fefb 953d 9cd3 263b 66ab 6bbc
000002e0: a31c a73c 4b21 62bd 71be d4bd 5faf 9abd
000002f0: bb11 bebd 571c 6b3d 6648 05bc 4935 533d
00000300: bf2a 353c a381 20bc 18c2 a33d d8ae b8bd
00000310: 9099 863d 0907 2b3d 80bc f73c c732 d5bd
00000320: 5310 3f3d e1ee 203d 02a1 bfbc 3bb9 08ba
00000330: 4702 8dbc 9fde 67bd ee4a 6a3d a125 0ebd
00000340: d666 c9bd 29b2 bc3c 72ae 8a3d 706e efbd
00000350: c333 ceb9 3944 96bb 5cde b93c 05ac 27ba
00000360: b5e9 2b3d de27 483c 2a51 a5bd a53c e13d
00000370: d243 c73c 323e 6ebc d486 263d 0a0f 983d
00000380: bd5a 82bd d3a3 11bd 2bdd d03c c23e e33c
00000390: 3d7c b5bb fd83 8bbb 8927 183c 870c 7bbc
000003a0: 85f2 863b 48ce 023c de2f dc3c 90b2 363d
000003b0: 89e1 0c3c fa71 993d d1d6 443b bea4 6ebd
000003c0: adf6 9abc fa3a ecbc 89bd 7ebd 9b1b 273b
000003d0: bf86 ce3c 1c3e 0e3c 2b87 8fbd 86aa ffbd
000003e0: 198f 473d 2626 933c 5738 e33c defe 0fbd
000003f0: 763d 87bc b7ef 8bbd 77fb af3c f933 b0bd
0.05302543 -0.005976892 0.020615637 0.0052349805 -0.1116967 -0.053262882 0.032358263 0.069785416
0.055372313 0.0115789445 0.018961683 -0.033228192 0.035922 -0.0250093 -0.037061844 0.004668512
-0.00047535135 -0.06943326 -0.050925042 0.04806804 -0.032139085 0.016943268 0.027191382 -0.068526015
-0.008249657 0.003444844 0.0084356405 -0.046469487 -0.054563265 0.03307869 -0.092023306 0.08941646
0.06946635 0.05270612 0.029150276 -0.0084367115 -0.064745724 0.009321596 -0.020755325 -0.03018206
-0.06899063 0.07975034 0.023655329 0.04447573 0.062227786 -0.016544566 0.03595861 -0.03672417
-0.0025471393 -0.009100373 -0.032915086 -0.0166614 -0.10009424 0.047416896 -0.03765251 0.061342087
-0.011775494 0.025300853 -0.010252795 0.029118145 0.0110899005 0.024738321 -0.02624688 0.0053771804
0.03522022 -0.01406771 0.02918612 0.008478215 0.075173415 0.0032418305 -0.042126343 -0.08597043
0.0073326738 0.0023959079 -0.011447909 -0.026069902 -0.025442535 0.037031442 -0.0776063 0.0064254324
-0.063000984 0.020884732 -0.042814437 0.048625533 0.13091756 0.017249841 0.0694048 0.04546918
-0.04309187 0.0058912924 0.16689146 -0.032469593 -0.06813248 -0.058850862 -0.016151832 -0.020324348
0.050167345 0.0015293742 -0.050945178 -0.023467144 -0.089872815 0.05046265 0.06573587 0.05044069
-0.11000519 -0.04666863 -0.00096184877 0.050851982 -0.0241748 -0.0964673 0.037216637 -0.022979207
-0.005112764 -0.019780658 0.036112443 -0.008665585 0.05005744 0.06568185 0.05979812 -0.034961812
-0.08010144 -0.026960911 0.042412356 -0.038786527 -0.045385506 0.1131873 -0.027979963 0.051417824
0.012119422 0.011714409 0.024215546 -9.781714e-05 -0.019323327 -0.03908963 0.0008599954 -0.018269353
0.008211185 0.013600575 -0.015356285 0.054538302 0.039479896 -0.067104965 -0.021543188 -0.05411926
-0.026452076 -0.024402725 -0.034096908 0.071300566 -0.006106836 0.002517368 0.07416111 0.013929237
0.010299778 0.051364698 0.01633049 -0.09587937 0.00910765 -0.073463306 -0.001032576 0.088801675
-0.039210465 -0.02126408 -0.050692618 3.3568063e-05 -0.03205301 0.08148309 -0.041292854 0.012875484
-0.030461907 -0.021641152 -0.016312046 -0.057796292 0.06609788 -0.026193907 0.051002007 -0.018583685
-0.034717713 -0.09833094 -0.062287256 0.01262688 0.01545733 0.07323454 0.002545572 -0.014384126
0.020399397 -0.055207532 -0.10387886 -0.07552981 -0.092807256 0.057400074 -0.008134937 0.05156449
0.011057555 -0.009796533 0.07996005 -0.09017724 0.065722585 0.041754756 0.030241251 -0.10410076
0.046646427 0.039290313 -0.023392204 -0.000521559 -0.017213 -0.056608792 0.057200365 -0.034703854
-0.098340675 0.023034172 0.06771554 -0.11690986 -0.00039329947 -0.0045857695 0.022689037 -0.00063961773
0.041970927 0.012216536 -0.080721214 0.10997895 0.024324331 -0.014541196 0.040655926 0.074247435
-0.06364963 -0.035556626 0.025496086 0.027739886 -0.005538492 -0.0042576776 0.00928677 -0.015322811
0.004118266 0.007983752 0.026878294 0.044603884 0.008598694 0.074924424 0.0030035267 -0.05826258
-0.018916452 -0.028836716 -0.062192474 0.0025498632 0.025210736 0.0086818 -0.07008203 -0.12483697
0.048720453 0.017962527 0.027736826 -0.03515517 -0.016508799 -0.06832831 0.021482212 -0.08603663

network_body.linear_encoder.seq_layers.2.bias f4 [128]
00000000: 0000 0000 0000 0000 0000 0000 0000 0000
00000010: 0000 0000 0000 0000 0000 0000 0000 0000
00000020: 0000 0000 0000 0000 0000 0000 0000 0000
00000030: 0000 0000 0000 0000 0000 0000 0000 0000
00000040: 0000 0000 0000 0000 0000 0000 0000 0000
00000050: 0000 0000 0000 0000 0000 0000 0000 0000
00000060: 0000 0000 0000 0000 0000 0000 0000 0000
00000070: 0000 0000 0000 0000 0000 0000 0000 0000
00000080: 0000 0000 0000 0000 0000 0000 0000 0000
00000090: 0000 0000 0000 0000 0000 0000 0000 0000
000000a0: 0000 0000 0000 0000 0000 0000 0000 0000
000000b0: 0000 0000 0000 0000 0000 0000 0000 0000
000000c0: 0000 0000 0000 0000 0000 0000 0000 0000
000000d0: 0000 0000 0000 0000 0000 0000 0000 0000
000000e0: 0000 0000 0000 0000 0000 0000 0000 0000
000000f0: 0000 0000 0000 0000 0000 0000 0000 0000
00000100: 0000 0000 0000 0000 0000 0000 0000 0000
00000110: 0000 0000 0000 0000 0000 0000 0000 0000
00000120: 0000 0000 0000 0000 0000 0000 0000 0000
00000130: 0000 0000 0000 0000 0000 0000 0000 0000
00000140: 0000 0000 0000 0000 0000 0000 0000 0000
00000150: 0000 0000 0000 0000 0000 0000 0000 0000
00000160: 0000 0000 0000 0000 0000 0000 0000 0000
00000170: 0000 0000 0000 0000 0000 0000 0000 0000
00000180: 0000 0000 0000 0000 0000 0000 0000 0000
00000190: 0000 0000 0000 0000 0000 0000 0000 0000
000001a0: 0000 0000 0000 0000 0000 0000 0000 0000
000001b0: 0000 0000 0000 0000 0000 0000 0000 0000
000001c0: 0000 0000 0000 0000 0000 0000 0000 0000
000001d0: 0000 0000 0000 0000 0000 0000 0000 0000
000001e0: 0000 0000 0000 0000 0000 0000 0000 0000
000001f0: 0000 0000 0000 0000 0000 0000 0000 0000
0.0 0.0 0.0 0.0 0.0 0.0 0.0 0.0
0.0 0.0 0.0 0.0 0.0 0.0 0.0 0.0
0.0 0.0 0.0 0.0 0.0 0.0 0.0 0.0
0.0 0.0 0.0 0.0 0.0 0.0 0.0 0.0
0.0 0.0 0.0 0.0 0.0 0.0 0.0 0.0
0.0 0.0 0.0 0.0 0.0 0.0 0.0 0.0
0.0 0.0 0.0 0.0 0.0 0.0 0.0 0.0
0.0 0.0 0.0 0.0 0.0 0.0 0.0 0.0
0.0 0.0 0.0 0.0 0.0 0.0 0.0 0.0
0.0 0.0 0.0 0.0 0.0 0.0 0.0 0.0
0.0 0.0 0.0 0.0 0.0 0.0 0.0 0.0
0.0 0.0 0.0 0.0 0.0 0.0 0.0 0.0
0.0 0.0 0.0 0.0 0.0 0.0 0.0 0.0
0.0 0.0 0.0 0.0 0.0 0.0 0.0 0.0
0.0 0.0 0.0 0.0 0.0 0.0 0.0 0.0
0.0 0.0 0.0 0.0 0.0 0.0 0.0 0.0

network_body.linear_encoder.seq_layers.2.weight f4 [128, 128]
00000000: 130f 2ebe c627 b83b cae7 f93d d27c 783d
00000010: 5ee2 003d c489 e2ba 0fcc 533d 1b95 babd
00000020: 5ec3 b83e 1e9c 75bc e425 cd3d 7b2a 243e
00000030: 3ec7 923a 8ec7 86bd 21b9 18bc df73 a33c
00000040: 54ac 603d d132 d6ba 29ec 7e3d 40e5 f43d
00000050: cbc5 85bd f305 cd3d c340 bd3d d8fb 6b3e
00000060: 7c27 573b aa29 f7bd 9fe8 923d 8260 11be
00000070: fd31 253e 5875 883d 16de 6ebd 12ab 183d
00000080: b71b debc 8f07 393d 0d52 6ebb d425 42bc
00000090: 043e 13bd 7b02 b7bd 76fc 91bb 09bc 1d3d
000000a0: 0e12 68be ee10 80bd a639 c73d a02b 4abd
000000b0: 4aa5 be3d 8901 86bc bb8c 8abd db00 053d
000000c0: e8ca 94bd 461d 023d 389f b0bb 836f d73d
000000d0: 0649 d7ba 3981 ebbd 8ac4 a73d 289b a73d
000000e0: 78fc c6bd 429a 8c3d 2263 8aba a0b7 d33d
000000f0: b93f 70bd 9145 193e bc7e 27bd c585 5cbc
00000100: b72e 2f3e 17fa 9ebc ea88 d4bd 6ce9 613d
00000110: 6a8d 95bd 3489 893d 0baf 113d 908a 33be
00000120: 2a2b 8abd 6649 ddbc ccce e5bd 1f5b 043e
00000130: 3771 b73c 4d27 223d f0cd 9b3d 74d0 29be
00000140: cb59 57bd 3d65 513c ae7c 5abe 1a72 d4bd
00000150: a746 593d 3f3b 01bd e0fb a43d 8c71 8dbd
00000160: 8205 14be b801 fd3d 2c0b 76bd 55cc 8bbc
00000170: 3306 16bd 52d3 f33d 5c0e a13d 90b4 53bc
00000180: 3363 983d 7ea8 88bd 0c6d 833c 9162 823d
00000190: 4fed 6e3d 44a3 3d3d f57a eebd 095e f73b
000001a0: 7b06 32bd 47a3 903d 0ad1 83bd 4ed1 d23d
000001b0: c812 9ebd 0f93 ffbd aed3 e53d 515d 533d
000001c0: e3da b6bd 4195 8dbc c40d 863d d4f9 9bbd
000001d0: 0d07 ea3c be07 523d 84c8 1c3e 9b65 a03d
000001e0: c050 69bd cfc4 33bc 9f1e e2bd b6c7 98bd
000001f0: 5d8b d8bd 262f 8e3d f097 833d fbbd 303a
00000200: 454e 03bd 4657 903c 50af 3d3e ef39 0bbd
00000210: ddb8 263e a616 b7bd ad69 783d e11a b03c
00000220: 3b77 a93c 6db9 443d 8b5e 1fbe df6b cc3d
00000230: 4be4 16be 77df 01bd eaed 02be 7c5e 533d
00000240: 8c1e a73d c15c 80bd 9a95 83bd 90e6 683d
00000250: 374d 7e3c c5f0 d9bc b1d2 0cbe 355c e33d
00000260: 46e7 b0bc 119c bc3d bb3a 9f3d e412 ef3d
00000270: a5d3 283d 483b fbbd 1727 a03d 8122 64bc
00000280: 542a ffbd 06c4 88bd 375d 55bd 68f1 ab3d
00000290: 67e6 8f3d 56fd b4bd 9be3 073e 4331 55bc
000002a0: e019 e03c 4ea1 5fbd bff5 5bbd c07e 64bd
000002b0: be35 a73d d3b9 c9bd 9f24 bcbd 35cf c23d
000002c0: 372e 193d 2ef6 ff3b 5a14 043e 1edc b23d
000002d0: 3337 f23d ead0 2f3d b139 b7bd c2ec 83bd
000002e0: 2263 f7bd 83f9 d1bc f428 0e3e 39fd 0e3d
000002f0: 97c0 bdbc 5815 54be d399 04bd e198 46be
00000300: 7f6c 7fbd cd7a 4b3c ce1f f63d 18b3 8fbc
00000310: 69c3 893d 93f3 a93b 5e09 d8bd 3187 413d
00000320: bf11 9a3d 5d53 503c 0a31 47bd 6827 3ebd
00000330: 6810 ad3d a104 93bc d853 643d 4ee6 0dbd
00000340: 350c 6c3d c3dc f1bd 9648 bdbd e61e 033d
00000350: 9bba 043d 31a7 00be b2b6 6d3b c7cc 0abe
00000360: ffbe 06bc 43cd 0a3d 35ff 9abb be80 dabc
00000370: 894d 103b ed83 fdbd d929 00bd 8ae7 993d
00000380: dacd 8abd 815d b5bd fb76 9a3c 94a3 dbbc
00000390: 1876 4bbe 5094 173d 518d 283e b177 4fbe
000003a0: 3d26 dcbd 0767 cbbd 5ec1 ae3d 23f7 9fbd
000003b0: b536 653d 968e 5ab9 b1f9 f5bc 60c8 c5bd
000003c0: 0556 8d3d 0f9d 213d 66dc 00be 5350 373d
000003d0: 21db 68bd 1037 f6bb e910 8ebd 3d76 82bb
000003e0: bdf5 bcbd dcc8 a83d b1db 1b3e c01b fabd
000003f0: 9d70 a0bc d7a2 363d eadd 233e f4cb 8fbd
-0.16997938 0.0056199757 0.122024134 0.060665913 0.03146588 -0.0017283489 0.051708277 -0.09110471
0.36086553 -0.0149908345 0.10016993 0.1603183 0.0011198295 -0.06581031 -0.009321482 0.019952713
0.054851845 -0.0016342049 0.06223694 0.119577885 -0.06531867 0.100109 0.09240868 0.2304529
0.003282993 -0.12068494 0.07173275 -0.14196971 0.1613235 0.066630065 -0.058317266 0.03727252
-0.027112825 0.045173224 -0.0036364824 -0.011849839 -0.035947815 -0.0893602 -0.0044551445 0.038509402
-0.22663137 -0.06253229 0.097277924 -0.04935801 0.0930887 -0.016358154 -0.067651235 0.03247152
-0.07265264 0.0317662 -0.005390074 0.10519316 -0.0016424961 -0.11499257 0.08191784 0.081838906
-0.09716123 0.0686536 -0.0010558108 0.10337758 -0.05865452 0.14967944 -0.040892348 -0.0134596275
0.17107664 -0.019406362 -0.10377677 0.05515425 -0.07302363 0.067156225 0.035567325 -0.17533326
-0.06746514 -0.027012538 -0.11221084 0.12925385 0.022392852 0.03958826 0.07607639 -0.16583425
-0.052575868 0.012780485 -0.21336624 -0.10373326 0.053045895 -0.031550642 0.08055854 -0.06906423
-0.14455226 0.123538435 -0.060069248 -0.017065207 -0.036627006 0.119055405 0.07864067 -0.012921467
0.07440796 -0.06672762 0.016043209 0.06366456 0.058331784 0.04629828 -0.11644546 0.0075490517
-0.04346321 0.07062393 -0.064363554 0.10293828 -0.07718426 -0.12479221 0.11222015 0.051602665
-0.08928468 -0.017283084 0.06545594 -0.0761601 0.028567815 0.051276915 0.15310866 0.0783188
-0.056961775 -0.010972216 -0.11040997 -0.07459967 -0.105734564 0.069425866 0.06425464 0.00067421765
-0.032057066 0.01761974 0.18523908 -0.033990797 0.16281457 -0.08939867 0.060647655 0.021497192
0.020686736 0.0480284 -0.15563409 0.09981512 -0.14735524 -0.031707253 -0.1278607 0.05160378
0.08160123 -0.062676914 -0.064250186 0.056860507 0.015521339 -0.026604066 -0.13752247 0.111015715
-0.021594655 0.09209455 0.07774874 0.11673525 0.041217465 -0.122671664 0.07819956 -0.013924242
-0.12459245 -0.066780135 -0.05209085 0.08395654 0.07026368 -0.088373825 0.13270418 -0.013012233
0.027356088 -0.05459719 -0.05370116 -0.05578494 0.081645474 -0.09849896 -0.091866724 0.09512178
0.03739759 0.0078113293 0.12898389 0.0873339 0.11826935 0.042923845 -0.08946551 -0.06441642
-0.12079455 -0.025631672 0.1388281 0.03490946 -0.023163123 -0.20711267 -0.03237326 -0.19394256
-0.06235933 0.012419415 0.12017785 -0.017541453 0.06726725 0.005186507 -0.10548662 0.04724807
0.07522916 0.012715188 -0.04863075 -0.0464243 0.08450395 -0.017946543 0.055744022 -0.034643464
0.05762883 -0.11809685 -0.0924236 0.03201189 0.032404523 -0.12563778 0.0036272225 -0.13554679
-0.008224248 0.03388716 -0.00473013 -0.026672717 0.002201887 -0.123786785 -0.03128991 0.07514866
-0.06777544 -0.08855725 0.018855562 -0.026811399 -0.19869268 0.037006676 0.16460158 -0.20260502
-0.10749481 -0.0993176 0.085329756 -0.078108095 0.055960376 -0.00020843217 -0.030026289 -0.09657359
0.069011725 0.039456423 -0.12584075 0.044754338 -0.056849603 -0.007513888 -0.06936819 -0.0039813803
-0.09226558 0.08241436 0.15220524 -0.12212324 -0.019584948 0.04458889 0.16002622 -0.07021323
