Assets/results/Run03/RobotPathFinder/RobotPathFinder-2751.pt (torch, 562703 bytes, 11 tensors)

network_body.linear_encoder.seq_layers.0.weight f4 [128, 410]
0	0x3d593131	0.05302543
1	0xbbc3d9ce	-0.005976892
2	0x3ca8e220	0.020615637
3	0x3bab8a33	0.0052349805
4	0xbde4c13d	-0.1116967
5	0xbd5a2a2e	-0.053262882
6	0x3d048a19	0.032358263
7	0x3d8eeba8	0.069785416
8	0x3d62ce14	0.055372313
9	0x3c3db59d	0.0115789445
10	0x3c9b5588	0.018961683
11	0xbd081a49	-0.033228192
12	0x3d1322f2	0.035922
13	0xbccce04e	-0.0250093
14	0xbd17ce29	-0.037061844
15	0x3b98fa51	0.004668512
16	0xb9f93894	-0.00047535135
17	0xbd8e3306	-0.06943326
18	0xbd5096c7	-0.050925042
19	0x3d44e2fe	0.04806804
20	0xbd03a446	-0.032139085
21	0x3c8acc9c	0.016943268
22	0x3cdec076	0.027191382
23	0xbd8c575e	-0.068526015
24	0xbc072992	-0.008249657
25	0x3b61c2e4	0.003444844
26	0x3c0a35a4	0.0084356405
27	0xbd3e56ca	-0.046469487
28	0xbd5f7dbb	-0.054563265
29	0x3d077d85	0.03307869
30	0xbdbc76b7	-0.092023306
31	0x3db71ffa	0.08941646
32	0x3d8e4460	0.06946635
33	0x3d57e25f	0.05270612
34	0x3ceecc8f	0.029150276
35	0xbc0a3a22	-0.0084367115
36	0xbd849968	-0.064745724
37	0x3c18b99b	0.009321596
38	0xbcaa0712	-0.020755325
39	0xbcf7405e	-0.03018206
40	0xbd8d4af6	-0.06899063
41	0x3da35425	0.07975034
42	0x3cc1c8d2	0.023655329
43	0x3d362c2f	0.04447573
44	0x3d7ee290	0.062227786
45	0xbc878878	-0.016544566
46	0x3d134956	0.03595861
47	0xbd166c15	-0.03672417
48	0xbb26ede8	-0.0025471393
49	0xbc1519bb	-0.009100373
50	0xbd06d1f8	-0.032915086
51	0xbc887d7d	-0.0166614
52	0xbdccfe35	-0.10009424
53	0x3d423838	0.047416896
54	0xbd1a3985	-0.03765251
55	0x3d7b41d7	0.061342087
56	0xbc40ee00	-0.011775494
57	0x3ccf43bc	0.025300853
58	0xbc27fb57	-0.010252795
59	0x3cee892d	0.029118145
60	0x3c35b26a	0.0110899005
61	0x3ccaa805	0.024738321
62	0xbcd703b2	-0.02624688
63	0x3bb0330f	0.0053771804
64	0x3d104314	0.03522022
65	0xbc667c41	-0.01406771
66	0x3cef17bb	0.02918612
67	0x3c0ae836	0.008478215
68	0x3d99f485	0.075173415
69	0x3b5474e4	0.0032418305
70	0xbd2c8cac	-0.042126343
71	0xbdb01144	-0.08597043
72	0x3bf046ed	0.0073326738
73	0x3b1d04aa	0.0023959079
74	0xbc3b9003	-0.011447909
75	0xbcd5908c	-0.026069902
76	0xbcd06cdd	-0.025442535
77	0x3d17ae48	0.037031442
78	0xbd9ef00d	-0.0776063
79	0x3bd28c6f	0.0064254324
80	0xbd8106a9	-0.063000984
81	0x3cab1675	0.020884732
82	0xbd2f5e31	-0.042814437
83	0x3d472b91	0.048625533
84	0x3e060f41	0.13091756
85	0x3c8d4f8a	0.017249841
86	0x3d8e241b	0.0694048
87	0x3d3a3de4	0.04546918
88	0xbd30811a	-0.04309187
89	0x3bc10bbe	0.0058912924
90	0x3e2ae598	0.16689146
91	0xbd04fed6	-0.032469593
92	0xbd8b890b	-0.06813248
93	0xbd710d9a	-0.058850862
94	0xbc8450d9	-0.016151832
95	0xbca67f3f	-0.020324348
96	0x3d4d7c46	0.050167345
97	0x3ac87548	0.0015293742
98	0xbd50abe4	-0.050945178
99	0xbcc03e2b	-0.023467144
100	0xbdb80f3d	-0.089872815
101	0x3d4eb1ec	0.05046265
102	0x3d86a087	0.06573587
103	0x3d4e9ae6	0.05044069
104	0xbde14a67	-0.11000519
105	0xbd3f279b	-0.04666863
106	0xba7c2494	-0.00096184877
107	0x3d504a2b	0.050851982
108	0xbcc60a3b	-0.0241748
109	0xbdc590a6	-0.0964673
110	0x3d187079	0.037216637
111	0xbcbc3ee4	-0.022979207
112	0xbba788f9	-0.005112764
113	0xbca20b0c	-0.019780658
114	0x3d13eaa4	0.036112443
115	0xbc0dfa19	-0.008665585
116	0x3d4d0908	0.05005744
117	0x3d868435	0.06568185
118	0x3d74eee0	0.05979812
119	0xbd0f341e	-0.034961812
120	0xbda40c39	-0.08010144
121	0xbcdcdd21	-0.026960911
122	0x3d2db894	0.042412356
123	0xbd1ede9f	-0.038786527
124	0xbd39e627	-0.045385506
125	0x3de7cebe	0.1131873
126	0xbce5363c	-0.027979963
127	0x3d529b7f	0.051417824
128	0x3c46908a	0.012119422
129	0x3c3fedcb	0.011714409
130	0x3cc65fae	0.024215546
131	0xb8cd232d	-9.781714e-05
132	0xbc9e4bf4	-0.019323327
133	0xbd201c73	-0.03908963
134	0x3a617150	0.0008599954
135	0xbc95a99c	-0.018269353
136	0x3c068835	0.008211185
137	0x3c5ed4f2	0.013600575
138	0xbc7b98ed	-0.015356285
139	0x3d5f638e	0.054538302
140	0x3d21b5ac	0.039479896
141	0xbd896e54	-0.067104965
142	0xbcb07b57	-0.021543188
143	0xbd5dac28	-0.05411926
144	0xbcd8b206	-0.026452076
145	0xbcc7e839	-0.024402725
146	0xbd0ba933	-0.034096908
147	0x3d920608	0.071300566
148	0xbbc81bda	-0.006106836
149	0x3b24fa6d	0.002517368
150	0x3d97e1c8	0.07416111
151	0x3c643774	0.013929237
152	0x3c28c066	0.010299778
153	0x3d5263ca	0.051364698
154	0x3c85c785	0.01633049
155	0xbdc45c67	-0.09587937
156	0x3c153841	0.00910765
157	0xbd9673ee	-0.073463306
158	0xba875780	-0.001032576
159	0x3db5dda7	0.088801675
160	0xbd209b27	-0.039210465
161	0xbcae3202	-0.02126408
162	0xbd4fa310	-0.050692618
163	0x380ccb6f	3.3568063e-05
164	0xbd034a04	-0.03205301
165	0x3da6e09b	0.08148309
166	0xbd2922b2	-0.041292854
167	0x3c52f3b2	0.012875484
168	0xbcf98b40	-0.030461907
169	0xbcb148c9	-0.021641152
170	0xbc85a0d7	-0.016312046
171	0xbd6cbbce	-0.057796292
172	0x3d875e53	0.06609788
173	0xbcd6949b	-0.026193907
174	0x3d50e77b	0.051002007
175	0xbc983cd0	-0.018583685
176	0xbd0e3429	-0.034717713
177	0xbdc961bb	-0.09833094
178	0xbd7f20ec	-0.062287256
179	0x3c4ee0f9	0.01262688
180	0x3c7d40be	0.01545733
181	0x3d95fbfe	0.07323454
182	0x3b26d39c	0.002545572
183	0xbc6bab66	-0.014384126
184	0x3ca71ca3	0.020399397
185	0xbd62214b	-0.055207532
186	0xbdd4be71	-0.10387886
187	0xbd9aaf5f	-0.07552981
188	0xbdbe11bb	-0.092807256
189	0x3d6b1c57	0.057400074
190	0xbc054866	-0.008134937
191	0x3d533549	0.05156449
192	0x3c352abf	0.011057555
193	0xbc2081a3	-0.009796533
194	0x3da3c218	0.07996005
195	0xbdb8aed8	-0.09017724
196	0x3d869990	0.065722585
197	0x3d2b0709	0.041754756
198	0x3cf7bc80	0.030241251
199	0xbdd532c7	-0.10410076
200	0x3d3f1053	0.046646427
201	0x3d20eee1	0.039290313
202	0xbcbfa102	-0.023392204
203	0xba08b93b	-0.000521559
204	0xbc8d0247	-0.017213
205	0xbd67de9f	-0.056608792
206	0x3d6a4aee	0.057200365
207	0xbd0e25a1	-0.034703854
208	0xbdc966d6	-0.098340675
209	0x3cbcb229	0.023034172
210	0x3d8aae72	0.06771554
211	0xbdef6e70	-0.11690986
212	0xb9ce33c3	-0.00039329947
213	0xbb964439	-0.0045857695
214	0x3cb9de5c	0.022689037
215	0xba27ac05	-0.00063961773
216	0x3d2be9b5	0.041970927
217	0x3c4827de	0.012216536
218	0xbda5512a	-0.080721214
219	0x3de13ca5	0.10997895
220	0x3cc743d2	0.024324331
221	0xbc6e3e32	-0.014541196
222	0x3d2686d4	0.040655926
223	0x3d980f0a	0.074247435
224	0xbd825abd	-0.06364963
225	0xbd11a3d3	-0.035556626
226	0x3cd0dd2b	0.025496086
227	0x3ce33ec2	0.027739886
228	0xbbb57c3d	-0.005538492
229	0xbb8b83fd	-0.0042576776
230	0x3c182789	0.00928677
231	0xbc7b0c87	-0.015322811
232	0x3b86f285	0.004118266
233	0x3c02ce48	0.007983752
234	0x3cdc2fde	0.026878294
235	0x3d36b290	0.044603884
236	0x3c0ce189	0.008598694
237	0x3d9971fa	0.074924424
238	0x3b44d6d1	0.0030035267
239	0xbd6ea4be	-0.05826258
240	0xbc9af6ad	-0.018916452
241	0xbcec3afa	-0.028836716
242	0xbd7ebd89	-0.062192474
243	0x3b271b9b	0.0025498632
244	0x3cce86bf	0.025210736
245	0x3c0e3e1c	0.0086818
246	0xbd8f872b	-0.07008203
247	0xbdffaa86	-0.12483697
248	0x3d478f19	0.048720453
249	0x3c932626	0.017962527
250	0x3ce33857	0.027736826
251	0xbd0ffede	-0.03515517
252	0xbc873d76	-0.016508799
253	0xbd8befb7	-0.06832831
254	0x3caffb77	0.021482212
255	0xbdb033f9	-0.08603663

network_body.linear_encoder.seq_layers.0.bias f4 [128]
0	0x00000000	0.0
1	0x00000000	0.0
2	0x00000000	0.0
3	0x00000000	0.0
4	0x00000000	0.0
5	0x00000000	0.0
6	0x00000000	0.0
7	0x00000000	0.0
8	0x00000000	0.0
9	0x00000000	0.0
10	0x00000000	0.0
11	0x00000000	0.0
12	0x00000000	0.0
13	0x00000000	0.0
14	0x00000000	0.0
15	0x00000000	0.0
16	0x00000000	0.0
17	0x00000000	0.0
18	0x00000000	0.0
19	0x00000000	0.0
20	0x00000000	0.0
21	0x00000000	0.0
22	0x00000000	0.0
23	0x00000000	0.0
24	0x00000000	0.0
25	0x00000000	0.0
26	0x00000000	0.0
27	0x00000000	0.0
28	0x00000000	0.0
29	0x00000000	0.0
30	0x00000000	0.0
31	0x00000000	0.0
32	0x00000000	0.0
33	0x00000000	0.0
34	0x00000000	0.0
35	0x00000000	0.0
36	0x00000000	0.0
37	0x00000000	0.0
38	0x00000000	0.0
39	0x00000000	0.0
40	0x00000000	0.0
41	0x00000000	0.0
42	0x00000000	0.0
43	0x00000000	0.0
44	0x00000000	0.0
45	0x00000000	0.0
46	0x00000000	0.0
47	0x00000000	0.0
48	0x00000000	0.0
49	0x00000000	0.0
50	0x00000000	0.0
51	0x00000000	0.0
52	0x00000000	0.0
53	0x00000000	0.0
54	0x00000000	0.0
55	0x00000000	0.0
56	0x00000000	0.0
57	0x00000000	0.0
58	0x00000000	0.0
59	0x00000000	0.0
60	0x00000000	0.0
61	0x00000000	0.0
62	0x00000000	0.0
63	0x00000000	0.0
64	0x00000000	0.0
65	0x00000000	0.0
66	0x00000000	0.0
67	0x00000000	0.0
68	0x00000000	0.0
69	0x00000000	0.0
70	0x00000000	0.0
71	0x00000000	0.0
72	0x00000000	0.0
73	0x00000000	0.0
74	0x00000000	0.0
75	0x00000000	0.0
76	0x00000000	0.0
77	0x00000000	0.0
78	0x00000000	0.0
79	0x00000000	0.0
80	0x00000000	0.0
81	0x00000000	0.0
82	0x00000000	0.0
83	0x00000000	0.0
84	0x00000000	0.0
85	0x00000000	0.0
86	0x00000000	0.0
87	0x00000000	0.0
88	0x00000000	0.0
89	0x00000000	0.0
90	0x00000000	0.0
91	0x00000000	0.0
92	0x00000000	0.0
93	0x00000000	0.0
94	0x00000000	0.0
95	0x00000000	0.0
96	0x00000000	0.0
97	0x00000000	0.0
98	0x00000000	0.0
99	0x00000000	0.0
100	0x00000000	0.0
101	0x00000000	0.0
102	0x00000000	0.0
103	0x00000000	0.0
104	0x00000000	0.0
105	0x00000000	0.0
106	0x00000000	0.0
107	0x00000000	0.0
108	0x00000000	0.0
109	0x00000000	0.0
110	0x00000000	0.0
111	0x00000000	0.0
112	0x00000000	0.0
113	0x00000000	0.0
114	0x00000000	0.0
115	0x00000000	0.0
116	0x00000000	0.0
117	0x00000000	0.0
118	0x00000000	0.0
119	0x00000000	0.0
120	0x00000000	0.0
121	0x00000000	0.0
122	0x00000000	0.0
123	0x00000000	0.0
124	0x00000000	0.0
125	0x00000000	0.0
126	0x00000000	0.0
127	0x00000000	0.0

network_body.linear_encoder.seq_layers.2.weight f4 [128, 128]
0	0xbe2e0f13	-0.16997938
1	0x3bb827c6	0.0056199757
2	0x3df9e7ca	0.122024134
3	0x3d787cd2	0.060665913
4	0x3d00e25e	0.03146588
5	0xbae289c4	-0.0017283489
6	0x3d53cc0f	0.051708277
7	0xbdba951b	-0.09110471
8	0x3eb8c35e	0.36086553
9	0xbc759c1e	-0.0149908345
10	0x3dcd25e4	0.10016993
11	0x3e242a7b	0.1603183
12	0x3a92c73e	0.0011198295
13	0xbd86c78e	-0.06581031
14	0xbc18b921	-0.009321482
15	0x3ca373df	0.019952713
16	0x3d60ac54	0.054851845
17	0xbad632d1	-0.0016342049
18	0x3d7eec29	0.06223694
19	0x3df4e540	0.119577885
20	0xbd85c5cb	-0.06531867
21	0x3dcd05f3	0.100109
22	0x3dbd40c3	0.09240868
23	0x3e6bfbd8	0.2304529
24	0x3b57277c	0.003282993
25	0xbdf729aa	-0.12068494
26	0x3d92e89f	0.07173275
27	0xbe116082	-0.14196971
28	0x3e2531fd	0.1613235
29	0x3d887558	0.066630065
30	0xbd6ede16	-0.058317266
31	0x3d18ab12	0.03727252
32	0xbcde1bb7	-0.027112825
33	0x3d39078f	0.045173224
34	0xbb6e520d	-0.0036364824
35	0xbc4225d4	-0.011849839
36	0xbd133e04	-0.035947815
37	0xbdb7027b	-0.0893602
38	0xbb91fc76	-0.0044551445
39	0x3d1dbc09	0.038509402
40	0xbe68120e	-0.22663137
41	0xbd8010ee	-0.06253229
42	0x3dc739a6	0.097277924
43	0xbd4a2ba0	-0.04935801
44	0x3dbea54a	0.0930887
45	0xbc860189	-0.016358154
46	0xbd8a8cbb	-0.067651235
47	0x3d0500db	0.03247152
48	0xbd94cae8	-0.07265264
49	0x3d021d46	0.0317662
50	0xbbb09f38	-0.005390074
51	0x3dd76f83	0.10519316
52	0xbad74906	-0.0016424961
53	0xbdeb8139	-0.11499257
54	0x3da7c48a	0.08191784
55	0x3da79b28	0.081838906
56	0xbdc6fc78	-0.09716123
57	0x3d8c9a42	0.0686536
58	0xba8a6322	-0.0010558108
59	0x3dd3b7a0	0.10337758
60	0xbd703fb9	-0.05865452
61	0x3e194591	0.14967944
62	0xbd277ebc	-0.040892348
63	0xbc5c85c5	-0.0134596275
64	0x3e2f2eb7	0.17107664
65	0xbc9efa17	-0.019406362
66	0xbdd488ea	-0.10377677
67	0x3d61e96c	0.05515425
68	0xbd958d6a	-0.07302363
69	0x3d898934	0.067156225
70	0x3d11af0b	0.035567325
71	0xbe338a90	-0.17533326
72	0xbd8a2b2a	-0.06746514
73	0xbcdd4966	-0.027012538
74	0xbde5cecc	-0.11221084
75	0x3e045b1f	0.12925385
76	0x3cb77137	0.022392852
77	0x3d22274d	0.03958826
78	0x3d9bcdf0	0.07607639
79	0xbe29d074	-0.16583425
80	0xbd5759cb	-0.052575868
81	0x3c51653d	0.012780485
82	0xbe5a7cae	-0.21336624
83	0xbdd4721a	-0.10373326
84	0x3d5946a7	0.053045895
85	0xbd013b3f	-0.031550642
86	0x3da4fbe0	0.08055854
87	0xbd8d718c	-0.06906423
88	0xbe140582	-0.14455226
89	0x3dfd01b8	0.123538435
90	0xbd760b2c	-0.060069248
91	0xbc8bcc55	-0.017065207
92	0xbd160633	-0.036627006
93	0x3df3d352	0.119055405
94	0x3da10e5c	0.07864067
95	0xbc53b490	-0.012921467
96	0x3d986333	0.07440796
97	0xbd88a87e	-0.06672762
98	0x3c836d0c	0.016043209
99	0x3d826291	0.06366456
100	0x3d6eed4f	0.058331784
101	0x3d3da344	0.04629828
102	0xbdee7af5	-0.11644546
103	0x3bf75e09	0.0075490517
104	0xbd32067b	-0.04346321
105	0x3d90a347	0.07062393
106	0xbd83d10a	-0.064363554
107	0x3dd2d14e	0.10293828
108	0xbd9e12c8	-0.07718426
109	0xbdff930f	-0.12479221
110	0x3de5d3ae	0.11222015
111	0x3d535d51	0.051602665
112	0xbdb6dae3	-0.08928468
113	0xbc8d9541	-0.017283084
114	0x3d860dc4	0.06545594
115	0xbd9bf9d4	-0.0761601
116	0x3cea070d	0.028567815
117	0x3d5207be	0.051276915
118	0x3e1cc884	0.15310866
119	0x3da0659b	0.0783188
120	0xbd6950c0	-0.056961775
121	0xbc33c4cf	-0.010972216
122	0xbde21e9f	-0.11040997
123	0xbd98c7b6	-0.07459967
124	0xbdd88b5d	-0.105734564
125	0x3d8e2f26	0.069425866
126	0x3d8397f0	0.06425464
127	0x3a30bdfb	0.00067421765
128	0xbd034e45	-0.032057066
129	0x3c905746	0.01761974
130	0x3e3daf50	0.18523908
131	0xbd0b39ef	-0.033990797
132	0x3e26b8dd	0.16281457
133	0xbdb716a6	-0.08939867
134	0x3d7869ad	0.060647655
135	0x3cb01ae1	0.021497192
136	0x3ca9773b	0.020686736
137	0x3d44b96d	0.0480284
138	0xbe1f5e8b	-0.15563409
139	0x3dcc6bdf	0.09981512
140	0xbe16e44b	-0.14735524
141	0xbd01df77	-0.031707253
142	0xbe02edea	-0.1278607
143	0x3d535e7c	0.05160378
144	0x3da71e8c	0.08160123
145	0xbd805cc1	-0.062676914
146	0xbd83959a	-0.064250186
147	0x3d68e690	0.056860507
148	0x3c7e4d37	0.015521339
149	0xbcd9f0c5	-0.026604066
150	0xbe0cd2b1	-0.13752247
151	0x3de35c35	0.111015715
152	0xbcb0e746	-0.021594655
153	0x3dbc9c11	0.09209455
154	0x3d9f3abb	0.07774874
155	0x3def12e4	0.11673525
156	0x3d28d3a5	0.041217465
157	0xbdfb3b48	-0.122671664
158	0x3da02717	0.07819956
159	0xbc642281	-0.013924242
160	0xbdff2a54	-0.12459245
161	0xbd88c406	-0.066780135
162	0xbd555d37	-0.05209085
163	0x3dabf168	0.08395654
164	0x3d8fe667	0.07026368
165	0xbdb4fd56	-0.088373825
166	0x3e07e39b	0.13270418
167	0xbc553143	-0.013012233
168	0x3ce019e0	0.027356088
169	0xbd5fa14e	-0.05459719
170	0xbd5bf5bf	-0.05370116
171	0xbd647ec0	-0.05578494
172	0x3da735be	0.081645474
173	0xbdc9b9d3	-0.09849896
174	0xbdbc249f	-0.091866724
175	0x3dc2cf35	0.09512178
176	0x3d192e37	0.03739759
177	0x3bfff62e	0.0078113293
178	0x3e04145a	0.12898389
179	0x3db2dc1e	0.0873339
180	0x3df23733	0.11826935
181	0x3d2fd0ea	0.042923845
182	0xbdb739b1	-0.08946551
183	0xbd83ecc2	-0.06441642
184	0xbdf76322	-0.12079455
185	0xbcd1f983	-0.025631672
186	0x3e0e28f4	0.1388281
187	0x3d0efd39	0.03490946
188	0xbcbdc097	-0.023163123
189	0xbe541558	-0.20711267
190	0xbd0499d3	-0.03237326
191	0xbe4698e1	-0.19394256
192	0xbd7f6c7f	-0.06235933
193	0x3c4b7acd	0.012419415
194	0x3df61fce	0.12017785
195	0xbc8fb318	-0.017541453
196	0x3d89c369	0.06726725
197	0x3ba9f393	0.005186507
198	0xbdd8095e	-0.10548662
199	0x3d418731	0.04724807
200	0x3d9a11bf	0.07522916
201	0x3c50535d	0.012715188
202	0xbd47310a	-0.04863075
203	0xbd3e2768	-0.0464243
204	0x3dad1068	0.08450395
205	0xbc9304a1	-0.017946543
206	0x3d6453d8	0.055744022
207	0xbd0de64e	-0.034643464
208	0x3d6c0c35	0.05762883
209	0xbdf1dcc3	-0.11809685
210	0xbdbd4896	-0.0924236
211	0x3d031ee6	0.03201189
212	0x3d04ba9b	0.032404523
213	0xbe00a731	-0.12563778
214	0x3b6db6b2	0.0036272225
215	0xbe0accc7	-0.13554679
216	0xbc06beff	-0.008224248
217	0x3d0acd43	0.03388716
218	0xbb9aff35	-0.00473013
219	0xbcda80be	-0.026672717
220	0x3b104d89	0.002201887
221	0xbdfd83ed	-0.123786785
222	0xbd0029d9	-0.03128991
223	0x3d99e78a	0.07514866
224	0xbd8acdda	-0.06777544
225	0xbdb55d81	-0.08855725
226	0x3c9a76fb	0.018855562
227	0xbcdba394	-0.026811399
228	0xbe4b7618	-0.19869268
229	0x3d179450	0.037006676
230	0x3e288d51	0.16460158
231	0xbe4f77b1	-0.20260502
232	0xbddc263d	-0.10749481
233	0xbdcb6707	-0.0993176
234	0x3daec15e	0.085329756
235	0xbd9ff723	-0.078108095
236	0x3d6536b5	0.055960376
237	0xb95a8e96	-0.00020843217
238	0xbcf5f9b1	-0.030026289
239	0xbdc5c860	-0.09657359
240	0x3d8d5605	0.069011725
241	0x3d219d0f	0.039456423
242	0xbe00dc66	-0.12584075
243	0x3d375053	0.044754338
244	0xbd68db21	-0.056849603
245	0xbbf63710	-0.007513888
246	0xbd8e10e9	-0.06936819
247	0xbb82763d	-0.0039813803
248	0xbdbcf5bd	-0.09226558
249	0x3da8c8dc	0.08241436
250	0x3e1bdbb1	0.15220524
251	0xbdfa1bc0	-0.12212324
252	0xbca0709d	-0.019584948
253	0x3d36a2d7	0.04458889
254	0x3e23ddea	0.16002622
255	0xbd8fcbf4	-0.07021323

network_body.linear_encoder.seq_layers.2.bias f4 [128]
0	0x00000000	0.0
1	0x00000000	0.0
2	0x00000000	0.0
3	0x00000000	0.0
4	0x00000000	0.0
5	0x00000000	0.0
6	0x00000000	0.0
7	0x00000000	0.0
8	0x00000000	0.0
9	0x00000000	0.0
10	0x00000000	0.0
11	0x00000000	0.0
12	0x00000000	0.0
13	0x00000000	0.0
14	0x00000000	0.0
15	0x00000000	0.0
16	0x00000000	0.0
17	0x00000000	0.0
18	0x00000000	0.0
19	0x00000000	0.0
20	0x00000000	0.0
21	0x00000000	0.0
22	0x00000000	0.0
23	0x00000000	0.0
24	0x00000000	0.0
25	0x00000000	0.0
26	0x00000000	0.0
27	0x00000000	0.0
28	0x00000000	0.0
29	0x00000000	0.0
30	0x00000000	0.0
31	0x00000000	0.0
32	0x00000000	0.0
33	0x00000000	0.0
34	0x00000000	0.0
35	0x00000000	0.0
36	0x00000000	0.0
37	0x00000000	0.0
38	0x00000000	0.0
39	0x00000000	0.0
40	0x00000000	0.0
41	0x00000000	0.0
42	0x00000000	0.0
43	0x00000000	0.0
44	0x00000000	0.0
45	0x00000000	0.0
46	0x00000000	0.0
47	0x00000000	0.0
48	0x00000000	0.0
49	0x00000000	0.0
50	0x00000000	0.0
51	0x00000000	0.0
52	0x00000000	0.0
53	0x00000000	0.0
54	0x00000000	0.0
55	0x00000000	0.0
56	0x00000000	0.0
57	0x00000000	0.0
58	0x00000000	0.0
59	0x00000000	0.0
60	0x00000000	0.0
61	0x00000000	0.0
62	0x00000000	0.0
63	0x00000000	0.0
64	0x00000000	0.0
65	0x00000000	0.0
66	0x00000000	0.0
67	0x00000000	0.0
68	0x00000000	0.0
69	0x00000000	0.0
70	0x00000000	0.0
71	0x00000000	0.0
72	0x00000000	0.0
73	0x00000000	0.0
74	0x00000000	0.0
75	0x00000000	0.0
76	0x00000000	0.0
77	0x00000000	0.0
78	0x00000000	0.0
79	0x00000000	0.0
80	0x00000000	0.0
81	0x00000000	0.0
82	0x00000000	0.0
83	0x00000000	0.0
84	0x00000000	0.0
85	0x00000000	0.0
86	0x00000000	0.0
87	0x00000000	0.0
88	0x00000000	0.0
89	0x00000000	0.0
90	0x00000000	0.0
91	0x00000000	0.0
92	0x00000000	0.0
93	0x00000000	0.0
94	0x00000000	0.0
95	0x00000000	0.0
96	0x00000000	0.0
97	0x00000000	0.0
98	0x00000000	0.0
99	0x00000000	0.0
100	0x00000000	0.0
101	0x00000000	0.0
102	0x00000000	0.0
103	0x00000000	0.0
104	0x00000000	0.0
105	0x00000000	0.0
106	0x00000000	0.0
107	0x00000000	0.0
108	0x00000000	0.0
109	0x00000000	0.0
110	0x00000000	0.0
111	0x00000000	0.0
112	0x00000000	0.0
113	0x00000000	0.0
114	0x00000000	0.0
115	0x00000000	0.0
116	0x00000000	0.0
117	0x00000000	0.0
118	0x00000000	0.0
119	0x00000000	0.0
120	0x00000000	0.0
121	0x00000000	0.0
122	0x00000000	0.0
123	0x00000000	0.0
124	0x00000000	0.0
125	0x00000000	0.0
126	0x00000000	0.0
127	0x00000000	0.0

distribution.branches.0.weight f4 [4, 128]
0	0x39dc83e8	0.00042059948
1	0x3bebc3c8	0.00719497
2	0xba55a21b	-0.0008149461
3	0x3c5bf4e5	0.013425087
4	0xbb65f3b8	-0.0035087895
5	0x3c0e0666	0.008668518
6	0x3c4a0ae2	0.012331696
7	0x3bb31d57	0.005466144
8	0xbbb0ec36	-0.0053992523
9	0xbceb2e3d	-0.028708572
10	0x3b4539cf	0.003009427
11	0x3c0ada14	0.008474845
12	0xbc2f1cf3	-0.010688054
13	0xbb5efc88	-0.0034025032
14	0x3bc09e90	0.005878277
15	0x3b71baa0	0.0036884919
16	0xbc411082	-0.011783721
17	0xbb09ab63	-0.0021006695
18	0xbbb8fbf7	-0.005645271
19	0x3be1383a	0.006873158
20	0x3b803cda	0.003913504
21	0x3a8aa6a1	0.0010578224
22	0xbc89025b	-0.016724756
23	0x3b9551ff	0.004556894
24	0xbb90b8af	-0.0044165473
25	0xbc011925	-0.00787953
26	0xbc0d742b	-0.008633654
27	0x3b1e37b7	0.0024142095
28	0xbc3fa963	-0.0116981
29	0x3c9298ce	0.017895129
30	0xb9490119	-0.00019169263
31	0xbb8c1eb8	-0.004276123
32	0x3c41eb9b	0.011835958
33	0xba83f347	-0.0010067009
34	0x3bf19035	0.007371927
35	0x3af5d222	0.0018754641
36	0xbbf572a0	-0.007490471
37	0xbb97850d	-0.004624015
38	0x3a4a6e87	0.00077221583
39	0x3aaf5a41	0.0013378338
40	0xbc36a4e2	-0.01114771
41	0x3c96f062	0.01842517
42	0xbb5366a2	-0.003225722
43	0x3b90a0e1	0.0044137095
44	0xbaa17be0	-0.0012320243
45	0xbc3a914f	-0.011387183
46	0xb961b8d7	-0.0002152653
47	0x3c083dcd	0.008315516
48	0x3b125f4c	0.0022334633
49	0xbb15e73b	-0.002287342
50	0xb9a209c7	-0.00030906333
51	0x3c56f05d	0.0131188305
52	0x3b1eb495	0.0024216522
53	0x3b75230a	0.0037404918
54	0xbbebb068	-0.00719266
55	0x3c04a1cf	0.008095219
56	0x3b6a0090	0.0035705902
57	0x3c75c00f	0.014999404
58	0xba37a472	-0.00070054
59	0x3b85c12b	0.0040818653
60	0xbbfdf5f7	-0.0077502686
61	0x3bf8bdad	0.0075909705
62	0xbb9c2060	-0.0047646016
63	0xbb98008e	-0.004638738
64	0x3c792cd7	0.015208445
65	0x3b29d277	0.00259128
66	0xbaddd1ea	-0.0016923521
67	0xbbedc927	-0.0072566452
68	0xbcc1e68b	-0.023669502
69	0x3c061183	0.008182886
70	0xbbabcbc5	-0.005242797
71	0xbc029d95	-0.007972141
72	0x3a6b86e7	0.00089846406
73	0xba29f9de	-0.00064840715
74	0x3a1a4d68	0.0005886168
75	0xbaf7278b	-0.0018856389
76	0xb792b891	-1.7490502e-05
77	0xbbf0bc93	-0.0073466985
78	0xbacc72c9	-0.0015598173
79	0x3b0a3854	0.0021090703
80	0xbb91596d	-0.004435709
81	0x3b90c491	0.004417964
82	0x3badab36	0.005299951
83	0xbc8f283f	-0.017475246
84	0xbc2d18e4	-0.010565016
85	0x3b4a8717	0.0030903274
86	0xbc21aa60	-0.009867281
87	0x3be62a2f	0.0070240716
88	0x3bc337d7	0.0059575844
89	0x3b8d0fe3	0.0043048724
90	0x3b8df358	0.0043319874
91	0xbc249b81	-0.010046841
92	0x3b5c8887	0.0033650713
93	0x3b0857ce	0.0020804289
94	0x3b8da8c4	0.004323097
95	0xbc93c656	-0.01803891
96	0x3b742b7d	0.0037257366
97	0x3bd94687	0.006630722
98	0xbc35ca3f	-0.0110955825
99	0x3ba39460	0.004992053
100	0x3cabdf8d	0.02098062
101	0x3c283024	0.010265384
102	0x3c6f5b55	0.014609178
103	0x3b389891	0.0028167109
104	0xbc1871a8	-0.0093044415
105	0x3b3a9183	0.002846808
106	0x3a0d513e	0.0005390829
107	0x3c1fffca	0.009765575
108	0x3b832745	0.004002484
109	0xb967b15d	-0.0002209595
110	0xbca0a79b	-0.01961117
111	0xbc4ea088	-0.012611516
112	0x3c4a04d6	0.012330255
113	0x3ca33677	0.019923432
114	0xbb1a83ca	-0.0023577088
115	0x3c181cd0	0.009284213
116	0xbabba1f4	-0.0014315234
117	0x3bd926cd	0.00662694
118	0xb8df6100	-0.00010651536
119	0x3b4f6de7	0.00316512
120	0xb97df0ef	-0.00024217715
121	0x3c087c8a	0.008330474
122	0x3c581a0a	0.013189802
123	0xbbfaa742	-0.007649333
124	0x3b0c5325	0.0021411863
125	0xbb07b576	-0.0020707524
126	0xbcd4ce3a	-0.025977243
127	0x3b15cc4d	0.0022857368
128	0x3b888cca	0.004167174
129	0xbcac0d31	-0.021002384
130	0xbc403915	-0.011732359
131	0xbbb4685b	-0.005505604
132	0xbc138e2f	-0.009006067
133	0x3c203a63	0.0097795455
134	0xbb921948	-0.00445858
135	0x3b840463	0.0040288433
136	0x3c14c046	0.009079045
137	0x3af40d6d	0.0018619724
138	0xbb8b3003	-0.004247667
139	0x3c16a5ae	0.009194775
140	0x3c309bc3	0.010779324
141	0xbc468911	-0.01211764
142	0x3892e357	7.004168e-05
143	0xbb5e4b8f	-0.0033919548
144	0xbb7c39c7	-0.0038486586
145	0x3bc4d98a	0.006007378
146	0xbb2e23ef	-0.002657171
147	0x3bbe8d02	0.0058151493
148	0xbb01e66b	-0.0019821178
149	0xbb99fca6	-0.0046993075
150	0xbacd26e2	-0.0015651847
151	0xbc48b68c	-0.012250554
152	0x3b931171	0.004488163
153	0xbc5e87a3	-0.013582143
154	0x3c3f9612	0.011693494
155	0x3bb66975	0.0055667707
156	0xbc15be0b	-0.009139548
157	0xbbc09b7b	-0.0058779097
158	0x3b19afa3	0.0023450635
159	0x3b23788d	0.002494368
160	0x3b15e543	0.0022872246
161	0xbb03a720	-0.0020088628
162	0xb9682d05	-0.00022142015
163	0x3bbcb1f0	0.0057585165
164	0xbaa4c123	-0.0012569766
165	0x3b955a6c	0.0045578983
166	0xbc1da877	-0.009622685
167	0xbbda125b	-0.00665502
168	0x3b85a7c9	0.0040788394
169	0x3b9667d3	0.0045900135
170	0xb9b12512	-0.0003378769
171	0x374cdca0	1.2210716e-05
172	0x3b8089ff	0.0039227004
173	0x3bcb4abc	0.0062039774
174	0x3c4cb61f	0.012494593
175	0x3ad0b450	0.0015922878
176	0x3c50a260	0.012734026
177	0x3c91b19b	0.017784884
178	0xbbfcfcdb	-0.0077205724
179	0xbbca6f14	-0.0061777923
180	0x3c9fb172	0.019493792
181	0x3adc256f	0.0016795824
182	0x3ab9815d	0.0014152933
183	0x3c9604d4	0.01831285
184	0x3be73662	0.0070560435
185	0xbba6694a	-0.0050784694
186	0xbb24cd8c	-0.002514693
187	0x3bbae136	0.0057031168
188	0xbc065350	-0.008198574
189	0xbbe28e4a	-0.006913935
190	0xbba8aacf	-0.005147315
191	0x3b260af9	0.002533613
192	0x3b32d2cd	0.0027286292
193	0x3982db36	0.00024958857
194	0xbb92a4e4	-0.004475223
195	0x3aa860ca	0.0012846228
196	0x3becb60d	0.0072238506
197	0xbc2619e1	-0.010138006
198	0x3bc9dee6	0.006160605
199	0xbc05cd1e	-0.0081665795
200	0x3b1cf937	0.0023952255
201	0x3c2eb4e0	0.010663241
202	0x3ad902c2	0.0016556608
203	0xba2cdba7	-0.000659401
204	0x3b9b8df0	0.004747145
205	0xbb39c2c0	-0.002834484
206	0xb9f1b5f5	-0.0004610267
207	0xbc011387	-0.007878191
208	0x3b9ab084	0.0047207493
209	0xbb8055a3	-0.0039164587
210	0xbb8bf1bb	-0.00427076
211	0xbc2a13ec	-0.010380726
212	0x3c861da5	0.016371557
213	0xba903152	-0.0011001027
214	0xbbaf169a	-0.0053432705
215	0x3c729030	0.014804885
216	0xbb0d9edf	-0.0021609587
217	0x3c0e0900	0.008669138
218	0x3b5a5655	0.0033315618
219	0x3c3e8dc4	0.011630479
220	0x3b81ea46	0.003964695
221	0x3bd79768	0.0065793283
222	0xbbc9d7af	-0.0061597447
223	0xbc85b296	-0.016320508
224	0x3b69d895	0.0035682071
225	0x3b914995	0.0044338205
226	0x3bffef1f	0.007810488
227	0x3c87634c	0.01652684
228	0xba62629a	-0.00086359086
229	0x3b99f3a3	0.004698233
230	0xbb8963df	-0.0041928138
231	0x3bb4927d	0.005510627
232	0xbbfa322f	-0.007635377
233	0xbc0b627f	-0.00850737
234	0x3ac78473	0.0015221968
235	0xbbddc17f	-0.0067674513
236	0x3c31c045	0.010849063
237	0x3be6d913	0.00704492
238	0xbb92b0cb	-0.004476642
239	0xbbbc0d13	-0.0057388633
240	0xbbb5d363	-0.005548881
241	0x3acf4e6d	0.0015816219
242	0x3c749c7a	0.014929885
243	0x3c91937f	0.017770527
244	0xbb5e8b18	-0.0033957418
245	0x3c59dc77	0.013297192
246	0x3abc1951	0.0014350807
247	0x3bde942f	0.006792567
248	0x3bbdc60b	0.005791431
249	0x3c37277c	0.011178847
250	0x3bcbee9f	0.006223514
251	0xbb10a2df	-0.0022069735
252	0x3c3ab205	0.011394982
253	0x3bf34f35	0.0074252137
254	0xbb4964e2	-0.0030730297
255	0x3bfb2432	0.007664227

distribution.branches.0.bias f4 [4]
0	0x00000000	0.0
1	0x00000000	0.0
2	0x00000000	0.0
3	0x00000000	0.0

critic.network_body.linear_encoder.seq_layers.0.weight f4 [128, 410]
0	0x3d511976	0.051049672
1	0xbc9d2943	-0.019184714
2	0x3d85b399	0.06528396
3	0x3e09da87	0.13462268
4	0xbdc32fc5	-0.09530596
5	0xbd77f10c	-0.060532615
6	0xbb505c89	-0.0031793437
7	0xbdb49ced	-0.08818994
8	0xbe08c919	-0.13357963
9	0x3d0506d9	0.032477234
10	0xbda93908	-0.08262831
11	0x3dc7bbc4	0.0975261
12	0x3e24a120	0.1607709
13	0x3d1fe89b	0.03904019
14	0x3d70d023	0.058792245
15	0xbc9c0d32	-0.01904926
16	0x39b3ec3e	0.00034317555
17	0xbc0f9580	-0.008763671
18	0xbc986aec	-0.018605672
19	0x3c0a72d3	0.008450228
20	0x3cd34b71	0.02579281
21	0xbbf1749c	-0.0073686372
22	0xba1b1bff	-0.00059169525
23	0x3c6d79d4	0.014494378
24	0xbcb03bee	-0.021512952
25	0x3962dc2a	0.00021635057
26	0xbd03bb51	-0.03216106
27	0x3cf6f2c6	0.03014506
28	0x3beb04b5	0.007172192
29	0x3d0e2931	0.034707252
30	0x3c7b7c1a	0.015349412
31	0x3c730544	0.014832798
32	0xba63e2b6	-0.00086931454
33	0x3ce04550	0.0273768
34	0xbd666a6a	-0.056253828
35	0xbc442693	-0.011972087
36	0xbd251c93	-0.040310454
37	0x3c704874	0.014665712
38	0xbd006ced	-0.03135388
39	0xbdf30d57	-0.11867779
40	0x3b209092	0.0024500233
41	0x3bc70585	0.006073656
42	0x3c714b3d	0.014727411
43	0x3b4d5fcc	0.0031337617
44	0xbd05e64e	-0.03269034
45	0xbc91f3f3	-0.01781652
46	0xbdf57a1a	-0.1198618
47	0xbd0ab08b	-0.03385977
48	0x3c7d30ec	0.015453558
49	0x3de067ca	0.10957296
50	0x3ccd7457	0.02507989
51	0xbd028fc5	-0.03187539
52	0xbd5b5221	-0.05354512
53	0xbd7a6f04	-0.06114103
54	0x3d65573a	0.05599139
55	0xbd844ad5	-0.064595856
56	0x3d1bc112	0.038025923
57	0x3d2d6d00	0.04234028
58	0x3c924f28	0.01786001
59	0xbd6c531a	-0.05769644
60	0x3cc5471d	0.024081761
61	0xbd0db706	-0.034598373
62	0x3cc054b1	0.023477884
63	0xbde1237d	-0.10993097
64	0xbdad07b4	-0.08448735
65	0x3c71cfed	0.014759046
66	0xbd21cf29	-0.039504204
67	0x3da19259	0.07889242
68	0x3d1187bb	0.035529833
69	0x3e1a306d	0.15057535
70	0x3e20672a	0.15664354
71	0xbba31fd4	-0.0049781594
72	0xbc678ae1	-0.014132232
73	0xbdc7732e	-0.09738766
74	0x39bef135	0.00036419337
75	0xbcb87d5a	-0.02252071
76	0xbd41e46a	-0.047336973
77	0x3d901843	0.070358776
78	0x3d3b76d8	0.045767635
79	0x3da54c96	0.08071248
80	0xbd5e3f23	-0.05425943
81	0xbca2a490	-0.01985386
82	0x3d1012e9	0.035174284
83	0x3d69f162	0.057114966
84	0x3e18cf92	0.14922932
85	0xbd11f728	-0.035636097
86	0xbd3ad1d1	-0.045610253
87	0x3b9692f3	0.0045951544
88	0xbcf13aff	-0.029447077
89	0x3db13e3b	0.08654448
90	0x3d4323ea	0.047641672
91	0xbd8905ea	-0.06690581
92	0x3b3390fd	0.0027399652
93	0xb98c7a32	-0.00026793923
94	0xbca39dae	-0.019972648
95	0xbd371882	-0.044701107
96	0xbd5801e3	-0.052736174
97	0xbc5a57dc	-0.013326611
98	0xbd97d3c8	-0.07413441
99	0xbd02fb69	-0.031978045
100	0x3c1fe188	0.009758361
101	0xbb1943fd	-0.0023386471
102	0xbd2803db	-0.0410193
103	0x3cb50ba1	0.022100272
104	0xbd572a8c	-0.05253081
105	0x3ab78335	0.0014000895
106	0x3d9d38c6	0.07676844
107	0xbcaaa093	-0.02082852
108	0x3b4fb2a8	0.003169218
109	0x3da83009	0.08212287
110	0x3cb68430	0.022279829
111	0x3c6350e4	0.013874266
112	0x3d2d2db8	0.04227993
113	0xbce63eb5	-0.028106073
114	0xbcf038a8	-0.02932389
115	0xbd8eb7cd	-0.06968651
116	0x3d53c8c9	0.051705156
117	0xbd0339d7	-0.032037582
118	0xbc9f5c89	-0.019453304
119	0x3d107d3e	0.03527569
120	0x3d095ffb	0.0335388
121	0xbcd323e2	-0.025773946
122	0xbd8ee4fb	-0.06977268
123	0x3d30bbcd	0.04314785
124	0xbcefdf94	-0.029281415
125	0x3d21efcc	0.03953533
126	0x3cca7fa3	0.024719065
127	0xbd8b4ebc	-0.06802127
128	0xbcf97798	-0.030452535
129	0x3d2fe171	0.042939607
130	0x3ca236e1	0.019801559
131	0x3ceb3dd6	0.02871601
132	0xbd04929f	-0.03236639
133	0x3c717ed2	0.014739709
134	0x3ce67b07	0.028134836
135	0xbd7d6bf0	-0.061870515
136	0xbdaa7978	-0.083239496
137	0x3c10d95a	0.008840883
138	0xbc4c49ca	-0.012468765
139	0xbc82eac5	-0.015981087
140	0x3cbf00ca	0.023315806
141	0xbd3239af	-0.043512043
142	0x3acb1613	0.001549425
143	0x3d1f0f32	0.03883285
144	0x3ccbc300	0.024873257
145	0x3d5b585c	0.053551063
146	0xbb8c9383	-0.0042900457
147	0x3d215f83	0.039397728
148	0x3d46f263	0.048571
149	0x3ce8547f	0.028360603
150	0xbdfa71ef	-0.12228762
151	0xbcd50e87	-0.026007904
152	0x3ba1bb4f	0.004935659
153	0x3c1980a3	0.009369048
154	0xbd127828	-0.03575912
155	0x3cd6b9e9	0.026211696
156	0xbd4a224a	-0.049349107
157	0xbc073a94	-0.008253712
158	0x3c301029	0.01074604
159	0x3ce222a2	0.027604405
160	0xbcaa97a6	-0.020824265
161	0xbd54b5e5	-0.05193128
162	0xbda9d223	-0.082920335
163	0x3c768223	0.015045675
164	0xbd1664ed	-0.036717344
165	0xbd90cb1f	-0.07069992
166	0xbd352d7f	-0.04423284
167	0x3d6ef3ca	0.058337964
168	0x3d972dad	0.07381759
169	0x3cb292e2	0.021798555
170	0x3cd15c9d	0.025556857
171	0xbe14bbac	-0.14524716
172	0x3d1464ee	0.036229067
173	0x3d1965cb	0.037450593
174	0x3d2f3514	0.04277523
175	0x3cd7b904	0.02633334
176	0x3d65ef38	0.05613634
177	0xbd39ae1e	-0.045332067
178	0xbda86f79	-0.08224387
179	0xbd5386ef	-0.051642355
180	0xb71f2ca2	-9.48753e-06
181	0xbd663840	-0.056205988
182	0x3c9b4a5d	0.018956358
183	0x3c8168b6	0.015797
184	0x3d5559e2	0.052087672
185	0x3d5abd30	0.05340308
186	0x3c93c39f	0.018037615
187	0xbd306f5b	-0.043074947
188	0x3d957c69	0.0729912
189	0x3d0b23c7	0.033969667
190	0x3c0ae910	0.008478418
191	0xbc040bd4	-0.008059461
192	0x3db371f7	0.087619714
193	0xbce686e9	-0.028140502
194	0xbc870a0c	-0.016484283
195	0x3cf81fc9	0.030288594
196	0x3d884725	0.06654195
197	0x3d878035	0.066162504
198	0xbc28b934	-0.010298062
199	0xbd026d5f	-0.031842586
200	0x3c9ed21a	0.019387294
201	0xbd534509	-0.05157951
202	0x3c67974c	0.014135193
203	0xbccec07a	-0.025238264
204	0xbc9777ac	-0.018489681
205	0xbd176e46	-0.0369704
206	0xbd23568b	-0.039877456
207	0x3c88a12c	0.016678415
208	0x3d2ea266	0.042635344
209	0xba59aa1b	-0.0008303241
210	0xbc5e3572	-0.013562547
211	0x3cf23af9	0.029569136
212	0xbc85fad2	-0.016354952
213	0xbd4c9251	-0.049944226
214	0xbdd7e6da	-0.10542078
215	0xbb8f2536	-0.0043684496
216	0xbd4f96a9	-0.05068079
217	0xbccbb780	-0.024867773
218	0x3cfbd7a1	0.030742468
219	0x3c4de486	0.012566691
220	0xbd4a3633	-0.049368095
221	0xbb95df21	-0.004573718
222	0xbd0d2d9c	-0.034467325
223	0x3c426ca3	0.011866721
224	0xbd991724	-0.07475117
225	0x3dd00812	0.10157789
226	0xbcc22c3c	-0.023702733
227	0x3c91f857	0.017818613
228	0x3d801b35	0.06255189
229	0xbd980f29	-0.074247666
230	0x3ca4da9d	0.020123774
231	0x3d5bffc7	0.053710725
232	0x3d0b3342	0.03398443
233	0xbcd954cd	-0.026529694
234	0xbb8928f4	-0.00418579
235	0xbc9060ee	-0.017624345
236	0xbc1cdd65	-0.009574269
237	0xbd1005d4	-0.035161808
238	0xbd2b8419	-0.041874025
239	0x3caa63ab	0.020799479
240	0xbcb3ba0e	-0.021939304
241	0xbb83acf0	-0.0040184185
242	0xbd050c02	-0.032482155
243	0x3c59dcee	0.013297303
244	0xbd8aabe3	-0.06771066
245	0xbdf827df	-0.1211698
246	0xbdc54e2e	-0.09634052
247	0xbd6c2067	-0.05764809
248	0xbda5cba8	-0.08095485
249	0xbc8bd4ee	-0.017069306
250	0xbd21d07b	-0.039505463
251	0xbc374c30	-0.011187598
252	0x3d9e0a08	0.07716757
253	0x3cd0dde8	0.025496438
254	0x3e07daa5	0.13267
255	0xb9f513c8	-0.0004674478

critic.network_body.linear_encoder.seq_layers.0.bias f4 [128]
0	0x00000000	0.0
1	0x00000000	0.0
2	0x00000000	0.0
3	0x00000000	0.0
4	0x00000000	0.0
5	0x00000000	0.0
6	0x00000000	0.0
7	0x00000000	0.0
8	0x00000000	0.0
9	0x00000000	0.0
10	0x00000000	0.0
11	0x00000000	0.0
12	0x00000000	0.0
13	0x00000000	0.0
14	0x00000000	0.0
15	0x00000000	0.0
16	0x00000000	0.0
17	0x00000000	0.0
18	0x00000000	0.0
19	0x00000000	0.0
20	0x00000000	0.0
21	0x00000000	0.0
22	0x00000000	0.0
23	0x00000000	0.0
24	0x00000000	0.0
25	0x00000000	0.0
26	0x00000000	0.0
27	0x00000000	0.0
28	0x00000000	0.0
29	0x00000000	0.0
30	0x00000000	0.0
31	0x00000000	0.0
32	0x00000000	0.0
33	0x00000000	0.0
34	0x00000000	0.0
35	0x00000000	0.0
36	0x00000000	0.0
37	0x00000000	0.0
38	0x00000000	0.0
39	0x00000000	0.0
40	0x00000000	0.0
41	0x00000000	0.0
42	0x00000000	0.0
43	0x00000000	0.0
44	0x00000000	0.0
45	0x00000000	0.0
46	0x00000000	0.0
47	0x00000000	0.0
48	0x00000000	0.0
49	0x00000000	0.0
50	0x00000000	0.0
51	0x00000000	0.0
52	0x00000000	0.0
53	0x00000000	0.0
54	0x00000000	0.0
55	0x00000000	0.0
56	0x00000000	0.0
57	0x00000000	0.0
58	0x00000000	0.0
59	0x00000000	0.0
60	0x00000000	0.0
61	0x00000000	0.0
62	0x00000000	0.0
63	0x00000000	0.0
64	0x00000000	0.0
65	0x00000000	0.0
66	0x00000000	0.0
67	0x00000000	0.0
68	0x00000000	0.0
69	0x00000000	0.0
70	0x00000000	0.0
71	0x00000000	0.0
72	0x00000000	0.0
73	0x00000000	0.0
74	0x00000000	0.0
75	0x00000000	0.0
76	0x00000000	0.0
77	0x00000000	0.0
78	0x00000000	0.0
79	0x00000000	0.0
80	0x00000000	0.0
81	0x00000000	0.0
82	0x00000000	0.0
83	0x00000000	0.0
84	0x00000000	0.0
85	0x00000000	0.0
86	0x00000000	0.0
87	0x00000000	0.0
88	0x00000000	0.0
89	0x00000000	0.0
90	0x00000000	0.0
91	0x00000000	0.0
92	0x00000000	0.0
93	0x00000000	0.0
94	0x00000000	0.0
95	0x00000000	0.0
96	0x00000000	0.0
97	0x00000000	0.0
98	0x00000000	0.0
99	0x00000000	0.0
100	0x00000000	0.0
101	0x00000000	0.0
102	0x00000000	0.0
103	0x00000000	0.0
104	0x00000000	0.0
105	0x00000000	0.0
106	0x00000000	0.0
107	0x00000000	0.0
108	0x00000000	0.0
109	0x00000000	0.0
110	0x00000000	0.0
111	0x00000000	0.0
112	0x00000000	0.0
113	0x00000000	0.0
114	0x00000000	0.0
115	0x00000000	0.0
116	0x00000000	0.0
117	0x00000000	0.0
118	0x00000000	0.0
119	0x00000000	0.0
120	0x00000000	0.0
121	0x00000000	0.0
122	0x00000000	0.0
123	0x00000000	0.0
124	0x00000000	0.0
125	0x00000000	0.0
126	0x00000000	0.0
127	0x00000000	0.0

critic.network_body.linear_encoder.seq_layers.2.weight f4 [128, 128]
0	0x3cb9bf39	0.02267419
1	0xbc8c99c7	-0.01716317
2	0xbdc5f38d	-0.09665594
3	0xbe05b90d	-0.13058873
4	0x3d1bb468	0.038013846
5	0x3d7138cd	0.05889206
6	0x3e2f08de	0.17093226
7	0xbc30a251	-0.010780887
8	0x3d9b9292	0.075963154
9	0x3e4b5dbc	0.19859976
10	0x3dbc31c6	0.09189181
11	0xb9b55c8c	-0.00034591963
12	0x3d80e57c	0.06293771
13	0x3d7978a7	0.06090608
14	0xbd7650ce	-0.060135655
15	0xbb3380a5	-0.002738991
16	0xbcc9e570	-0.024645537
17	0x3d47965d	0.048727382
18	0xbce8cd9c	-0.028418355
19	0xbd226980	-0.039651394
20	0x3d9bae79	0.076016374
21	0xbd0d8f92	-0.034560747
22	0x3cf5b80f	0.029994993
23	0x3cfc6105	0.030807981
24	0x3c0f7f4f	0.00875838
25	0x3d244fd9	0.04011521
26	0x3e091bb2	0.13389471
27	0x3da735da	0.08164568
28	0x3d9d1b39	0.07671208
29	0xbd0faf4f	-0.035079297
30	0x3d5199e3	0.05117215
31	0x3d1281bc	0.035768256
32	0xbd58ee67	-0.052961733
33	0x3d7e813e	0.062134974
34	0x3c55c190	0.013046637
35	0x3dcae3e2	0.099067464
36	0xbd2e2020	-0.042511106
37	0xbe2e01ec	-0.1699292
38	0xbc767d01	-0.015044452
39	0x3c484668	0.012223817
40	0x3d1f3c6a	0.038875975
41	0x3dde0589	0.108408995
42	0xbcb83599	-0.022486495
43	0x3da223fb	0.07917019
44	0x3e68f560	0.22749853
45	0xbcbaf0d5	-0.022819916
46	0xbdcb83b8	-0.09937233
47	0xbd8e4510	-0.069467664
48	0xbd8c33d0	-0.0684582
49	0x3e055a56	0.13022742
50	0x3d891207	0.066928916
51	0xbdf8d256	-0.121494934
52	0xbcc6152e	-0.024180021
53	0xbd068571	-0.032842103
54	0xbd9492c0	-0.07254553
55	0xba48cdc9	-0.0007660059
56	0xbd071f6b	-0.032988947
57	0xbda8eb63	-0.082480215
58	0x3d28fd61	0.041257266
59	0x3d1166a9	0.035498295
60	0x3dab87a8	0.08375484
61	0x3db294f8	0.0871982
62	0xbc5760c4	-0.013145629
63	0x3c95d3b0	0.018289417
64	0x3da6409d	0.08117793
65	0xbd9cb27b	-0.0765123
66	0xbd8d56da	-0.06901331
67	0xbce44eef	-0.02786967
68	0xbda152d3	-0.078771256
69	0x3db67f40	0.0891099
70	0xbdb1a60d	-0.0867425
71	0x3d91b8e4	0.07115343
72	0x3d1e6a7e	0.038675778
73	0x3d6aa8c5	0.057289857
74	0xbd4c9b9c	-0.04995309
75	0xbb9836f3	-0.0046452223
76	0x3dcffd25	0.10155705
77	0x3d4fe6b3	0.05075712
78	0xbc07fb02	-0.008299591
79	0x3dd685fc	0.10474774
80	0x3d9e8d4f	0.07741796
81	0x3db6d763	0.089278005
82	0xbd3e5ce4	-0.046475306
83	0xbb0cc42b	-0.002147923
84	0xbd428c15	-0.047496874
85	0x3d97252b	0.07380136
86	0xbc71e0f5	-0.014763107
87	0xbd98235a	-0.07428618
88	0xbd0f6eb8	-0.0350177
89	0x3d90063e	0.070324406
90	0xbe2276ff	-0.15865706
91	0x3dd175bf	0.102275364
92	0x3d8ac38b	0.06775578
93	0xbcb6b4a3	-0.022302931
94	0xbe3e327e	-0.18573949
95	0xbc3774ea	-0.011197308
96	0xbdd18296	-0.102299854
97	0xbe38561d	-0.180016
98	0x3e446b8a	0.19181648
99	0x3b19ce10	0.002346877
100	0xbd02f658	-0.031973213
101	0xbe652da6	-0.22380695
102	0xbde670f1	-0.112520106
103	0xbc5a870b	-0.013337861
104	0x3d434e37	0.047682013
105	0xbdea79ff	-0.1144905
106	0xbbb747cf	-0.005593277
107	0xbce7a58f	-0.028277187
108	0x3d9aba24	0.07555035
109	0x3d092b1e	0.033488385
110	0x3d64c2d9	0.055849884
111	0xbd1b4e65	-0.03791656
112	0xbc70db2f	-0.014700695
113	0xbe288777	-0.16457926
114	0x3ddcc185	0.107790984
115	0xbeac82b6	-0.33693475
116	0xbdcf507c	-0.10122773
117	0x3e450bb0	0.1924274
118	0x3d8fe0ba	0.07025285
119	0xbc243433	-0.010022211
120	0x3dc01107	0.09378248
121	0x3d5a75a0	0.053334832
122	0x3bb22409	0.0054364246
123	0xbda17f85	-0.078856505
124	0xbdbfaaa8	-0.09358722
125	0xbc6577fc	-0.014005657
126	0xbd75e1b9	-0.06002972
127	0x3e2f577b	0.17123215
128	0x3c561aa8	0.013067879
129	0x3d81a141	0.06329585
130	0x3d494f20	0.049147725
131	0x3caa82cb	0.02081432
132	0xbca50cda	-0.02014773
133	0x3d931fa9	0.07183773
134	0x3d82c479	0.063851304
135	0xbcd6fbea	-0.026243169
136	0x3d78998f	0.06069332
137	0xbe3d7e2c	-0.18505162
138	0xbd3e4129	-0.04644886
139	0x3cc5c0b5	0.024139741
140	0xbb437151	-0.002982218
141	0xbd711431	-0.058857147
142	0x3dc9f547	0.09861236
143	0xbd34f967	-0.04418316
144	0x3d18fd17	0.03735074
145	0xbda77da4	-0.08178261
146	0xbc7556c1	-0.014974297
147	0x3ceefbb8	0.029172763
148	0xbd05434b	-0.03253488
149	0x3df48da0	0.11941075
150	0xbd17cdfe	-0.037061684
151	0xbdc449dd	-0.09584401
152	0x3c0f4350	0.008744076
153	0xbcd39a84	-0.025830515
154	0xbe36007f	-0.17773627
155	0x3e3d799a	0.18503419
156	0x3a224c7a	0.00061912055
157	0x3bb7f435	0.0056138285
158	0xbdfa1607	-0.12211233
159	0xbe2ba884	-0.16763502
160	0x3d3cb082	0.04606677
161	0xbd058d2f	-0.032605346
162	0x3dd66675	0.10468761
163	0x3ca704bb	0.020387998
164	0x3ddf0748	0.10890061
165	0xbd97961c	-0.07401678
166	0xbc9e6cff	-0.019339083
167	0x3ce9fda1	0.028563322
168	0x3cdee969	0.027210908
169	0xbd20c3a8	-0.039249092
170	0xbe0d74e3	-0.1381412
171	0xbbd50852	-0.006501236
172	0x3d53b9b5	0.051690776
173	0xbdf4d2da	-0.11954279
174	0x3e1463d6	0.1449121
175	0xbbfedcf1	-0.007777803
176	0x3d8e082d	0.06935153
177	0x3d32767b	0.043570023
178	0xbe15d81a	-0.14633217
179	0xbd9f4162	-0.07776143
180	0xbdb1c294	-0.08679691
181	0xbd89a545	-0.06720976
182	0xbcbb36d0	-0.022853285
183	0x3dcb4805	0.09925846
184	0x3d8ef791	0.06980813
185	0xbc06b9ad	-0.0082229795
186	0x3df97525	0.12180547
187	0xba28952c	-0.000643092
188	0xbe1e645c	-0.15467972
189	0xbe039a62	-0.12851861
190	0x3c518126	0.012787139
191	0x3dfcb47c	0.12339112
192	0xbd90a922	-0.070635095
193	0x3db44122	0.088014856
194	0xbb17e06e	-0.0023174542
195	0xbe1453f2	-0.14485148
196	0xbd843b80	-0.06456661
197	0xbe1e3330	-0.15449214
198	0x3dac893c	0.08424613
199	0xbb06ef37	-0.002058936
200	0xbd55f843	-0.052238714
201	0xbdcbc730	-0.099501014
202	0xbd815f8d	-0.06317053
203	0x3d63554a	0.05550126
204	0x3b959258	0.0045645647
205	0xbd8ec2c4	-0.06970742
206	0x3d3a203f	0.04544091
207	0x3dfaa280	0.12238026
208	0xbd2dca6c	-0.042429373
209	0x3d8c7762	0.06858708
210	0xbe10e831	-0.14151074
211	0x3dc8cc7b	0.098046266
212	0x3e305792	0.17220905
213	0xbd4615ee	-0.048360758
214	0xbdab4db2	-0.083644286
215	0x3e09bff1	0.13452126
216	0xbe01d75f	-0.12679814
217	0x3e06f6bd	0.1318006
218	0xbd326aa1	-0.04355872
219	0x3dee6f79	0.116423555
220	0x3d83095b	0.06398269
221	0xbca0858c	-0.01959493
222	0xbdd10ab8	-0.102071226
223	0x3d8c5160	0.068514585
224	0x3dc270dd	0.09494183
225	0x3bc5afa7	0.0060329023
226	0x3e3de7c6	0.18545446
227	0xbc6f0a16	-0.014589807
228	0x3ce04edb	0.027381351
229	0xbe246761	-0.16055061
230	0xbd3c03bc	-0.045902
231	0xbae8d481	-0.0017763526
232	0xbd327525	-0.04356875
233	0xbde262d3	-0.110540055
234	0xbd339ac0	-0.043848753
235	0x3e5b82cc	0.21436614
236	0x3c798315	0.015229006
237	0xbd656025	-0.055999894
238	0xbd80cbf1	-0.06288899
239	0xbd98ec3c	-0.07466933
240	0xbd1db618	-0.038503736
241	0x3d25c74f	0.04047328
242	0x3e4e2a70	0.20133376
243	0x3d2f51e2	0.0428027
244	0x3c99a880	0.018757105
245	0xbd8d82cc	-0.06909713
246	0xbd1baa60	-0.03800428
247	0x3d669ead	0.05630367
248	0x3da19020	0.07888818
249	0xbde3eebd	-0.1112952
250	0x3d8ddcde	0.06926893
251	0x3c77b64a	0.015119145
252	0xbd0d77b9	-0.034538005
253	0xbdb76d23	-0.08956363
254	0x3d912267	0.0708664
255	0xbc9ba78d	-0.019000793

critic.network_body.linear_encoder.seq_layers.2.bias f4 [128]
0	0x00000000	0.0
1	0x00000000	0.0
2	0x00000000	0.0
3	0x00000000	0.0
4	0x00000000	0.0
5	0x00000000	0.0
6	0x00000000	0.0
7	0x00000000	0.0
8	0x00000000	0.0
9	0x00000000	0.0
10	0x00000000	0.0
11	0x00000000	0.0
12	0x00000000	0.0
13	0x00000000	0.0
14	0x00000000	0.0
15	0x00000000	0.0
16	0x00000000	0.0
17	0x00000000	0.0
18	0x00000000	0.0
19	0x00000000	0.0
20	0x00000000	0.0
21	0x00000000	0.0
22	0x00000000	0.0
23	0x00000000	0.0
24	0x00000000	0.0
25	0x00000000	0.0
26	0x00000000	0.0
27	0x00000000	0.0
28	0x00000000	0.0
29	0x00000000	0.0
30	0x00000000	0.0
31	0x00000000	0.0
32	0x00000000	0.0
33	0x00000000	0.0
34	0x00000000	0.0
35	0x00000000	0.0
36	0x00000000	0.0
37	0x00000000	0.0
38	0x00000000	0.0
39	0x00000000	0.0
40	0x00000000	0.0
41	0x00000000	0.0
42	0x00000000	0.0
43	0x00000000	0.0
44	0x00000000	0.0
45	0x00000000	0.0
46	0x00000000	0.0
47	0x00000000	0.0
48	0x00000000	0.0
49	0x00000000	0.0
50	0x00000000	0.0
51	0x00000000	0.0
52	0x00000000	0.0
53	0x00000000	0.0
54	0x00000000	0.0
55	0x00000000	0.0
56	0x00000000	0.0
57	0x00000000	0.0
58	0x00000000	0.0
59	0x00000000	0.0
60	0x00000000	0.0
61	0x00000000	0.0
62	0x00000000	0.0
63	0x00000000	0.0
64	0x00000000	0.0
65	0x00000000	0.0
66	0x00000000	0.0
67	0x00000000	0.0
68	0x00000000	0.0
69	0x00000000	0.0
70	0x00000000	0.0
71	0x00000000	0.0
72	0x00000000	0.0
73	0x00000000	0.0
74	0x00000000	0.0
75	0x00000000	0.0
76	0x00000000	0.0
77	0x00000000	0.0
78	0x00000000	0.0
79	0x00000000	0.0
80	0x00000000	0.0
81	0x00000000	0.0
82	0x00000000	0.0
83	0x00000000	0.0
84	0x00000000	0.0
85	0x00000000	0.0
86	0x00000000	0.0
87	0x00000000	0.0
88	0x00000000	0.0
89	0x00000000	0.0
90	0x00000000	0.0
91	0x00000000	0.0
92	0x00000000	0.0
93	0x00000000	0.0
94	0x00000000	0.0
95	0x00000000	0.0
96	0x00000000	0.0
97	0x00000000	0.0
98	0x00000000	0.0
99	0x00000000	0.0
100	0x00000000	0.0
101	0x00000000	0.0
102	0x00000000	0.0
103	0x00000000	0.0
104	0x00000000	0.0
105	0x00000000	0.0
106	0x00000000	0.0
107	0x00000000	0.0
108	0x00000000	0.0
109	0x00000000	0.0
110	0x00000000	0.0
111	0x00000000	0.0
112	0x00000000	0.0
113	0x00000000	0.0
114	0x00000000	0.0
115	0x00000000	0.0
116	0x00000000	0.0
117	0x00000000	0.0
118	0x00000000	0.0
119	0x00000000	0.0
120	0x00000000	0.0
121	0x00000000	0.0
122	0x00000000	0.0
123	0x00000000	0.0
124	0x00000000	0.0
125	0x00000000	0.0
126	0x00000000	0.0
127	0x00000000	0.0

critic.value_heads.value_heads.extrinsic.weight f4 [1, 128]
0	0x3e5c35c4	0.21504885
1	0xbe58e9d1	-0.21182944
2	0xbd1f75cc	-0.0389307
3	0x3dcc55e0	0.09977317
4	0x3db7f814	0.08982864
5	0x3dc3a6f8	0.09553331
6	0x3dbf8528	0.093515694
7	0x3e0a6710	0.13515878
8	0x3e32c22e	0.17456886
9	0x3cb11428	0.021616057
10	0x3e59659c	0.21230167
11	0x3bb96400	0.005657673
12	0xbde8cce9	-0.113672085
13	0xbdb10ff4	-0.08645621
14	0xbe38d7de	-0.18051097
15	0xbdd38044	-0.10327199
16	0x3c7fa040	0.015602171
17	0xbc0bebe0	-0.008540124
18	0xbce67820	-0.028133452
19	0xbe43e925	-0.19131906
20	0xbe230227	-0.1591879
21	0x3d643098	0.055710405
22	0xbd0b215c	-0.03396736
23	0x3df5439c	0.11975786
24	0x3e3c3c4a	0.18382373
25	0xbe1f576f	-0.15560697
26	0x3e0595c2	0.1304541
27	0xbdf66b85	-0.120322265
28	0x3e25a020	0.16174364
29	0x3e0242f0	0.12720847
30	0xbe38182a	-0.17977968
31	0xbe4177b7	-0.18893324
32	0x3dfd3364	0.123633176
33	0xbe5392a1	-0.20661403
34	0x3d318f40	0.043349504
35	0xbd87eff0	-0.06637561
36	0xbe512a7d	-0.20426364
37	0xbdc98d2d	-0.0984138
38	0x3e3077ba	0.17233172
39	0xbe37e54f	-0.17958568
40	0x3df724e4	0.12067583
41	0x3cdbc7d0	0.026828676
42	0x3d850b50	0.06496298
43	0xbe02d2ad	-0.12775679
44	0x3e0e4696	0.13894114
45	0x3d88f244	0.066868335
46	0xbd90db00	-0.07073021
47	0x3dabd980	0.08391094
48	0xbdbbea8c	-0.09175596
49	0x3e26dfe4	0.16296345
50	0x3db41d10	0.08794606
51	0xbd93a386	-0.07208924
52	0xbd9fdbfe	-0.07805632
53	0xbd8b7ace	-0.068105325
54	0x3dcc4598	0.099742115
55	0x3e5563b6	0.20838818
56	0xbe39475a	-0.18093625
57	0xbd9ce38e	-0.0766059
58	0xbdca3b30	-0.0987457
59	0x3e426cbe	0.18986794
60	0x3e44874e	0.1919224
61	0x3bba47c0	0.005684823
62	0xbe00c550	-0.12575269
63	0xbe5ae864	-0.21377712
64	0xbe1aed1c	-0.15129513
65	0xbd9191a2	-0.071078554
66	0x3bbb0ce0	0.005708322
67	0xbc8c7e00	-0.017149925
68	0x3e14c164	0.14526898
69	0x3cd10bc0	0.025518298
70	0xbde93727	-0.113874726
71	0xbd510520	-0.05103028
72	0x3e17211c	0.14758724
73	0x3d60c9c8	0.054879934
74	0x3cd92f80	0.026511908
75	0xbd804460	-0.062630415
76	0x3e1d09f8	0.15335834
77	0xbdbd2793	-0.09236064
78	0x3e1fef50	0.15618634
79	0xbd2ca420	-0.04214871
80	0xbe3573c4	-0.17719942
81	0x3e3a735a	0.18208066
82	0x3d71b768	0.0590128
83	0x3d756a48	0.05991581
84	0x3e534a2c	0.20633763
85	0xbb496580	-0.0030730665
86	0x3db0b4ac	0.086282104
87	0x3d44d088	0.048050433
88	0x3d56adc0	0.052411795
89	0xbd94356e	-0.072367534
90	0x3ce44f08	0.027869716
91	0xbcc1e7e8	-0.023670152
92	0x3de6a4ac	0.112618774
93	0xbdd24527	-0.10267096
94	0x3d2392f8	0.039935082
95	0x3c1214c0	0.00891608
96	0x3e2e33ca	0.17011943
97	0xbe210794	-0.15725547
98	0xbe1a4b06	-0.15067682
99	0x3d7048a0	0.05866301
100	0x3e24ce9e	0.16094443
101	0x3e16f478	0.14741695
102	0x3d543810	0.051811278
103	0x3e555cc2	0.20836166
104	0x3d2be3f8	0.041965455
105	0xbda9ac04	-0.082847625
106	0xbe1a972b	-0.15096729
107	0xbe12748c	-0.14302272
108	0x3e55754e	0.2084553
109	0xbd8968dc	-0.067094535
110	0xbe37bf52	-0.17944077
111	0xbe0866d4	-0.13320476
112	0x3e3d770c	0.18502444
113	0x3e00bb98	0.12571561
114	0x3e2699c0	0.16269588
115	0x3cba3560	0.02273053
116	0xbdfa36ef	-0.12217509
117	0xbde85f1c	-0.11346266
118	0x3d3b2b28	0.045695454
119	0xbdb255ea	-0.08707793
120	0xbdbc7a7d	-0.0920305
121	0xbe285a8b	-0.1644079
122	0xbe3da01c	-0.18518108
123	0x3e2dbb5e	0.16966006
124	0x3d7409f8	0.05957982
125	0x3e11439c	0.14185947
126	0x3d409118	0.047013372
127	0x3e20784c	0.1567089
