Assets/results/Run01/RobotPathFinder/RobotPathFinder-26885.onnx (onnx, 280587 bytes, 6 tensors)

distribution.branches.0.bias f4 [4]
-0.0096985735 0.004791851 0.00042177696 0.010248178
00000000: c4e6 1ebc f604 9d3b f221 dd39 f9e7 273c

distribution.branches.0.weight f4 [4, 128]
0.01633739 0.016956778 -0.013808221 -0.0023484447 -0.008459048 -0.028156506 -0.018682731 -0.0068030157
-0.0066264635 -0.0043101944 0.012743234 -0.017672703 0.013835686 0.008610208 -0.010889115 -0.013047229
-0.009532197 -0.0018466938 0.00014551434 -0.034485325 -0.0040045786 0.027166545 -0.022073107 -0.024052953
0.008933029 0.0058055436 0.016029103 0.017712265 -0.0016748959 0.012644969 0.013564559 0.0011441358
-0.029967094 -0.0070382217 0.009929266 -0.01871287 -0.0022259103 0.015551651 0.0021848285 0.018067997
-0.029768696 0.013475715 0.012998372 0.0031538783 0.0104287295 0.012448306 -0.010043673 -0.019499779
-0.030178156 -0.022629417 0.012836727 -0.010490231 0.029720068 -0.0028928122 -0.004133066 0.0059980745
-0.008834271 0.0017183367 0.013046748 -0.012011638 0.010139912 -0.014586205 -0.004369421 0.0068532433
-0.011922041 -0.0016626143 -0.011938953 -0.012750437 0.014246033 0.0021751798 0.016585648 -0.00064360414
-0.021687316 -0.01878462 0.0097665 -0.0051819948 -0.01943309 -0.019743707 -0.0007233578 -0.014010712
-0.000372451 -0.013239929 -0.0037910107 0.015183076 -0.02274956 0.00416982 0.029416444 0.0078084706
-0.011942758 0.0074646724 -0.022382297 -0.015074804 0.0017830884 0.0114351455 -0.009954803 0.012890242
0.018264826 0.007143002 -0.0076279566 -0.005385802 -0.01621261 -0.007442181 0.023986945 0.010402371
-0.01867457 0.0016764809 0.002187613 -0.012588335 -0.007496219 -0.010229573 0.0052847126 0.009922879
0.00867365 -0.01524854 -0.016052915 -0.013571809 0.014716517 0.0025127335 -0.017889027 -0.0095888255
0.0005310242 -0.008736501 -0.016021693 0.012896337 -0.014474648 0.0050632693 -0.02030572 0.026236394
-0.012740138 0.00016064505 -0.00933279 -0.0066825985 -0.0072906236 -0.0006211491 0.0059134206 0.009876332
0.007919231 0.002947251 0.011309559 0.0050687683 -0.004015219 0.003589971 0.005880447 0.005415306
-0.0012162796 -0.011358231 0.0057160915 -0.0023610103 0.010555125 0.0031954893 0.0037159373 0.0025225652
-0.012284311 -0.002487079 -0.010047512 -0.014935006 -0.004544142 -0.0029342428 0.006201408 0.0005073075
0.0040626493 0.0017652824 -0.0022838127 -0.0041633477 -0.011257193 -0.0042370153 0.0026969747 -0.0014273856
-0.014305561 -0.0024852075 0.005518562 -0.0045692176 -0.02398778 0.008124055 0.008786295 0.009023562
0.0014320697 0.0039084484 0.0037828817 0.005680529 -0.005884763 -0.0054671965 0.018516649 0.00024098658
0.0061127697 0.0275282 -0.0023105345 -0.0012216137 0.023113286 -0.0068313433 -0.0030782 0.0045536887
0.013178645 -0.007949231 0.0078221485 -0.0031735804 0.0046980474 -0.0006974085 0.0014892011 0.0059902165
-0.0065745534 -0.0036093444 0.0022876395 0.0007605882 -0.015844231 0.0061537926 -0.0034528212 0.00875937
-0.0073374817 -0.013718549 -0.0011208341 -0.00026360858 0.0021088363 -0.0077986126 -0.007766317 -0.0050422037
9.667773e-05 -0.016637247 -0.00037971986 0.0035029103 0.0065932535 0.007871407 -0.0042830775 -0.019148964
-0.0063447435 0.0016384904 0.0026571515 0.011212237 -0.0012013678 0.011446948 -0.011040777 -0.010285681
-0.010951732 0.014843459 0.0052492376 -0.009149676 0.00402165 0.0005980044 -0.0070761964 -0.017587038
-0.00021781397 -0.008836672 -0.009676067 0.0021451723 -0.0003187303 0.0022973062 0.022730084 -0.0041399035
-0.01172628 -0.00506387 -0.01896309 0.0043581175 0.011828909 -0.0031877381 0.009303309 -0.012066513
00000000: fdd5 853c f1e8 8a3c e03b 62bc 5de8 19bb
00000010: d297 0abc 79a8 e6bc 870c 99bc d5eb debb
00000020: ce22 d9bb 883c 8dbb ffc8 503c 58c6 90bc
00000030: 13af 623c d411 0d3c 4268 32bc 0bc4 55bc
00000040: ef2c 1cbc c30c f2ba 3595 1839 7c40 0dbd
00000050: d738 83bb 608c de3c a9d2 b4bc b30a c5bc
00000060: d75b 123c 6e3c be3b 774f 833c 5019 913c
00000070: 2e88 dbba d82c 4f3c e23d 5e3c d4f6 953a
00000080: 8d7d f5bc e2a0 e6bb 5cae 223c bc4b 99bc
00000090: 94e0 11bb 5acc 7e3c 572f 0f3b 5603 943c
000000a0: 7bdd f3bc 3fc9 5c3c 20f7 543c 4cb1 4e3b
000000b0: 43dd 2a3c fbf3 4b3c 388e 24bc 00be 9fbc
000000c0: 2e38 f7bc 5461 b9bc 2351 523c 38df 2bbc
000000d0: 8077 f33c 5695 3dbb ac6e 87bb 7f8b c43b
000000e0: 9ebd 10bc d039 e13a 07c2 553c 76cc 44bc
000000f0: e021 263c fafa 6ebc 5c2d 8fbb 2c91 e03b
00000100: aa54 43bc 14ec d9ba 999b 43bc 35e7 50bc
00000110: 3168 693c 768d 0e3b a0de 873c 8bb7 28ba
00000120: 99a9 b1bc 34e2 99bc ac03 203c b9cd a9bb
00000130: 2532 9fbc 8ebd a1bc b89f 3dba 2f8d 65bc
00000140: 8745 c3b9 4aec 58bc 9b72 78bb 70c2 783c
00000150: 495d babc fca2 883b c1fa f03c 33de ff3b
00000160: 8fab 43bc 369a f43b 145b b7bc 50fc 76bc
00000170: 85b6 e93a 7a5a 3b3c 7819 23bc 9831 533c
00000180: 1ea0 953c d80f ea3b f0f3 f9bb 627b b0bb
00000190: 4fd0 84bc 8add f3bb 4580 c43c b56e 2a3c
000001a0: 69fb 98bc 5dbd db3a 0e5e 0f3b 4e3f 4ebc
000001b0: d8a2 f5bb f099 27bc 622b ad3b 9293 223c
000001c0: ed1b 0e3c 03d5 79bc 6781 83bc 4b5c 5ebc
000001d0: 8c1d 713c acac 243b 028c 92bc 731a 1dbc
000001e0: 6e34 0b3a 8b23 0fbc ed3f 83bc 284b 533c
000001f0: 1327 6dbc c8e9 a53b 2e58 a6bc b5ed d63c
00000200: 03bc 50bc d472 2839 8fe8 18bc b3f9 dabb
00000210: 2fe6 eebb 9cd4 22ba 5ec5 c13b 57d0 213c
00000220: aabf 013c ab26 413b bb4b 393c e917 a63b
00000230: 1992 83bb b845 6b3b c4b0 c03b e172 b13b
00000240: 926b 9fba e017 3abc 0d4e bb3b 2ebb 1abb
00000250: 67ef 2c3c 6a6b 513b 1587 733b 9f51 253b
00000260: 2244 49bc 43fe 22bb 529e 24bc f5b1 74bc
00000270: 07e7 94bb 6d4c 40bb 2e35 cb3b d4fc 043a
00000280: f91f 853b 0c61 e73a 05ac 15bb b16c 88bb
00000290: 1770 38bc a9d6 8abb babf 303b 1d17 bbba
000002a0: df61 6abc ddde 22bb 0ed5 b43b 60b9 95bb
000002b0: 0582 c4bc c21a 053c 64f4 0f3c 90d7 133c
000002c0: 49b4 bb3a 7112 803b 39ea 773b bb23 ba3b
000002d0: f8d4 c0bb 2b26 b3bb 3ab0 973c 58b1 7c39
000002e0: a14d c83b d282 e13c 566c 17bb 8e1e a0ba
000002f0: 1358 bd3c 76d9 dfbb a0bb 49bb 1c37 953b
00000300: 3eeb 573c 7e3d 02bc 7828 003c d8fb 4fbb
00000310: 14f2 993b 4bd2 36ba 4c31 c33a 9449 c43b
00000320: 5a6f d7bb c08a 6cbb 39ec 153b 3662 473a
00000330: c3cb 81bc c1a5 c93b ba48 62bb 7683 0f3c
00000340: 426f f0bb c4c3 60bc f4e8 92ba f234 8ab9
00000350: 6734 0a3b 818b ffbb 977c febb 1239 a5bb
00000360: 76bf ca38 d64a 88bc 2315 c7b9 1591 653b
00000370: 380c d83b 13f7 003c 0f59 8cbb 4ade 9cbc
00000380: 91e7 cfbb 9dc2 d63a 9b23 2e3b 88b3 373c
00000390: 3777 9dba fb8b 3b3c 60e4 34bc 4685 28bc
000003a0: e56e 33bc fb31 733c cc01 ac3b 86e8 15bc
000003b0: 0cc8 833b 65c3 1c3a 70df e7bb b112 90bc
000003c0: fe64 64b9 b0c7 10bc 5e88 1ebc 0596 0c3b
000003d0: 421b a7b9 678e 163b 7134 ba3c 07a8 87bb
000003e0: 951f 40bc d2ee a5bb 7b58 9bbc 8ace 8e3b
000003f0: 0ace 413c 5fe9 50bb e86c 183c a0b2 45bc

network_body.linear_encoder.seq_layers.0.bias f4 [128]
0.011013851 -0.0033631497 0.008948746 -0.006907131 -0.011253502 0.004666014 0.011516313 -0.0064577404
-0.006250721 0.012043237 0.00012928134 0.010135665 0.008374943 0.011893976 0.011768996 -0.009370191
-0.001414086 -0.0072238683 0.011477069 -0.009056247 0.011738075 -0.010600157 0.004045618 0.0071254186
-0.009202698 -0.011624296 -0.00762732 0.00852022 0.010265515 0.011008348 0.0046624066 0.011386053
-0.009635746 0.0048541017 0.0059278067 0.0026700697 -0.011239502 -0.009914218 0.009969364 0.010534119
0.008981544 0.0114776855 0.0020903451 0.0043312865 0.011922896 0.0038337943 0.0121571785 0.01136478
-0.011553181 0.011676943 -0.0071666054 0.009734598 0.008052658 0.011402633 0.011899301 0.01197602
0.01208744 0.011917429 0.011550978 0.011437249 0.011615507 0.006248719 -0.0023515266 0.010527144
0.012017221 0.011859901 0.010979502 -0.005858792 0.0129377805 0.012353939 0.0007780146 -0.010762055
0.010099152 0.0010769581 -0.0062033245 0.00013981762 -0.008595417 -0.009342294 6.716346e-05 0.011141871
-0.010846949 -0.00890478 -0.007777572 0.002231965 -0.010219821 -0.010799913 -0.011633297 -0.009587171
-0.010902287 0.012386995 -0.00912677 0.0014958385 -0.010372138 -0.010038908 0.010845296 0.0031988572
0.0104095265 0.010776449 -0.0033446895 -0.0057762056 -0.010972064 0.01197854 0.011446347 -0.002880036
0.012132544 0.0043108105 -0.0012260191 -0.006663779 0.006876694 -0.010239555 -0.0015407511 0.011893309
0.011947362 0.010754603 0.011202984 -0.010007982 -0.011309179 -0.005099493 0.0025221978 -0.0024766778
-0.00642185 -0.0072331442 -0.007230728 0.012007012 -0.006370727 0.011852311 -0.010638215 -0.0042522443
00000000: 7073 343c 4a68 5cbb c39d 123c 3755 e2bb
00000010: 9c60 38bc 5de5 983b ebae 3c3c 749b d3bb
00000020: d9d2 ccbb ff50 453c b28f 0739 0f10 263c
00000030: 0f37 093c f3de 423c bfd2 403c 6e85 19bc
00000040: da58 b9ba 33b6 ecbb 510a 3c3c a760 14bc
00000050: 0e51 403c 48ac 2dbc 1b91 843b 587c e93b
00000060: eac6 16bc d573 3ebc 99ee f9bb 6598 0b3c
00000070: b130 283c 5c5c 343c 1ac7 983b 918c 3a3c
00000080: 3fdf 1dbc 280f 9f3b 0c3e c23b 56fc 2e3b
00000090: e325 38bc 3f6f 22bc 8b56 233c 4c97 2c3c
000000a0: 5327 133c e70c 3c3c 2cfe 083b 77ed 8d3b
000000b0: 4058 433c 6540 7b3b e72e 473c 5833 3a3c
000000c0: 8e49 3dbc a650 3f3c d8d5 eabb dd7d 1f3c
000000d0: 4cef 033c 1cd2 3a3c 49f5 423c 1237 443c
000000e0: 660a 463c 5241 433c 5040 3d3c 4d63 3b3c
000000f0: f84e 3e3c 0ec2 cc3b 121c 1abb 0b7a 2c3c
00000100: e1e3 443c 0850 423c 5fe3 333c 1cfb bfbb
00000110: fcf8 533c 2d68 4a3c adf3 4b3a 5553 30bc
00000120: ea76 253c b828 8d3a 4245 cbbb 029c 1239
00000130: cbd3 0cbc 6c10 19bc 1cda 8c38 658c 363c
00000140: 67b7 31bc 5be5 11bc 01db febb 2946 123b
00000150: 0971 27bc 1ef2 30bc 9699 3ebc 8213 1dbc
00000160: 829f 32bc d3f2 4a3c 7388 15bc 0310 c43a
00000170: e6ef 29bc 3b7a 24bc 78b0 313c eba3 513b
00000180: b88c 2a3c b48f 303c 9432 5bbb 5346 bdbb
00000190: 2cc4 33bc a341 443c 7689 3b3c fcbe 3cbb
000001a0: 94c7 463c b341 8d3b 60b2 a0ba d45b dabb
000001b0: e455 e13b cec3 27bc 07f3 c9ba 27dc 423c
000001c0: debe 433c 1334 303c b88c 373c 85f8 23bc
000001d0: 224a 39bc a619 a7bb 754b 253b c24f 22bb
000001e0: 626e d2bb 0304 edbb beef ecbb 0fb9 443c
000001f0: 88c1 d0bb 3230 423c e84b 2ebc 6956 8bbb

network_body.linear_encoder.seq_layers.0.weight f4 [128, 410]
-0.017264513 0.030123768 0.022313688 0.005207575 0.012754082 0.006269499 -0.06705181 -0.003545677
-0.044897962 0.03209696 0.022569867 0.08604712 -0.03540494 0.0060262894 -0.06529381 -0.029857157
-0.05578024 -0.011876577 0.03299236 -0.046006784 0.030142693 -0.04096891 -0.014470087 0.0066988007
-0.008922588 -0.01842927 -0.04260889 0.09668917 -0.0009366209 0.026364176 -0.007755652 0.06488966
0.10988913 -0.14393435 0.025737854 -0.033118308 0.0077195694 -0.016761694 0.016750326 0.038462535
0.029913174 0.09199222 0.032356348 0.014168302 0.044421043 -0.05407361 0.018047592 -0.017924353
-0.08860409 -0.04611816 -0.0009880613 -0.049494896 0.06086656 -0.009955763 -0.012158869 0.025136072
-0.033487335 -0.037969753 -0.013120504 -0.0051076524 -0.047495153 -0.102427505 -0.01033363 -0.008372331
0.03082348 -0.035930887 -0.029511496 0.009835931 0.04979824 -0.06372715 -0.04350951 0.08629182
0.10874264 -0.041274015 0.024680134 -0.028557142 0.027721368 0.046789683 -0.050504282 0.044673625
0.048943274 0.004195038 0.024127247 -0.078470044 -0.0010282232 0.0099319145 -0.02791641 0.06490055
-0.003582517 0.0136598395 0.038017873 -0.032967634 -0.065401725 0.00037216095 0.0024958947 0.027057875
0.017317202 0.033908352 0.014953963 0.013215926 -0.018868014 0.02011637 0.018334065 -0.074938215
0.018169986 -0.061409008 0.026899239 0.054162174 0.0047137085 0.007562962 -0.0054432973 0.058900528
0.08092971 0.07923539 0.017522326 0.06095523 -0.006401535 -0.06695625 -0.041029017 0.010043154
0.085936315 -0.057499163 0.059948444 -0.029382233 0.041695032 0.028451487 -0.030002566 0.052849077
-0.082979456 -0.029800093 0.022647873 0.031744312 -0.06806249 0.01554371 -0.0164376 0.011589753
-0.038957145 0.0024661147 0.061571144 0.02287193 0.06931653 0.0321606 -0.08922425 0.050702203
-0.07598168 -0.017201703 0.04260079 -0.051900074 0.009232357 0.036513086 0.07659977 0.031757686
-0.10391807 -0.05428032 -0.03666193 -0.035345387 0.09682834 -0.004859886 -0.04199187 -0.1190241
0.082653075 0.038229536 0.0023525325 0.017635515 -0.032063745 -0.0846086 0.057422433 0.07986523
0.013206348 -0.040082544 -0.03626771 0.08225068 0.027278924 0.009698356 -0.023320751 -0.0144670615
0.025322815 -0.100222014 -0.04100132 -0.12682907 -0.1059995 -0.045115605 -0.078623086 -0.035719547
-0.03716919 0.0030834635 -0.05525828 0.053772632 -0.02773649 0.10609084 -0.017424699 0.03850942
-0.010772435 0.069694504 -0.00014948768 0.0105812885 0.0030966988 -0.07436113 0.0014455796 -0.055399925
0.055500038 -0.0696103 0.05457265 -0.017334979 0.07642281 0.048730813 -0.01306624 -0.0032848865
0.04025913 -0.0036079916 0.015480974 0.11071189 0.053412545 -0.011472321 -0.0071349163 -0.012883968
-0.01970449 0.02192257 -0.009284496 0.007849178 0.06717202 0.011883199 -0.0084711285 0.055760097
0.028524224 -0.0019793503 -0.07009798 -0.0010769011 0.0638309 -0.018015666 0.01284038 -0.034807008
0.13974638 -0.051629763 -0.0103776455 -0.0075414316 0.070702925 -0.019721713 -0.016963594 -0.007353602
-0.0106084375 0.009809285 0.037115116 0.060247775 -0.050496746 0.05483248 0.006846037 -0.039779987
0.086455405 0.07589897 0.061901964 -0.019733766 0.024202462 -0.035038203 -0.06839426 -0.051790234
00000000: 4f6e 8dbc 1fc6 f63c 32cb b63c 4ea4 aa3b
00000010: 7ff6 503c 5f70 cd3b 7652 89bd 975e 68bb
00000020: ede6 37bd 1a78 033d 71e4 b83c 7939 b03d
00000030: c504 11bd 2e78 c53b c3b8 85bd ff96 f4bc
00000040: d279 64bd f995 42bc ff22 073d 9c71 3cbd
00000050: cfed f63c 04cf 27bd f213 6dbc 9d81 db3b
00000060: 0c30 12bc fbf8 96bc a986 2ebd f904 c63d
00000070: 9187 75ba aff9 d73c 2023 febb dfe4 843d
00000080: 8d0d e13d 8763 13be 31d8 d23c 10a7 07bd
00000090: 71f4 fc3b d24f 89bc fb37 893c e48a 1d3d
000000a0: 790c f53c 6b66 bc3d 1788 043d 2a22 683c
000000b0: d7f2 353d 4a7c 5dbd 8bd8 933c 18d6 92bc
000000c0: 1076 b5bd 65e6 3cbd d681 81ba 29bb 4abd
000000d0: 374f 793d 7f1d 23bc fe35 47bc 2aea cd3c
000000e0: 042a 09bd 2c86 1bbd 62f7 56bc 185e a7bb
000000f0: 478a 42bd 83c5 d1bd 634e 29bc 1a2c 09bc
00000100: 8681 fc3c 442c 13bd 18c2 f1bc e226 213c
00000110: 3df9 4b3d 6183 82bd 0737 32bd c4b9 b03d
00000120: 76b4 de3d f10e 29bd fe2d ca3c abf0 e9bc
00000130: ec17 e33c 8aa6 3f3d 94dd 4ebd b1fb 363d
00000140: be78 483d 8876 893b 81a6 c53c e7b4 a0bd
00000150: 72c5 86ba 78b9 223c f4b0 e4bc 94ea 843d
00000160: a9c8 6abb 85cd 5f3c a1b8 1b3d 1209 07bd
00000170: 57f1 85bd 991e c339 2a92 233b 7aa8 dd3c
00000180: cedc 8d3c 7ce3 0a3d 7801 753c 9c87 583c
00000190: 1891 9abc 16cb a43c 5231 963c 3579 99bd
000001a0: 39d9 943c 0388 7bbd cb5b dc3c 28d9 5d3d
000001b0: 7475 9a3b b9d2 f73b b05d b2bb ae41 713d
000001c0: 7abe a53d 2a46 a23d fb8a 8f3c 31ac 793d
000001d0: f8c3 d1bb 5c20 89bd 0b0e 28bd 0a8c 243c
000001e0: 61ff af3d 3e84 6bbd 808c 753d 02b3 f0bc
000001f0: 69c8 2a3d 1813 e93c f1c7 f5bc 4678 583d
00000200: 22f1 a9bd 531f f4bc 0888 b93c 5306 023d
00000210: 5964 8bbd 0cab 7e3c 25a8 86bc f3e2 3d3c
00000220: 8791 1fbd 8a9e 213b 0632 7c3d ea5d bb3c
00000230: d3f5 8d3d d5ba 033d 34bb b6bd 1dad 4f3d
00000240: 489c 9bbd 96ea 8cbc 2a7e 2e3d 2c95 54bd
00000250: 5043 173c bf8e 153d 57e0 9c3d 5914 023d
00000260: ffd2 d4bd 0a55 5ebd d22a 16bd 53c6 10bd
00000270: f04d c63d ae3f 9fbb abff 2bbd e8c2 f3bd
00000280: 0446 a93d 9396 1c3d f22c 1a3b 5b78 903c
00000290: 4655 03bd 4647 adbd c933 6b3d 6290 a33d
000002a0: 705f 583c 982d 24bd 738d 14bd 0b73 a83d
000002b0: 0d78 df3c dae5 1e3c 290b bfbc 4107 6dbc
000002c0: cb71 cf3c 3341 cdbd 00f1 27bd 7bdf 01be
000002d0: 4416 d9bd 24cb 38bd 2405 a1bd a94e 12bd
000002e0: b83e 18bd ef13 4a3b 8256 62bd b140 5c3d
000002f0: a337 e3bc 2846 d93d 3ebe 8ebc 0ebc 1d3d
00000300: de7e 30bc febb 8e3d cbbf 1cb9 245d 2d3c
00000310: fcf1 4a3b a64a 98bd 9a79 bd3a 08eb 62bd
00000320: 0254 633d d88f 8ebd 9287 5f3d 1602 8ebc
00000330: 9083 9c3d f699 473d c813 56bc 4047 57bb
00000340: c2e6 243d 0e74 6cbb e9a3 7d3c eabc e23d
00000350: 1dc7 5a3d 67f6 3bbc 04cc e9bb 4717 53bc
00000360: 506b a1bc f696 b33c 001e 18bc d799 003c
00000370: 7c91 893d c0b1 423c 7dca 0abc b364 643d
00000380: a2ab e93c fdb7 01bb 888f 8fbd ce26 8dba
00000390: c6b9 823d 9795 93bc 7560 523c cb91 0ebd
000003a0: ad19 0f3e bb79 53bd 0007 2abc 1d1e f7bb
000003b0: b2cc 903d 6e8f a1bc 3cf7 8abc 7cf6 f0bb
000003c0: 03cf 2dbc 20b7 203c 0506 183d 5fc6 763d
000003d0: add5 4ebd 0698 603d b954 e03b 57f0 22bd
000003e0: 880f b13d eb70 9b3d ea8c 7d3d b5a8 a1bc
000003f0: 3e44 c63c 3884 0fbd 4a12 8cbd ff21 54bd

network_body.linear_encoder.seq_layers.2.bias f4 [128]
-0.008659671 -0.011039089 0.00884249 -0.006956538 0.008436682 0.010889733 0.012201563 0.011387605
0.011562433 0.008101578 0.00593782 0.011783101 -0.006485309 -0.011304728 0.012236268 0.011569794
0.011470132 0.008023807 -0.00567717 0.011581975 0.01191949 -0.008308713 0.01171639 0.011412964
-0.010046887 -0.0057184566 -0.010916734 -0.008565775 -0.0026524186 -0.0072473707 -0.002333845 0.010644195
0.011187358 0.010555529 0.00021804271 0.011530808 -0.007823004 -0.009764709 -0.008003534 -0.010725622
0.011214183 -0.0075319204 -0.008229404 -0.009280002 -0.009846673 -0.008951783 0.0021190003 0.012186764
0.011097936 0.011286667 -0.00850126 0.010392403 -0.009923706 -0.0084868865 -0.0017162779 0.0031755595
0.011482357 -0.0077319853 -0.00828616 0.010450171 -0.00805692 0.0056563867 0.009687382 -0.009452176
0.011959416 0.004772105 0.010437479 0.011644906 -0.010409949 -0.0037611076 -0.010175706 0.00431842
0.011403437 -0.0041046385 -0.0064788093 -0.0047706435 0.009939071 0.012052001 -0.007319596 0.011593245
-0.0107645355 0.011337265 -0.008303222 -0.008923092 0.0117165735 0.0083516 -0.0090357745 -0.006716951
0.011372834 -0.010719881 0.011519013 0.011566201 -0.0036505957 -0.010822278 -0.004048713 -0.008885711
-0.010248159 -0.010378983 0.0112967575 0.0036018337 0.011709266 -0.003640441 -0.009308705 -0.010904898
0.011687256 0.0020043424 0.0031014592 0.0041617677 0.010621598 0.011354816 -0.009803417 -0.009703526
-0.008394288 0.01044145 0.010396536 0.011038438 0.0022682967 -0.0079067005 0.010918198 0.0071570706
0.007019929 0.011424315 0.011165209 -0.0056254566 0.011818146 -0.0090229 0.011321281 -0.008741439
00000000: 4be1 0dbc 4cdd 34bc 17e0 103c acf3 e3bb
00000010: 023a 0a3c da6a 323c 11e9 473c 1493 3a3c
00000020: 5c70 3d3c 7bbc 043c 0b92 c23b e80d 413c
00000030: b782 d4bb 7737 39bc a17a 483c 3c8f 3d3c
00000040: 38ed 3b3c 4976 033c 8e07 babb 53c2 3d3c
00000050: f749 433c 4521 08bc 1af6 3f3c 71fd 3a3c
00000060: b39b 24bc e461 bbbb 1adc 32bc 7757 0cbc
00000070: 33d4 2dbb 5a7b edbb 6cf3 18bb fd64 2e3c
00000080: 2e4b 373c 19f1 2c3c 65a2 6439 b7eb 3c3c
00000090: 0f2c 00bc 28fc 1fbc 4121 03bc 85ba 2fbc
000000a0: b1bb 373c 54ce f6bb 9fd4 06bc 260b 18bc
000000b0: f153 21bc 80aa 12bc edde 0a3b feaa 473c
000000c0: 1ed4 353c b6eb 383c de48 0bbc e644 2a3c
000000d0: 0a97 22bc 950c 0bbc bbf4 e0ba 0c1d 503b
000000e0: 7f20 3c3c 985c fdbb adc2 07bc 3237 2b3c
000000f0: 2c01 04bc 3659 b93b d3b7 1e3c 4ddd 1abc
00000100: 6df1 433c 515f 9c3b f601 2b3c 47ca 3e3c
00000110: 7e8e 2abc ea7c 76bb 01b8 26bc 8881 8d3b
00000120: 7bd5 3a3c 3480 86bb 314c d4bb 0f53 9cbb
00000130: 7cd7 223c c275 453c 39d9 efbb 98f1 3d3c
00000140: bc5d 30bc f0bf 393c 3d0a 08bc 2932 12bc
00000150: dff6 3f3c 26d5 083c c90a 14bc de19 dcbb
00000160: 2055 3a3c 71a2 2fbc 3eba 3c3c 2a80 3d3c
00000170: d53e 6fbb ed4f 31bc 11ab 84bb 6095 11bc
00000180: e5e7 27bc 9c0c 2abc 0916 393c be0c 6c3b
00000190: 39d8 3f3c 7794 6ebb 8a83 18bc 75aa 32bc
000001a0: e87b 3f3c 495b 033b da41 4b3b 705f 883b
000001b0: 3606 2e3c 8d09 3a3c 839e 20bc 8afb 1ebc
000001c0: 3288 09bc 9e12 2b3c 3c56 2a3c 91da 343c
000001d0: b4a7 143b 1b8b 01bc 3ee2 323c dc85 ea3b
000001e0: 6f07 e63b 0d2d 3b3c 48ee 363c c055 b8bb
000001f0: e6a0 413c c9d4 13bc e57c 393c 4138 0fbc

network_body.linear_encoder.seq_layers.2.weight f4 [128, 128]
0.065490566 0.009503398 -0.13118185 -0.03484172 0.21095361 0.039690148 0.046582866 -0.04343696
0.16030847 -0.0037840703 -0.023018293 -0.10192136 -0.18568602 -0.08325466 -0.18217312 0.0254085
0.06489652 -0.01805534 -0.03611045 -0.12869313 0.05262112 0.12910758 0.05373886 -0.10276309
-0.019273583 -0.03127369 -0.02889644 -0.0412632 0.027154157 0.13430266 0.07573673 -0.11159086
0.02863344 -0.030642942 -0.08201746 0.06406315 0.011425443 0.14414924 -0.15929729 0.023807898
-0.22537579 0.0061623487 0.016533585 0.21569611 0.06904168 -0.03463598 0.0386491 0.017921995
0.06924865 0.08987247 -0.08016411 0.0082006715 0.029131168 -0.012587971 -0.16990572 -0.015771508
0.035869446 0.2179178 -0.16325785 0.05439108 0.018244678 -0.0024429457 0.039170135 0.14450164
-0.1253997 -0.011783241 -0.00092789513 0.124494694 -0.09778997 0.02728677 0.1433511 -0.037677553
-0.03253045 -0.08460965 -0.02091815 -0.025588 0.1122159 0.105991006 0.15635058 0.04979053
-0.043987397 -0.11225736 -0.12539802 -0.027877469 0.058378164 0.04992411 -0.0085106995 0.047251426
-0.041573457 -0.16655092 0.110304676 -0.043243196 0.039322298 0.04766516 -0.09297367 -0.06337632
0.004073299 0.01761021 0.23109233 -0.08184934 0.10391932 -0.08222286 0.11527916 0.026367031
-0.21649872 0.24606676 -0.09043929 0.046087116 0.085521206 -0.045107283 0.039647035 0.022028599
-0.09554884 -0.03231713 -0.009844922 0.07243852 0.059306446 0.006687135 -0.026733253 -0.06136438
0.07975606 -0.14116076 -0.0418418 -0.118012875 0.0241145 0.06935658 -0.07718931 0.11705177
0.054118928 0.081380144 -0.14113 0.13608031 -0.086579084 -0.11580264 0.06650244 0.038530715
0.07743599 0.016036674 0.043649897 0.07815086 0.01703328 -0.017197287 -0.053130712 0.16247489
0.0032265421 0.18277271 -0.014490389 -0.10231208 0.067080185 0.116445 0.064547636 0.12012368
0.107134506 -0.011816292 0.12038054 0.0076716263 -0.024928106 0.07576342 -0.028079506 0.030387249
0.021253426 -0.078369364 0.046933826 -0.0071335 -0.010750713 -0.12944856 -0.03574541 -0.029408626
0.03616793 0.010296865 -0.07890957 -0.22294907 -0.100697316 0.0006658892 -0.11322867 0.057458635
0.077004485 0.12743868 -0.08588506 0.09844674 -0.032154363 0.003155315 0.18660973 0.06434935
-0.048083916 -0.022908919 -0.112368695 0.16395047 -0.086734824 -0.015830684 -0.115239374 0.090731114
-0.15921892 0.06701551 0.03834666 0.15651515 -0.029246058 0.1098146 0.09796893 0.1427005
-0.1259219 0.09957768 -0.03614604 0.06274092 0.1297207 0.027888276 0.029549656 -0.12905651
0.037778787 0.03861068 -0.075337745 -0.12604983 0.21448703 0.11664467 0.018148825 0.049366497
-0.13955611 -0.06846908 -0.007736378 -0.12477245 -0.090217344 0.042459354 -0.07607192 -0.14006679
0.06094828 -0.11097499 -0.035876747 0.11867493 -0.031486757 -0.040281884 -0.03900413 0.22934732
-0.026344271 -0.016095616 -0.022049734 -0.058887236 0.07215229 -0.06869012 0.24982385 -0.016998617
-0.13495006 -0.05315756 -0.026648521 0.008331642 -0.035914764 0.019480197 -0.001545955 0.10047654
0.023391727 0.088090844 0.0716731 0.004587569 0.08030809 0.01063275 -0.02380953 0.08723197
00000000: eb1f 863d 24b4 1b3c 8954 06be 31b6 0ebd
00000010: 3904 583e 2392 223d adcd 3e3d f4ea 31bd
00000020: e727 243e 2afe 77bb dc90 bcbc 25bc d0bd
00000030: 7a24 3ebe 6b81 aabd 978b 3abe 7d25 d03c
00000040: 77e8 843d cbe8 93bc 8de8 13bd 22c8 03be
00000050: 3e89 573d c734 043e 471d 5c3d 7475 d2bd
00000060: a2e3 9dbc d718 00bd 3ab8 ecbc 9a03 29bd
00000070: 6572 de3c a386 093e dc1b 9b3d c089 e4bd
00000080: ad90 ea3c e806 fbbc c5f8 a7bd 8a33 833d
00000090: c831 3b3c dc9b 133e d41e 23be c808 c33c
000000a0: e9c8 66be 87ed c93b 7171 873c 71df 5c3e
000000b0: b965 8d3d 75de 0dbd 854e 1e3d 26d1 923c
000000c0: 3cd2 8d3d 0f0f b83d 152d a4bd 1c5c 063c
000000d0: 7da4 ee3c c73d 4ebc c4fb 2dbe 4033 81bc
000000e0: d7eb 123d d825 5f3e 112d 27be 2ec9 5e3d
000000f0: dd75 953c d419 20bb dd70 203d 3df8 133e
00000100: c768 00be 7f0e 41bc fd3d 73ba 13f7 fe3d
00000110: 1c46 c8bd 8188 df3c a1ca 123e c753 1abd
00000120: a63e 05bd d347 adbd 8a5c abbc ed9d d1bc
00000130: 73d1 e53d d011 d93d 5e1a 203e 28f1 4b3d
00000140: 212c 34bd 30e7 e5bd 5768 00be 4a5f e4bc
00000150: f11d 6f3d 397d 4c3d 7670 0bbc b68a 413d
00000160: ee48 2abd 538c 2abe 6be7 e13d c71f 31bd
00000170: 6b10 213d 8b3c 433d fb68 bebd 72cb 81bd
00000180: 4f79 853b 4a43 903c 78a3 6c3e a0a0 a7bd
00000190: a7d3 d43d 7564 a8bd 7b17 ec3d acff d73c
000001a0: d7b1 5dbe edf8 7b3e 3c38 b9bd d8c5 3c3d
000001b0: be25 af3d 6ac2 38bd ee64 223d 5275 b43c
000001c0: 1caf c3bd f85e 04bd 994c 21bc a65a 943d
000001d0: 51eb 723d c11f db3b b2ff dabc 3759 7bbd
000001e0: 2557 a33d 728c 10be 4f62 2bbd bcb0 f1bd
000001f0: c68b c53c d30a 8e3d 6e15 9ebd d7b8 ef3d
00000200: cfab 5d3d a2aa a63d 6284 10be a358 0b3e
00000210: 6050 b1bd ef29 edbd 6e32 883d 62d2 1d3d
00000220: c396 9e3d 585f 833c 3cca 323d 8f0d a03d
00000230: 6189 8b3c 53e1 8cbc 979f 59bd d15f 263e
00000240: 6574 533b c528 3b3e 1969 6dbc ff88 d1bd
00000250: 5661 893d b77a ee3d 8d31 843d 6703 f63d
00000260: 5669 db3d 1f99 41bc 138a f63d 4462 fb3b
00000270: 0736 ccbc da29 9b3d fe06 e6bc aeee f83c
00000280: aa1b ae3c 1e80 a0bd af3d 403d 23c0 e9bb
00000290: c223 30bc 2a8e 04be c769 12bd 5cea f0bc
000002a0: d324 143d 2fb4 283c 579b a1bd c34c 64be
000002b0: 653a cebd 118f 2e3a 6fe4 e7bd bf59 6b3d
000002c0: 87b4 9d3d 497f 023e 82e4 afbd 729e c93d
000002d0: 4bb4 03bd 67c9 4e3b 9f16 3f3e 98c9 833d
000002e0: a4f3 44bd 7cab bbbc 8f21 e6bd a2e2 273e
000002f0: 07a2 b1bd 5aaf 81bc 9f02 ecbd 3cd1 b93d
00000300: 490a 23be 6d3f 893d 6311 1d3d 8245 203e
00000310: 6e95 efbc 7ae6 e03d efa3 c83d 1420 123e
00000320: acf1 00be 62ef cb3d df0d 14bd 507e 803d
00000330: 81d5 043e f475 e43c 1f12 f23c 6427 04be
00000340: eebd 1a3d 3b26 1e3d ad4a 9abd 3513 01be
00000350: 7da2 5b3e 67e3 ee3d d8ac 943c 8634 4a3d
00000360: cce7 0ebe 8439 8cbd 7181 fdbb b388 ffbd
00000370: dfc3 b8bd dce9 2d3d 98cb 9bbd ab6d 0fbe
00000380: e7a4 793d db46 e3bd 7ff3 12bd d70b f33d
00000390: 42f8 00bd 9efe 24bd cbc2 1fbd 06da 6a3e
000003a0: f1cf d7bc f4da 83bc a5a1 b4bc be33 71bd
000003b0: 94c4 933d 68ad 8cbd d3d1 7f3e af40 8bbc
000003c0: 5930 0abe bebb 59bd 004e dabc 7081 083c
000003d0: 5c1b 13bd ef94 9f3c a4a1 caba a5c6 cd3d
000003e0: 02a0 bf3c f968 b43d 59c9 923d 5153 963b
000003f0: 9178 a43d fc34 2e3c 340c c3bc ada6 b23d
