Assets/results/Run05/Robot Path Finder/checkpoint.pt (torch, 562703 bytes, 11 tensors)

network_body.linear_encoder.seq_layers.0.weight f4 [128, 410]
0.022155043 0.0015926061 0.0058705504 -0.0063926363 -0.043488357 -0.043488234 -0.018483218 0.028671386
-0.10165065 -0.018437559 -0.027769364 -0.048048783 0.032471173 -0.02447861 -0.12172423 0.0061709452
-0.007901348 -0.0015189929 0.041313227 0.053939626 -0.053402126 -0.0045613456 -0.03219654 0.04250087
-0.019972181 -0.043990485 -0.08624546 -0.0037817205 0.013433767 0.016119044 -0.0427334 -0.05309994
-0.02467175 0.012750614 0.039653532 -0.034505077 0.056934487 -0.03842534 0.012615992 0.023455765
-0.07153116 -0.031315133 0.0021203859 -0.00058741804 0.002804514 0.0638287 -0.022474771 -0.0010984191
-0.03755495 -0.028760472 -0.02686552 -0.026050312 0.015386998 -0.06699643 0.023609683 0.094513915
-0.025487063 0.007866589 -0.1016375 -0.025747687 0.023367545 -0.09201393 0.053240154 0.06181885
0.015337751 -0.01669563 0.0033162122 0.031205865 -0.0185051 -0.038410794 -0.02569441 -0.03571034
0.024286125 0.044534 0.010408989 0.0040068217 0.011205103 -0.017929971 -0.10025086 -0.021533761
0.010520924 0.025927866 0.02992515 -0.017070962 0.06114751 -0.05417233 0.012988982 -0.026834575
-0.02520518 -0.026349185 0.050250616 -0.06514003 0.06374621 -0.011272745 0.008559506 0.05546503
0.0633929 0.001454692 0.051877923 -0.005958919 -0.010117703 0.08929805 0.012661651 0.037679758
-0.008089958 -0.070516825 0.048270773 -0.06043086 0.0047660703 -0.083958454 -0.03946832 0.09568588
-0.028962873 0.06628381 -0.037390217 0.004794725 0.009051651 0.040185172 0.054749463 0.05655636
0.012223946 -0.021515911 0.065063894 0.022253867 0.02428197 0.0043097236 -0.086173914 0.024490444
0.09270964 -0.061461415 -0.058054455 0.13076583 0.035561454 -0.06635072 0.06036545 0.02745067
-0.046433154 -0.026528422 0.02415919 -0.12616809 -0.103391804 0.020686084 -0.019627128 -0.06936694
0.037697677 -0.051799394 -0.023673356 0.024712091 0.011047898 0.058908243 0.008047604 -0.05619139
-0.051447142 -0.022836244 -0.04338166 -0.07662684 0.07994178 0.016603382 -0.026568033 -0.027356248
0.055898335 0.022883447 0.01747557 -0.04827466 0.030862305 0.0025038838 -0.044701573 -0.058648374
0.007745745 -0.011124491 -0.026580434 0.024074255 0.059096843 -0.02626227 0.018608417 0.011955256
0.014672651 -0.019516567 0.021248303 0.052807316 0.0627595 0.01711144 -0.017424503 -0.030624215
-0.10498485 -0.009162314 0.024573661 -0.029036576 0.04713982 -0.093625076 0.053997163 -0.0496071
0.016474014 0.08513292 0.114448965 -0.049407944 -0.029394032 -0.031550992 -0.015016966 0.008632862
-0.03004227 -0.02855591 -0.045612603 -0.009426348 -0.020137379 -0.097065814 0.026947385 -0.0030144586
0.0026839632 -0.050385922 -0.0075158197 -0.0064787767 -0.049392447 0.014429815 -0.0917202 0.08787617
0.02059357 0.045324624 -0.08229258 0.024964383 0.07748005 -0.027526803 0.0341409 -0.019583344
0.008086088 -0.02455831 0.06888099 -0.023635244 0.026018247 -0.0025037613 0.0350748 -0.013727224
-0.0033238141 0.030062264 0.044644512 0.024863996 0.033994462 0.009628352 0.09178001 0.017330902
-0.05220294 0.13084157 0.03203466 -0.05444835 -0.0156183755 -0.006179101 0.022146923 0.08818852
-0.10961238 0.024747126 0.008018644 0.06548143 0.009649262 -0.048533443 -0.025762852 0.07873857
00000000: 7e7e b53c febe d03a bf5d c03b 5279 d1bb
00000010: d920 32bd b820 32bd 1e6a 97bc 41e0 ea3c
00000020: 372e d0bd 5d0a 97bc 947c e3bc cdce 44bd
00000030: 7e00 053d 5e87 c8bc 8e4a f9bd a435 ca3b
00000040: a874 01bc f218 c7ba 0f38 293d ccef 5c3d
00000050: 30bc 5abd 5777 95bb 85e0 03bd 6415 2e3d
00000060: b39c a3bc 5e2f 34bd 76a1 b0bd bed6 77bb
00000070: 4d19 5c3c 160c 843c 3809 2fbd 537f 59bd
00000080: 691c cabc f4e7 503c be6b 223d 3255 0dbd
00000090: 2334 693d e463 1dbd 4eb3 4e3c 4e26 c03c
000000a0: ee7e 92bd 4c44 00bd 2cf6 0a3b f5fc 19ba
000000b0: f0cb 373b 9fb8 823d 031d b8bc d4f8 8fba
000000c0: 38d3 19bd 159b ebbc 1415 dcbc 7767 d5bc
000000d0: bf19 7c3c 6d35 89bd 1869 c13c 8390 c13d
000000e0: 3fca d0bc dee2 003c 5227 d0bd d0ec d2bc
000000f0: 4b6d bf3c cd71 bcbd 5912 5a3d c335 7d3d
00000100: 314b 7b3c 46c5 88bc cf54 593b 71a3 ff3c
00000110: 0298 97bc a354 1dbd 157d d2bc 0145 12bd
00000120: b2f3 c63c 4969 363d 778a 2a3c a84b 833b
00000130: 9c95 373c e0e1 92bc 5350 cdbd 9267 b0bc
00000140: f45f 2c3c ad66 d43c 9725 f53c 67d8 8bbc
00000150: d075 7a3d cee3 5dbd bdcf 543c 2fd4 dbbc
00000160: 187b cebc 3fda d7bc 97d3 4d3d 2368 85bd
00000170: 5f8d 823d 52b1 38bc 2c3d 0c3c 4d2f 633d
00000180: 23d4 813d 5dab be3a f27d 543d 0943 c3bb
00000190: b9c4 25bc e5e1 b63d d072 4f3c 1756 1a3d
000001a0: be8b 04bc 206b 90bd 93b7 453d 5986 77bd
000001b0: b22c 9c3b 69f2 abbd 88a9 21bd f5f6 c33d
000001c0: 8c43 edbc cebf 873d 7c26 19bd 121d 9d3b
000001d0: 604d 143c 3599 243d f940 603d a4a7 673d
000001e0: f246 483c 2342 b0bc 3840 853d be4d b63c
000001f0: fbea c63c 9538 8d3b f37b b0bd 2fa0 c83c
00000200: 8dde bd3d f7be 7bbd 82ca 6dbd 7ae7 053e
00000210: e3a8 113d e3e2 87bd c341 773d 3ae0 e03c
00000220: b130 3ebd 2252 d9bc 7ee9 c53c 3532 01be
00000230: 15bf d3bd dd75 a93c 12c9 a0bc 4110 8ebd
00000240: e168 1a3d 9a2b 54bd a0ee c1bc 0371 ca3c
00000250: 3e02 353c c549 713d 19da 033c f128 66bd
00000260: 3dba 52bd 1313 bbbc f8b0 31bd 88ee 9cbd
00000270: 84b8 a33d d103 883c 34a5 d9bc 361a e0bc
00000280: a7f5 643d 1176 bb3c ed28 8f3c a6bb 45bd
00000290: f2d2 fc3c 3318 243b ff18 37bd 4739 70bd
000002a0: 05d0 fd3b 7f43 36bc 36bf d9bc 5f37 c53c
000002b0: 880f 723d f923 d7bc ae70 983c fadf 433c
000002c0: 8f65 703c 35e1 9fbc ec10 ae3c 7c4c 583d
000002d0: 0e88 803d 4a2d 8c3c d5bd 8ebc a2df fabc
000002e0: 4c02 d7bd 881d 16bc b44e c93c 1dde edbc
000002f0: af15 413d 81be bfbd 212c 5d3d d130 4bbd
00000300: 83f4 863c 2b5a ae3d 3864 ea3d fc5f 4abd
00000310: c1cb f0bc 9d3b 01bd b809 76bc d970 0d3c
00000320: 351b f6bc 15ee e9bc 48d4 3abd f870 1abc
00000330: 25f7 a4bc 71ca c6bd c3c0 dc3c 398e 45bb
00000340: 6ee5 2f3b 7861 4ebd 4447 f6bb eb4b d4bb
00000350: bc4f 4abd 086b 6c3c cdd7 bbbd 6cf8 b33d
00000360: d9b3 a83c 50a6 393d 0389 a8bd 1b82 cc3c
00000370: dcad 9e3d e47f e1bc 54d7 0b3d 406d a0bc
00000380: 837b 043c 822e c9bc 7a11 8d3d b39e c1bc
00000390: 3824 d53c 2516 24bb 98aa 0f3d 27e8 60bc
000003a0: 59d4 59bb 2345 f63c 2add 363d 94af cb3c
000003b0: c73d 0b3d 3cc0 1d3c 28f7 bb3d 89f9 8d3c
000003c0: c0d2 55bd 55fb 053e c736 033d 3c05 5fbd
000003d0: 37e4 7fbc 0e7a cabb 776d b53c 2f9c b43d
000003e0: 757c e0bd 7cba ca3c a160 033c 211b 863d
000003f0: f017 1e3c 01cb 46bd 9e0c d3bc b041 a13d

network_body.linear_encoder.seq_layers.0.bias f4 [128]
0.0 0.0 0.0 0.0 0.0 0.0 0.0 0.0
0.0 0.0 0.0 0.0 0.0 0.0 0.0 0.0
0.0 0.0 0.0 0.0 0.0 0.0 0.0 0.0
0.0 0.0 0.0 0.0 0.0 0.0 0.0 0.0
0.0 0.0 0.0 0.0 0.0 0.0 0.0 0.0
0.0 0.0 0.0 0.0 0.0 0.0 0.0 0.0
0.0 0.0 0.0 0.0 0.0 0.0 0.0 0.0
0.0 0.0 0.0 0.0 0.0 0.0 0.0 0.0
0.0 0.0 0.0 0.0 0.0 0.0 0.0 0.0
0.0 0.0 0.0 0.0 0.0 0.0 0.0 0.0
0.0 0.0 0.0 0.0 0.0 0.0 0.0 0.0
0.0 0.0 0.0 0.0 0.0 0.0 0.0 0.0
0.0 0.0 0.0 0.0 0.0 0.0 0.0 0.0
0.0 0.0 0.0 0.0 0.0 0.0 0.0 0.0
0.0 0.0 0.0 0.0 0.0 0.0 0.0 0.0
0.0 0.0 0.0 0.0 0.0 0.0 0.0 0.0
00000000: 0000 0000 0000 0000 0000 0000 0000 0000
00000010: 0000 0000 0000 0000 0000 0000 0000 0000
00000020: 0000 0000 0000 0000 0000 0000 0000 0000
00000030: 0000 0000 0000 0000 0000 0000 0000 0000
00000040: 0000 0000 0000 0000 0000 0000 0000 0000
00000050: 0000 0000 0000 0000 0000 0000 0000 0000
00000060: 0000 0000 0000 0000 0000 0000 0000 0000
00000070: 0000 0000 0000 0000 0000 0000 0000 0000
00000080: 0000 0000 0000 0000 0000 0000 0000 0000
00000090: 0000 0000 0000 0000 0000 0000 0000 0000
000000a0: 0000 0000 0000 0000 0000 0000 0000 0000
000000b0: 0000 0000 0000 0000 0000 0000 0000 0000
000000c0: 0000 0000 0000 0000 0000 0000 0000 0000
000000d0: 0000 0000 0000 0000 0000 0000 0000 0000
000000e0: 0000 0000 0000 0000 0000 0000 0000 0000
000000f0: 0000 0000 0000 0000 0000 0000 0000 0000
00000100: 0000 0000 0000 0000 0000 0000 0000 0000
00000110: 0000 0000 0000 0000 0000 0000 0000 0000
00000120: 0000 0000 0000 0000 0000 0000 0000 0000
00000130: 0000 0000 0000 0000 0000 0000 0000 0000
00000140: 0000 0000 0000 0000 0000 0000 0000 0000
00000150: 0000 0000 0000 0000 0000 0000 0000 0000
00000160: 0000 0000 0000 0000 0000 0000 0000 0000
00000170: 0000 0000 0000 0000 0000 0000 0000 0000
00000180: 0000 0000 0000 0000 0000 0000 0000 0000
00000190: 0000 0000 0000 0000 0000 0000 0000 0000
000001a0: 0000 0000 0000 0000 0000 0000 0000 0000
000001b0: 0000 0000 0000 0000 0000 0000 0000 0000
000001c0: 0000 0000 0000 0000 0000 0000 0000 0000
000001d0: 0000 0000 0000 0000 0000 0000 0000 0000
000001e0: 0000 0000 0000 0000 0000 0000 0000 0000
000001f0: 0000 0000 0000 0000 0000 0000 0000 0000

network_body.linear_encoder.seq_layers.2.weight f4 [128, 128]
-0.1595375 0.19676095 0.11888744 0.0939104 0.002632813 -0.017149355 0.049948372 -0.06869393
0.01005427 0.13790618 -0.062416684 0.16742322 0.14708494 0.014614542 -0.23356244 0.13895419
0.13176782 0.027569918 -0.050146397 -0.036861442 0.08948653 -0.028767383 -0.0059391456 0.031717632
0.25716066 0.1399406 0.0828253 -0.116115116 0.08672193 -0.00514207 -0.056634553 -0.22493988
-0.12036895 -0.14221336 0.039058615 -0.08050627 0.12735105 0.06760832 -0.059507146 -0.056393817
0.038875185 -0.061188977 -0.06538122 -0.07803326 -0.056817353 0.08874522 0.23290302 0.10774296
0.12488466 -0.11440252 0.005357369 0.15825401 -0.04817689 -0.19781019 -0.06587232 0.067112036
0.17393854 0.067026116 0.046993017 0.081173055 -0.034983613 0.10811581 0.009891269 -0.103829674
0.0046198736 0.022293685 0.041412935 -0.04810232 0.05579977 0.03074506 0.07221867 -0.048080154
0.03340387 -0.012889208 0.09629253 -0.015861776 -0.03048036 0.02943639 0.119385235 0.10083945
0.05028676 0.029786175 0.025074022 0.108293466 0.012974473 0.023837375 -0.06830559 0.120368965
0.040153127 0.029006507 0.06413985 0.02100525 0.020094175 0.10214842 0.05650049 -0.16715208
-0.0024714656 0.018615358 0.051862665 0.049140025 -0.11798139 0.03625685 -0.097454555 -0.15495142
-0.02013486 0.01010011 -0.024921903 0.10106958 -0.04825472 -0.06042781 -0.02055206 -0.04422568
-0.103524335 0.05728122 -0.051579192 -0.059277397 -0.10021022 0.12195838 0.068085894 0.00043683377
0.023075523 0.082767785 -0.007431761 -0.0290154 -0.037696995 0.046410702 0.14621325 -0.058874577
-0.06251393 -0.027764345 0.025243565 -0.18110886 -0.01804494 -0.07570987 0.13565493 -0.011770792
0.1246627 -0.029202744 -0.029188968 -0.022060074 0.020118449 0.14981072 -0.124200016 0.19006479
0.11809737 0.01855368 0.04159472 0.054706793 -0.071523525 -0.034764986 0.040946543 0.11165798
-0.006600723 0.033509657 -0.015549828 -0.067597926 0.09614014 -0.07414492 -0.06274939 -0.08567064
-0.0048264605 0.07105391 0.04484078 0.07845144 0.11742008 -0.07051018 -0.08885188 -0.117249414
0.13961576 -0.022280162 -0.11388503 0.01197044 0.008304962 0.071633264 0.028152393 -0.17799027
-0.07114819 -0.10856381 -0.044605073 0.041346263 0.030491497 0.1479746 0.017310468 -0.13208741
0.07311236 -0.01887679 0.015634794 -0.05453123 0.07008915 0.0025213538 0.110303424 0.037317857
-0.123152 -0.08512861 -0.02402347 -0.023370711 0.078410536 -0.061757106 0.0014270778 -0.011451704
0.089034654 -0.0028300001 0.18085112 -0.0955594 0.03820308 0.08194606 -0.013900033 0.12460273
0.04804346 -0.01662579 0.048917823 0.1006155 -0.07670636 0.09561046 0.0872852 -0.02573146
0.07746645 0.10751104 0.009151294 0.109621726 0.05253403 0.01683464 0.06896511 0.023486452
0.07344317 -0.015431498 0.10722344 0.15976365 -0.029744975 -0.103458025 0.038720515 -0.07005521
0.008756006 0.08395355 0.034703042 -0.033470318 0.051263813 0.08740684 -0.024713628 -0.10812719
0.104948856 -0.1574068 -0.10197509 0.09936278 -0.036463447 0.09675548 -0.06852793 -0.13185203
0.008817544 -0.08200544 -0.048439603 -0.014691216 -0.07596157 -0.24738358 -0.017983772 -0.10699854
00000000: cc5d 23be b47b 493e 427b f33d 1954 c03d
00000010: 468b 2c3b ce7c 8cbc aa96 4c3d 67af 8cbd
00000020: aaba 243c 4737 0d3e a3a8 7fbd fe70 2b3e
00000030: 6f9d 163e d571 6f3c fe2a 6fbe 024a 0e3e
00000040: 25ee 063e 4fda e13c 4f66 4dbd 06fc 16bd
00000050: b744 b73d 93a9 ebbc 2a9d c2bb 59ea 013d
00000060: 90aa 833e 974c 0f3e 50a0 a93d c3cd edbd
00000070: 449b b13d cf7e a8bb a2f9 67bd a456 66be
00000080: ff83 f6bd 61a0 11be edfb 1f3d 79e0 a4bd
00000090: 5068 023e 3b76 8a3d c4bd 73bd 34fd 66bd
000000a0: 963b 1f3d 4ba1 7abd 97e6 85bd e7cf 9fbd
000000b0: 50b9 68bd 0ec0 b53d 217e 6e3e 57a8 dc3d
000000c0: 87c3 ff3d de4b eabd de8c af3b 570d 223e
000000d0: 2155 45bd c18e 4abe 11e8 86bd 0972 893d
000000e0: f21c 323e fd44 893d c07b 403d 0f3e a63d
000000f0: fa4a 0fbd d26b dd3d fd0e 223c a7a4 d4bd
00000100: 4f62 973b 3fa1 b63c 9ca0 293d f006 45bd
00000110: 4d8e 643d 10dd fb3c 62e7 933d b2ef 44bd
00000120: 7fd2 083d 422d 53bc 0535 c53d 8ef0 81bc
00000130: f3b1 f9bc 9624 f13c 3f80 f43d ea84 ce3d
00000140: 7df9 4d3d 2302 f43c 0968 cd3c f7c8 dd3d
00000150: e292 543c 9946 c33c cde3 8bbd 0184 f63d
00000160: 9b77 243d 0e9f ed3c c15b 833d 3413 ac3c
00000170: 8a9c a43c 3133 d13d 0f6d 673d ea29 2bbe
00000180: 50f8 21bb 3c7f 983c f26d 543d 0d47 493d
00000190: 3aa0 f1bd 1082 143d 4196 c7bd 96ab 1ebe
000001a0: ddf1 a4bc ef7a 253c 0529 ccbc 91fd ce3d
000001b0: bea6 45bd 2783 77bd cb5c a8bc fd25 35bd
000001c0: 9104 d4bd b69f 6a3d b444 53bd dbcc 72bd
000001d0: 043b cdbd 51c5 f93d 9e70 8b3d d606 e539
000001e0: e108 bd3c 2882 a93d 2186 f3bb b4b1 edbc
000001f0: 2a68 1abd 2619 3e3d edb8 153e 7826 71bd
00000200: 4e07 80bd 0d72 e3bc 98cb ce3c 9a74 39be
00000210: fbd2 93bc c70d 9bbd 20e9 0a3e 48da 40bc
00000220: 284f ff3d 983a efbc b41d efbc 54b7 b4bc
00000230: 72cf a43c fb67 193e 945c febd 58a0 423e
00000240: 09dd f13d e3fd 973c 3a5f 2a3d 3b14 603d
00000250: ed7a 92bd bb65 0ebd 90b7 273d f0ac e43d
00000260: e14a d8bb 6c41 093d b5c4 7ebc c870 8abd
00000270: 1fe5 c43d 4bd9 97bd c182 80bd 1774 afbd
00000280: 4927 9ebb b684 913d f7aa 373d 26ab a03d
00000290: f079 f03d a467 90bd f9f7 b5bd 7620 f0bd
000002a0: 6ff7 0e3e e384 b6bc 8e3c e9bd aa1f 443c
000002b0: 8911 083c 76b4 923d d99f e63c 1543 36be
000002c0: 24b6 91bd b456 debd cfb3 36bd b35a 293d
000002d0: 4ec9 f93c a786 173e afce 8d3c ec41 07be
000002e0: efbb 953d 7fa3 9abc 8a14 803c 245c 5fbd
000002f0: e68a 8f3d 4c3d 253b c3e6 e13d 9cda 183d
00000300: 1e37 fcbd e957 aebd decc c4bc ef73 bfbc
00000310: b495 a03d 05f5 7cbd c90c bb3a ee9f 3bbc
00000320: cd57 b63d 8677 39bb 0931 393e a6b4 c3bd
00000330: d57a 1c3d 56d3 a73d f7bc 63bc b72f ff3d
00000340: 38c9 443d cf32 88bc 0e5e 483d 800f ce3d
00000350: 3918 9dbd 6bcf c33d 95c2 b23d c8ca d2bc
00000360: bba6 9e3d c02e dc3d 4fef 153c 5b81 e03d
00000370: ec2d 573d cde8 893c 943d 8d3d a966 c03c
00000380: 5f69 963d 65d4 7cbc f797 db3d 1599 233e
00000390: bcab f3bc cde1 d3bd 6799 1e3d 1b79 8fbd
000003a0: 5a75 0f3c d7ef ab3d c724 0e3d 2c18 09bd
000003b0: 01fa 513d 5b02 b33d 3c74 cabc ca71 ddbd
000003c0: 6def d63d 402f 21be 51d8 d0bd b77e cb3d
000003d0: b25a 15bd bd27 c63d 5f58 8cbd 3804 07be
000003e0: 7677 103c 78f2 a7bd 9b68 46bd 6db3 70bc
000003f0: bd91 9bbd 1f52 7dbe b452 93bc 0d22 dbbd

network_body.linear_encoder.seq_layers.2.bias f4 [128]
0.0 0.0 0.0 0.0 0.0 0.0 0.0 0.0
0.0 0.0 0.0 0.0 0.0 0.0 0.0 0.0
0.0 0.0 0.0 0.0 0.0 0.0 0.0 0.0
0.0 0.0 0.0 0.0 0.0 0.0 0.0 0.0
0.0 0.0 0.0 0.0 0.0 0.0 0.0 0.0
0.0 0.0 0.0 0.0 0.0 0.0 0.0 0.0
0.0 0.0 0.0 0.0 0.0 0.0 0.0 0.0
0.0 0.0 0.0 0.0 0.0 0.0 0.0 0.0
0.0 0.0 0.0 0.0 0.0 0.0 0.0 0.0
0.0 0.0 0.0 0.0 0.0 0.0 0.0 0.0
0.0 0.0 0.0 0.0 0.0 0.0 0.0 0.0
0.0 0.0 0.0 0.0 0.0 0.0 0.0 0.0
0.0 0.0 0.0 0.0 0.0 0.0 0.0 0.0
0.0 0.0 0.0 0.0 0.0 0.0 0.0 0.0
0.0 0.0 0.0 0.0 0.0 0.0 0.0 0.0
0.0 0.0 0.0 0.0 0.0 0.0 0.0 0.0
00000000: 0000 0000 0000 0000 0000 0000 0000 0000
00000010: 0000 0000 0000 0000 0000 0000 0000 0000
00000020: 0000 0000 0000 0000 0000 0000 0000 0000
00000030: 0000 0000 0000 0000 0000 0000 0000 0000
00000040: 0000 0000 0000 0000 0000 0000 0000 0000
00000050: 0000 0000 0000 0000 0000 0000 0000 0000
00000060: 0000 0000 0000 0000 0000 0000 0000 0000
00000070: 0000 0000 0000 0000 0000 0000 0000 0000
00000080: 0000 0000 0000 0000 0000 0000 0000 0000
00000090: 0000 0000 0000 0000 0000 0000 0000 0000
000000a0: 0000 0000 0000 0000 0000 0000 0000 0000
000000b0: 0000 0000 0000 0000 0000 0000 0000 0000
000000c0: 0000 0000 0000 0000 0000 0000 0000 0000
000000d0: 0000 0000 0000 0000 0000 0000 0000 0000
000000e0: 0000 0000 0000 0000 0000 0000 0000 0000
000000f0: 0000 0000 0000 0000 0000 0000 0000 0000
00000100: 0000 0000 0000 0000 0000 0000 0000 0000
00000110: 0000 0000 0000 0000 0000 0000 0000 0000
00000120: 0000 0000 0000 0000 0000 0000 0000 0000
00000130: 0000 0000 0000 0000 0000 0000 0000 0000
00000140: 0000 0000 0000 0000 0000 0000 0000 0000
00000150: 0000 0000 0000 0000 0000 0000 0000 0000
00000160: 0000 0000 0000 0000 0000 0000 0000 0000
00000170: 0000 0000 0000 0000 0000 0000 0000 0000
00000180: 0000 0000 0000 0000 0000 0000 0000 0000
00000190: 0000 0000 0000 0000 0000 0000 0000 0000
000001a0: 0000 0000 0000 0000 0000 0000 0000 0000
000001b0: 0000 0000 0000 0000 0000 0000 0000 0000
000001c0: 0000 0000 0000 0000 0000 0000 0000 0000
000001d0: 0000 0000 0000 0000 0000 0000 0000 0000
000001e0: 0000 0000 0000 0000 0000 0000 0000 0000
000001f0: 0000 0000 0000 0000 0000 0000 0000 0000

distribution.branches.0.weight f4 [4, 128]
-0.0099963 -0.0064899656 0.02333962 0.0012098585 -0.0046139443 -0.010091205 -0.009726716 0.0018298678
0.007974317 -0.009752892 -0.0070015523 -0.008008623 -0.010681287 0.014755705 -0.00282078 -0.003201104
0.0028632483 -0.002202532 0.008848488 0.0051572532 0.0139183 0.018302845 0.005949765 0.005946602
-0.011506693 0.012958928 0.0036157419 0.011039016 0.00789759 -0.0011545025 -0.0026693833 -0.013893984
-0.0063640424 0.0012798178 0.0011153539 -0.0072485805 -0.016260387 -0.0056424895 0.005299511 0.010033109
-0.0039049764 -0.013063132 -0.0039332923 -0.005903944 0.002755089 0.0055073784 -0.0010940895 0.011150603
-0.004993114 0.015695529 0.0076160366 -0.0015088827 0.008427723 -0.00095478585 -0.0057783592 -0.0041921753
0.0006484934 0.003510486 -0.013847864 0.0077416585 -0.0127705755 0.0052384064 -0.011744771 -0.00020625589
0.010157483 -0.022505863 0.005838285 -0.0022634703 0.00084985385 -0.000115476425 -0.0006837323 0.010962955
-0.009290664 -0.0033313674 -0.004649432 0.0015624588 0.014042042 -0.014796056 -0.00016401784 0.011045603
-0.012619219 -0.011149393 0.010366719 -0.0149365235 -0.00188378 0.010856781 0.0024215605 0.00061017525
-0.009126617 -0.010977617 0.014682272 0.0008557324 -0.0071472987 -8.842696e-05 0.009130755 0.019949444
0.0007755067 0.015511066 0.0071303397 0.013250238 0.008506774 -0.003021248 -0.0076288576 -0.016398137
-0.0100377295 0.014704115 -0.02119935 -0.011335813 -0.0025164958 -0.005144477 -0.0040820087 -0.017419146
0.006430862 0.002432021 0.0013551783 0.0003979306 -0.013144331 -0.0024163537 -0.0021413567 0.01029285
-0.004511468 0.010746492 -0.00070836785 -0.0022177722 -0.004163315 -0.0043171025 0.011451579 -0.0067745596
0.010592171 0.0069291415 -0.0038410095 -0.0030423768 -0.014975304 0.0121365115 -0.0043013934 -0.0044678
0.002981927 -0.00023483636 -0.0153792305 -0.015092527 -0.0064358166 0.0012773577 0.0050651412 -0.009117059
-0.010044522 0.003487541 -0.005112016 -0.006119026 -0.0018110455 0.0028276215 -0.0058147307 0.009047736
-0.0018185789 0.005267978 -0.009287973 -0.0021684112 0.006534347 -0.015024388 0.0042116377 0.007856007
-0.005920762 0.0027574236 -0.010498813 -0.0052253697 0.0030771415 0.0068691196 -0.005417386 -0.0029531298
0.0056436444 0.0006035347 -0.0016828089 0.0015408538 0.012974307 -0.009854452 -0.00486594 0.018357515
0.0026365512 -0.010521214 -0.010933346 -0.0039315145 0.0038377752 0.005623275 0.0038363938 -0.017571112
-0.0052655395 0.0006171327 0.006743248 -0.0053683748 0.0031370164 0.011544416 0.0060114837 0.011165209
0.0012283609 -0.0021126657 0.00090354815 0.0071028555 0.000316797 0.0086815925 0.009962423 0.014894648
-0.0045960075 0.0093060015 -0.008415496 0.015785007 0.0021752669 0.009749974 0.002125521 0.0024709818
-0.029577399 0.007880412 0.0051563624 -0.0057668225 0.026249794 -0.01141704 0.0034106777 0.000941883
-0.0038035044 0.0033529152 -0.010153345 -0.0074304263 0.014744015 0.006825205 -0.0057679988 -0.004353255
0.012811529 0.00330214 -0.004619799 0.008283624 -0.01295343 -0.0025970996 -0.0069377604 0.008446146
0.0046864995 -0.0038523253 0.008033152 -0.0033140269 -0.010748314 -0.014964702 -0.0035501514 -0.004944387
0.0072690398 -0.0049808747 -0.013651684 0.011426495 -0.0046932767 0.0005625754 0.004749291 0.0056922953
-0.0106611205 0.012294824 0.010282768 -0.0031681284 0.006524538 -0.0015554294 0.012260522 0.0032477
00000000: 85c7 23bc c7a9 d4bb bb32 bf3c 1d94 9e3a
00000010: 9230 97bb 9555 25bc ce5c 1fbc 2dd8 ef3a
00000020: b6a6 023c 98ca 1fbc 476d e5bb 9936 03bc
00000030: 9100 2fbc eac1 713c d6dc 38bb 9dc9 51bb
00000040: 56a5 3b3b 5b58 10bb 40f9 103c 2dfe a83b
00000050: 9509 643c d9ef 953c 3ff6 c23b b7db c23b
00000060: 9286 3cbc af51 543c 15f6 6c3b fddc 343c
00000070: e564 013c ad52 97ba d2f0 2ebb 98a3 63bc
00000080: 7589 d0bb 8fbf a73a 1131 923a 8085 edbb
00000090: 8134 85bc a2e4 b8bb 85a7 ad3b e961 243c
000000a0: a2ea 7fbb bf06 56bc d9e2 80bb df75 c1bb
000000b0: b98e 343b 3d77 b43b 8d67 8fba 05b1 363c
000000c0: 479d a3bb e993 803c f28f f93b b4c5 c5ba
000000d0: 6f14 0a3c 984a 7aba 6458 bdbb 845e 89bb
000000e0: a8ff 293a 2f10 663b 27e2 62bc bdad fd3b
000000f0: ad3b 51bc f0a6 ab3b 246d 40bc 6546 58b9
00000100: 926b 263c 375e b8bc 164f bf3b bb56 14bb
00000110: bac8 5e3a ef2b f2b8 7f3c 33ba f79d 333c
00000120: df37 18bc 1253 5abb 435a 98bb 6bcb cc3a
00000130: 9810 663c 286b 72bc 34fc 2bb9 9ef8 343c
00000140: d7c0 4ebc f2ab 36bc 2cd9 293c 52b8 74bc
00000150: 2be9 f6ba a4e0 313c 0bb3 1e3b 2bf4 1f3a
00000160: ce87 15bc 77db 33bc ea8d 703c 3b53 603a
00000170: e333 eabb dd71 b9b8 2a99 153c 046d a33c
00000180: 604b 4b3a 2022 7e3c a0a5 e93b 8717 593c
00000190: ff5f 0b3c 2100 46bb 7ffb f9bb 6355 86bc
000001a0: 4a75 24bc 87e9 703c 42aa adbc d9b9 39bc
000001b0: cbeb 24bb 0093 a8bb 5fc2 85bb 99b2 8ebc
000001c0: fbb9 d23b 8b62 1f3b 3da0 b13a 57a1 d039
000001d0: 525b 57bc b05b 1ebb 0156 0cbb 58a3 283c
000001e0: f0d4 93bb 0e12 303c c3b1 39ba 0b58 11bb
000001f0: 6b6c 88bb 7b76 8dbb 679f 3b3c 20fd ddbb
00000200: c98a 2d3c da0d e33b 72b9 7bbb 9d62 47bb
00000210: fa5a 75bc 38d8 463c b4f2 8cbb 9f66 92bb
00000220: 6f6c 433b 683e 76b9 2bf9 7bbc a546 77bc
00000230: 8be3 d2bb 036d a73a 7cf9 a53b b85f 15bc
00000240: c791 24bc 3b8f 643b b382 a7bb 1c82 c8bb
00000250: 9a60 edba 9e4f 393b 7f89 bebb f53c 143c
00000260: 625d eeba 019f ac3b 952c 18bc e71b 0ebb
00000270: 131e d63b da28 76bc c701 8a3b 7bb6 003c
00000280: f402 c2bb e4b5 343b 3703 2cbc 9439 abbb
00000290: dea9 493b 5a16 e13b 5484 b1bb 4c89 41bb
000002a0: 52ee b83b 8736 1e3a b291 dcba 79f6 c93a
000002b0: 3092 543c 9174 21bc 7772 9fbb 8062 963c
000002c0: fdc9 2c3b 2c61 2cbc c721 33bc efd3 80bb
000002d0: 2f83 7b3b 7343 b83b 026c 7b3b 4bf1 8fbc
000002e0: 8c8a acbb 13c7 213a 77f6 dc3b 31e9 afbb
000002f0: 6796 4d3b ca24 3d3c fbfb c43b 48ee 363c
00000300: f400 a13a a674 0abb 17dc 6c3a 12bf e83b
00000310: c617 a639 3d3d 0e3c 6e39 233c af08 743c
00000320: 1b9a 96bb 3378 183c 26e1 09bc 8f4f 813c
00000330: ec8e 0e3b 5bbe 1f3c 534c 0b3b 32f0 213b
00000340: 4d4c f2bc d81c 013c b4f6 a83b 9df7 bcbb
00000350: cf09 d73c 890e 3bbc ad85 5f3b b3e8 763a
00000360: 3744 79bb 95bc 5b3b 375a 26bc ef7a f3bb
00000370: e290 713c f8a5 df3b 7b01 bdbb c0a5 8ebb
00000380: 73e7 513c b768 583b af61 97bb 0ab8 073c
00000390: a03a 54bc 1a34 2abb 2756 e3bb b461 0a3c
000003a0: 3591 993b 4b77 7cbb 7b9d 033c 2530 59bb
000003b0: b219 30bc 822e 75bc a8a9 68bb 8604 a2bb
000003c0: 2031 ee3b 9b36 a3bb 50ab 5fbc 3236 3b3c
000003d0: 0fca 99bb cc79 133a f19f 9b3b 6f86 ba3b
000003e0: fbab 2ebc 3b70 493c 0e79 283c 60a0 4fbb
000003f0: cbcb d53b 8ddf cbba 5be0 483c 5dd7 543b

distribution.branches.0.bias f4 [4]
0.0 0.0 0.0 0.0
00000000: 0000 0000 0000 0000 0000 0000 0000 0000

critic.network_body.linear_encoder.seq_layers.0.weight f4 [128, 410]
-0.023575217 0.0589177 -0.077426724 -0.087735675 -0.006095949 -0.039609864 -0.07480951 -0.002546247
0.040167768 -0.07963467 0.08155983 -0.11707702 -0.012541754 0.09615384 -0.019679 0.016815484
0.09634012 -0.016133687 -0.032831047 0.0022874852 -0.030041276 0.023485085 0.021491945 0.027859712
0.0011124336 0.047294684 -0.042199012 0.01736701 -0.04571345 0.068388246 0.066135615 0.008286893
-0.011754346 0.026636597 -0.027699582 0.106812984 -0.005341882 0.010790647 0.020394323 -0.01555639
-0.011396828 -0.07122793 -0.027121544 0.07671152 0.08800848 0.10213793 0.029974688 -0.064303756
0.019661492 -0.008781019 0.062654525 -0.007275208 0.08050308 -0.07788152 0.09979454 -0.020631872
0.012621179 -0.017508835 -0.033044185 0.014607508 -0.02570558 -0.07559765 -0.012786418 -0.03911534
0.05642634 0.09058935 -0.01988323 0.021790804 -0.04274979 0.011029031 0.033579264 -0.0066396524
-0.06379545 0.0019230308 0.030486234 -0.04028113 0.05309603 0.005249843 -0.021919368 -0.0035753697
-0.027147263 -0.002556631 -0.044199202 0.06416572 -0.017048644 -0.080495 0.01236701 0.04095086
0.03290161 -0.04152426 -0.032795914 -0.060682666 0.011861208 0.105380505 0.0009330683 -0.018804312
0.046898533 -0.068294175 -0.04936341 6.207979e-05 0.0863836 -0.048297428 -0.064841434 0.025888631
-0.02316077 -0.047618482 0.02093583 -0.02558763 0.037240874 -0.019716026 0.078317955 0.051399626
-0.055648986 0.09827961 0.025825616 0.045074817 -0.060365777 0.041208874 0.03878192 0.014358061
-0.043846518 0.012238645 -0.017272465 -0.050053537 -0.05767141 6.856893e-05 0.0156381 0.01321048
-0.031824872 -0.09638414 -0.07427603 -0.019768761 0.022445753 0.04912626 -0.0189916 -0.07368829
-0.0036007212 -0.027462332 -0.008242412 -0.11625555 -0.037876308 -0.04344859 0.13310818 -0.017499752
-0.08085392 -0.019107366 -0.032544192 0.15187244 0.011548379 0.013256428 -0.043340813 -0.11049859
0.0007569294 0.121302724 -0.0033762853 -0.018545289 -0.028173363 0.070570916 -0.04073389 -0.09067915
-0.11494312 0.018755574 0.03396392 -0.02077964 0.090232655 -0.05373313 -0.097423546 0.082114846
-0.023487361 -0.029622652 -0.010982892 0.004723009 0.047343478 0.06961298 -0.013708924 0.004576224
0.023716316 -0.02471548 -0.09215798 -0.0006408263 0.060800586 -0.005897726 -0.055228073 -0.051934563
0.04733558 -0.040901776 -0.05389828 0.045253955 0.013051668 0.028051488 -0.033284716 0.022496091
0.0002809749 0.098321415 -0.08025873 0.02153158 0.080571234 -0.010129924 0.049958337 -0.03372903
0.029791182 0.03219594 0.0108345635 -0.005658551 0.055683 0.0059999507 -0.012311547 0.05729904
0.025003474 0.050408695 -0.059610486 -0.044111375 0.03027768 0.022872541 0.022115279 0.0015159575
0.06988712 0.010516921 -0.007268594 -0.03598282 -0.023572922 -0.032293435 0.004263844 -0.00581526
0.046521056 0.043707225 0.064952716 -0.065527454 0.043693654 -0.008546377 -0.02722586 7.561097e-05
0.04133298 0.018930696 0.06703079 0.032759793 0.041281994 -0.061276913 0.027753513 -0.041728023
-0.07787965 -0.04961675 -0.020931872 -0.0353447 0.06962497 -0.06646536 -0.077990174 -0.052187603
0.015881186 -0.017090589 0.04561721 0.010733783 -0.045466356 -0.012058226 0.05342358 0.009407472
00000000: d020 c1bc b053 713d e791 9ebd c3ae b3bd
00000010: 87c0 c7bb f43d 22bd ba35 99bd f0de 26bb
00000020: f586 243d 8017 a3bd d708 a73d 14c6 efbd
00000030: ee7b 4dbc 4eec c43d db35 a1bc a0c0 893c
00000040: f84d c53d cb2a 84bc d979 06bd a2e9 153b
00000050: 1f19 f6bc cb63 c03c e00f b03c 0d3a e43c
00000060: 14cf 913a 12b8 413d dfd8 2cbd 4245 8e3c
00000070: 073e 3bbd 230f 8c3d 1c72 873d c0c5 073c
00000080: 4d95 40bc fe34 da3c 3cea e2bc c4c0 da3d
00000090: f40a afbb 41cb 303c ff11 a73c 3be0 7ebc
000000a0: c3b9 3abc f3df 91bd 002e debc ee1a 9d3d
000000b0: ca3d b43d b12d d13d 7a8d f53c b0b1 83bd
000000c0: 2311 a13c 43de 0fbc 0451 803d de64 eebb
000000d0: ccde a43d 5980 9fbd 1461 cc3d 2c04 a9bc
000000e0: 10c9 4e3c b06e 8fbc 5759 07bd 5454 6f3c
000000f0: 8294 d2bc f1d2 9abd 207e 51bc 6837 20bd
00000100: 4e1f 673d e986 b93d 28e2 a2bc a182 b23c
00000110: 671a 2fbd 1cb3 343c 698a 093d 7191 d9bb
00000120: 30a7 82bd 350e fc3a 44be f93c d3fd 24bd
00000130: 397b 593d e006 ac3b 3f90 b3bc c050 6abb
00000140: f063 debc 278d 27bb 390a 35bd 5169 833d
00000150: 99a9 8bbc 90da a4bd 009f 4a3c 17bc 273d
00000160: d7c3 063d 5815 2abd 0255 06bd 638e 78bd
00000170: 8355 423c bcd1 d73d 2799 743a 800b 9abc
00000180: ad18 403d d1dd 8bbd 4931 4abd d530 8238
00000190: e3e9 b03d 86d3 45bd 96cb 84bd 6514 d43c
000001a0: a8bb bdbc 990b 43bd 9e81 ab3c 269d d1bc
000001b0: e389 183d 8183 a1bc 2a65 a03d 6a88 523d
000001c0: 31f0 63bd d246 c93d 3e90 d33c 5fa0 383d
000001d0: 1b42 77bd a3ca 283d cad9 1e3d 133e 6b3c
000001e0: 6898 33bd 9984 483c fc7e 8dbc f004 4dbd
000001f0: db38 6cbd aacc 8f38 791b 803c c570 583c
00000200: cc5a 02bd 0c65 c5bd 081e 98bd 19f2 a1bc
00000210: 28e0 b73c 9e38 493d 4694 9bbc e3e9 96bd
00000220: 14fa 6bbb aff8 e0bc 2e0b 07bc 6417 eebd
00000230: 3024 1bbd 26f7 31bd 834d 083e a45b 8fbc
00000240: bd96 a5bd 0d87 9cbc 0f4d 05bd 7384 1b3e
00000250: 6a35 3d3c 7d31 593c 2386 31bd 164d e2bd
00000260: ac6c 463a 906d f83d ab44 5dbb 4aec 97bc
00000270: d3cb e6bc 7c87 903d 94d8 26bd fdb5 b9bd
00000280: 4c67 ebbd 4aa5 993c c01d 0b3d 103a aabc
00000290: e6cb b83d 4517 5cbd ff85 c7bd d42b a83d
000002a0: 9168 c0bc 34ab f2bc 96f1 33bc 79c3 9a3b
000002b0: 3ceb 413d 4091 8e3d 659b 60bc 26f4 953b
000002c0: b848 c23c 1e78 cabc 53bd bcbd 20fd 27ba
000002d0: 090a 793d b641 c1bb d536 62bd 56b9 54bd
000002e0: f4e2 413d 9f88 27bd 71c4 5cbd 365c 393d
000002f0: aad6 553c 3ccc e53c 8e55 08bd b949 b83c
00000300: d04f 9339 bd5c c93d b05e a4bd ff62 b03c
00000310: 8802 a53d fbf7 25bc 1da1 4c3d 7427 0abd
00000320: a30c f43c e4df 033d 7483 313c 5e6b b9bb
00000330: db13 643d 3c9b c43b 5fb6 49bc 66b2 6a3d
00000340: 16d4 cc3c 5979 4e3d 202a 74bd 21ae 34bd
00000350: e608 f83c 325f bb3c 1a2b b53c 18b3 c63a
00000360: fa20 8f3d 2a4f 2c3c 632d eebb b962 13bd
00000370: 001c c1bc 1f46 04bd b7b7 8b3b f08d bebb
00000380: dd8c 3e3d 5906 333d ee05 853d 4233 86bd
00000390: 1ef8 323d 1a06 0cbc c408 dfbc 5591 9e38
000003a0: c54c 293d 8c14 9b3c 7047 893d 222f 063d
000003b0: 4f17 293d 80fd 7abd 565b e33c 01eb 2abd
000003c0: 5e7f 9fbd ef3a 4bbd 5179 abbc 9bc5 10bd
000003d0: 8997 8e3d fe1e 88bd 50b9 9fbd abc2 55bd
000003e0: 4319 823c 9001 8cbc 1dd9 3a3d c0dc 2f3c
000003f0: ee3a 3abd de8f 45bc afd2 5a3d cc21 1a3c

critic.network_body.linear_encoder.seq_layers.0.bias f4 [128]
0.0 0.0 0.0 0.0 0.0 0.0 0.0 0.0
0.0 0.0 0.0 0.0 0.0 0.0 0.0 0.0
0.0 0.0 0.0 0.0 0.0 0.0 0.0 0.0
0.0 0.0 0.0 0.0 0.0 0.0 0.0 0.0
0.0 0.0 0.0 0.0 0.0 0.0 0.0 0.0
0.0 0.0 0.0 0.0 0.0 0.0 0.0 0.0
0.0 0.0 0.0 0.0 0.0 0.0 0.0 0.0
0.0 0.0 0.0 0.0 0.0 0.0 0.0 0.0
0.0 0.0 0.0 0.0 0.0 0.0 0.0 0.0
0.0 0.0 0.0 0.0 0.0 0.0 0.0 0.0
0.0 0.0 0.0 0.0 0.0 0.0 0.0 0.0
0.0 0.0 0.0 0.0 0.0 0.0 0.0 0.0
0.0 0.0 0.0 0.0 0.0 0.0 0.0 0.0
0.0 0.0 0.0 0.0 0.0 0.0 0.0 0.0
0.0 0.0 0.0 0.0 0.0 0.0 0.0 0.0
0.0 0.0 0.0 0.0 0.0 0.0 0.0 0.0
00000000: 0000 0000 0000 0000 0000 0000 0000 0000
00000010: 0000 0000 0000 0000 0000 0000 0000 0000
00000020: 0000 0000 0000 0000 0000 0000 0000 0000
00000030: 0000 0000 0000 0000 0000 0000 0000 0000
00000040: 0000 0000 0000 0000 0000 0000 0000 0000
00000050: 0000 0000 0000 0000 0000 0000 0000 0000
00000060: 0000 0000 0000 0000 0000 0000 0000 0000
00000070: 0000 0000 0000 0000 0000 0000 0000 0000
00000080: 0000 0000 0000 0000 0000 0000 0000 0000
00000090: 0000 0000 0000 0000 0000 0000 0000 0000
000000a0: 0000 0000 0000 0000 0000 0000 0000 0000
000000b0: 0000 0000 0000 0000 0000 0000 0000 0000
000000c0: 0000 0000 0000 0000 0000 0000 0000 0000
000000d0: 0000 0000 0000 0000 0000 0000 0000 0000
000000e0: 0000 0000 0000 0000 0000 0000 0000 0000
000000f0: 0000 0000 0000 0000 0000 0000 0000 0000
00000100: 0000 0000 0000 0000 0000 0000 0000 0000
00000110: 0000 0000 0000 0000 0000 0000 0000 0000
00000120: 0000 0000 0000 0000 0000 0000 0000 0000
00000130: 0000 0000 0000 0000 0000 0000 0000 0000
00000140: 0000 0000 0000 0000 0000 0000 0000 0000
00000150: 0000 0000 0000 0000 0000 0000 0000 0000
00000160: 0000 0000 0000 0000 0000 0000 0000 0000
00000170: 0000 0000 0000 0000 0000 0000 0000 0000
00000180: 0000 0000 0000 0000 0000 0000 0000 0000
00000190: 0000 0000 0000 0000 0000 0000 0000 0000
000001a0: 0000 0000 0000 0000 0000 0000 0000 0000
000001b0: 0000 0000 0000 0000 0000 0000 0000 0000
000001c0: 0000 0000 0000 0000 0000 0000 0000 0000
000001d0: 0000 0000 0000 0000 0000 0000 0000 0000
000001e0: 0000 0000 0000 0000 0000 0000 0000 0000
000001f0: 0000 0000 0000 0000 0000 0000 0000 0000

critic.network_body.linear_encoder.seq_layers.2.weight f4 [128, 128]
0.056162886 -0.09144091 0.019338189 0.10432495 0.08657817 0.17890182 0.04304343 -0.058045615
-0.07612453 0.02716971 0.027326822 -0.017217677 0.10681079 0.10927939 -0.17615986 -0.096254826
0.048894595 0.045682374 0.046158418 -0.0017300362 0.15338841 -0.03364532 -0.035936236 0.0026596487
0.11166191 -0.13764782 -0.15049434 -0.018994296 -0.069993295 0.024757931 0.047122896 -0.14536849
0.08771929 -0.013090183 0.011158574 -0.056822248 0.008306607 0.008294691 0.041358445 0.06851265
0.09996495 -0.086909615 -0.05186566 -0.13549142 0.1316099 0.1006622 0.029595029 -0.072966464
-0.059937652 0.003927881 0.06797966 0.113171674 0.094369166 -0.04306721 -0.017479202 -0.016029354
-0.20688426 -0.08093795 0.055872433 -0.05820441 -0.01404537 -0.17197275 -0.096403085 0.11219529
0.087479316 0.04694717 -0.016952157 0.114317775 -0.075619556 0.23831442 0.09089955 0.107967265
-0.1671203 0.038765997 0.19626962 -0.023552941 0.04525258 -0.014842277 -0.04916959 -0.08371792
-0.07827313 0.1672523 0.065783076 -0.0063368706 -0.06356507 0.10871176 -0.016416248 -0.0137369605
-0.033537194 -0.10669177 0.24226761 0.014694649 -0.027965056 -0.11457547 -0.12932304 0.029160682
-0.15750203 0.0741084 -0.02443442 -0.053142954 0.01763969 -0.037948154 -0.02328288 -0.09615764
-0.0021960123 0.03201969 0.045441892 0.07320093 -0.09451639 -0.056844614 0.04891399 0.085015714
0.049313586 0.014705176 -0.17220064 -0.04573952 0.10178946 -0.037533917 0.058744345 0.038757935
0.010899175 -0.025421971 0.04621858 0.12706025 0.0111105675 -0.042215288 -0.05197366 -0.046521142
-0.041908678 0.0020199034 -0.18975489 0.02802714 0.13294291 -0.025096137 0.157366 0.035577618
0.010995323 0.051998593 0.08961293 -0.025840595 -0.061557375 -0.0047830762 -0.0011047744 0.11801169
-0.07202245 -0.07856372 -0.020533657 -0.06334563 -0.022105461 0.079092436 -0.027084861 0.08510839
-0.05267581 0.08128196 -0.15162572 0.07282158 -0.072470464 0.030946782 -0.03792051 0.035266235
-0.03224104 -0.0757626 -0.08069548 -0.046720188 -0.1793054 0.020029314 -0.0348837 0.052807085
0.23578453 0.0702515 -0.053225752 -0.05166164 -0.063486055 9.852049e-05 -0.007982995 -0.1523991
-0.05231043 0.011545498 0.009729216 0.049682137 0.07337957 -0.07404354 -0.05313442 0.14633547
-0.14788458 0.19168162 0.12597132 0.006443823 -0.054472152 0.10138955 -0.013892654 0.0033337357
0.08334837 -0.021830471 -0.069769606 0.019173086 0.07613083 -0.009353353 0.0018039943 -0.06575921
0.038537703 0.09071395 -0.0406155 0.12934792 0.051939577 -0.026085168 0.061719626 -0.013478287
0.052542537 0.06808443 0.042479865 0.03172285 -0.04674973 0.03298982 0.009941359 -0.087483995
-0.11305949 -0.0711384 0.16424479 -0.13351849 0.04715083 -0.02973152 -0.12752336 0.0015879465
-0.010960731 -0.10510594 0.04543246 0.07946179 -0.09399824 0.011087654 -0.09535097 0.09414522
0.102841124 -0.13233368 0.019398198 0.08310955 -0.033333853 -0.08443486 0.026458764 0.013348768
-0.013803395 -0.021251163 -0.015998868 -0.012499209 -0.009041442 0.095366895 -0.10714906 0.0402431
0.056512315 -0.06361411 0.035977915 0.035453342 -0.0876099 0.11733207 -0.03883653 -0.015791012
00000000: 0e0b 663d 5f45 bbbd 1f6b 9e3c 52a8 d53d
00000010: e54f b13d 0a32 373e 4f4e 303d 3dc1 6dbd
00000020: 2de7 9bbd 0393 de3c 80dc df3c 160c 8dbc
00000030: 9ebf da3d dfcd df3d 4063 34be 4021 c5bd
00000040: b345 483d 711d 3b3d 9c10 3d3d 62c2 e2ba
00000050: da11 1d3e adcf 09bd e031 13bd 804d 2e3b
00000060: 00af e43d 8df3 0cbe 301b 1abe ed99 9bbc
00000070: a558 8fbd 25d1 ca3c f003 413d 7adb 14be
00000080: 2ca6 b33d 3578 56bc 74d2 363c 72be 68bd
00000090: 6f18 083c 75e6 073c 7967 293d 5c50 8c3d
000000a0: 6cba cc3d abfd b1bd 1671 54bd 43be 0abe
000000b0: bfc4 063e fc27 ce3d 4671 f23c 716f 95bd
000000c0: 2f81 75bd 74b5 803b ec38 8b3d 8dc6 e73d
000000d0: 9f44 c13d 3e67 30bd 8b30 8fbc fe4f 83bc
000000e0: 78d9 53be ccc2 a5bd 7eda 643d bf67 6ebd
000000f0: 8d1e 66bc a019 30be fb6e c5bd a5c6 e53d
00000100: 5b28 b33d ad4b 403d 40df 8abc 701f ea3d
00000110: 6dde 9abd b208 743e 8b29 ba3d f11d dd3d
00000120: 9521 2bbe 18c9 1e3d e7fa 483e 19f2 c0bc
00000130: c55a 393d 062d 73bc 0d66 49bd 4d74 abbd
00000140: aa4d a0bd 3044 2b3e 47b9 863d 86a5 cfbb
00000150: 672e 82bd 45a4 de3d 5e7b 86bc fd10 61bc
00000160: 4c5e 09bd 3781 dabd 0015 783e d3c1 703c
00000170: f916 e5bc 8ba6 eabd 426d 04be 62e2 ee3c
00000180: 3648 21be 25c6 973d b12a c8bc 6dac 59bd
00000190: 1c81 903c 866f 1bbd bdbb bebc 4cee c4bd
000001a0: f9ea 0fbb 1427 033d 4721 3a3d 5fea 953d
000001b0: cf91 c1bd e6d5 68bd 095a 483d b81c ae3d
000001c0: 0bfd 493d fbed 703c 5d55 30be 5d59 3bbd
000001d0: fe76 d03d 2abd 19bd e99d 703d a4c0 1e3d
000001e0: 7492 323c bd41 d0bc b24f 3d3d 151c 023e
000001f0: 1909 363c f0e9 2cbd 55e2 54bd f48c 3ebd
00000200: 6fa8 2bbd 5b60 043b 1b4f 42be 2c99 e53c
00000210: 3022 083e 6a96 cdbc 8d24 213e d6b9 113d
00000220: ba25 343c 7afc 543d fc86 b73d a8af d3bc
00000230: 9623 7cbd 5abb 9cbb 14ce 90ba 1db0 f13d
00000240: 8280 93bd 04e6 a0bd 3336 a8bc 5bbb 81bd
00000250: 8316 b5bc 37fb a13d 12e1 ddbc 4f4d ae3d
00000260: 97c2 57bd 2877 a63d c643 1bbe 7b23 953d
00000270: 656b 94bd 1b84 fd3c 8952 1bbd 5473 103d
00000280: 2e0f 04bd 6c29 9bbd ac43 a5bd ab5d 3fbd
00000290: d69b 37be 8414 a43c 36e2 0ebd 3e4c 583d
000002a0: 8071 713e 05e0 8f3d 3f03 5abd 289b 53bd
000002b0: fa04 82bd c99c ce38 1ccb 02bc 820e 1cbe
000002c0: 7643 56bd 5429 3d3c 4a67 1f3c 7f7f 4b3d
000002d0: 0748 963d 24a4 97bd 7aa3 59bd f7d8 153e
000002e0: 0e6f 17be 3048 443e a0fe 003e b526 d33b
000002f0: 311e 5fbd 53a5 cf3d 049e 63bc ce7a 5a3b
00000300: 8db2 aa3d d1d5 b2bc 5ee3 8ebd e010 9d3c
00000310: 7bea 9b3d ce3e 19bc 0174 ec3a c4ac 86bd
00000320: b6d9 1d3d 3cc8 b93d 705c 26bd c873 043e
00000330: 98be 543d 90b0 d5bc b8cd 7c3d 08d4 5cbc
00000340: d836 573d da6f 8b3d 5eff 2d3d d2ef 013d
00000350: a57c 3fbd 5520 073d 15e1 223c cf2a b3bd
00000360: bc8b e7bd 02b1 91bd c92f 283e 12b9 08be
00000370: 3b21 413d 848f f3bc 7c95 02be a522 d03a
00000380: a394 33bc c841 d7bd 6317 3a3d ddbc a23d
00000390: 2682 c0bd fea8 353c 5f47 c3bd 36cf c03d
000003a0: 5e9e d23d 7b82 07be f8e8 9e3c 5735 aa3d
000003b0: 1489 08bd 2fec acbd 0dc0 d83c cbb4 5a3c
000003c0: a327 62bc eb16 aebc 0f10 83bc 7bc9 4cbc
000003d0: 8e22 14bc b84f c33d f770 dbbd f3d5 243d
000003e0: 7579 673d 1d48 82bd 945d 133d 8637 113d
000003f0: d26c b3bd cc4b f03d 0e13 1fbd 275c 81bc

critic.network_body.linear_encoder.seq_layers.2.bias f4 [128]
0.0 0.0 0.0 0.0 0.0 0.0 0.0 0.0
0.0 0.0 0.0 0.0 0.0 0.0 0.0 0.0
0.0 0.0 0.0 0.0 0.0 0.0 0.0 0.0
0.0 0.0 0.0 0.0 0.0 0.0 0.0 0.0
0.0 0.0 0.0 0.0 0.0 0.0 0.0 0.0
0.0 0.0 0.0 0.0 0.0 0.0 0.0 0.0
0.0 0.0 0.0 0.0 0.0 0.0 0.0 0.0
0.0 0.0 0.0 0.0 0.0 0.0 0.0 0.0
0.0 0.0 0.0 0.0 0.0 0.0 0.0 0.0
0.0 0.0 0.0 0.0 0.0 0.0 0.0 0.0
0.0 0.0 0.0 0.0 0.0 0.0 0.0 0.0
0.0 0.0 0.0 0.0 0.0 0.0 0.0 0.0
0.0 0.0 0.0 0.0 0.0 0.0 0.0 0.0
0.0 0.0 0.0 0.0 0.0 0.0 0.0 0.0
0.0 0.0 0.0 0.0 0.0 0.0 0.0 0.0
0.0 0.0 0.0 0.0 0.0 0.0 0.0 0.0
00000000: 0000 0000 0000 0000 0000 0000 0000 0000
00000010: 0000 0000 0000 0000 0000 0000 0000 0000
00000020: 0000 0000 0000 0000 0000 0000 0000 0000
00000030: 0000 0000 0000 0000 0000 0000 0000 0000
00000040: 0000 0000 0000 0000 0000 0000 0000 0000
00000050: 0000 0000 0000 0000 0000 0000 0000 0000
00000060: 0000 0000 0000 0000 0000 0000 0000 0000
00000070: 0000 0000 0000 0000 0000 0000 0000 0000
00000080: 0000 0000 0000 0000 0000 0000 0000 0000
00000090: 0000 0000 0000 0000 0000 0000 0000 0000
000000a0: 0000 0000 0000 0000 0000 0000 0000 0000
000000b0: 0000 0000 0000 0000 0000 0000 0000 0000
000000c0: 0000 0000 0000 0000 0000 0000 0000 0000
000000d0: 0000 0000 0000 0000 0000 0000 0000 0000
000000e0: 0000 0000 0000 0000 0000 0000 0000 0000
000000f0: 0000 0000 0000 0000 0000 0000 0000 0000
00000100: 0000 0000 0000 0000 0000 0000 0000 0000
00000110: 0000 0000 0000 0000 0000 0000 0000 0000
00000120: 0000 0000 0000 0000 0000 0000 0000 0000
00000130: 0000 0000 0000 0000 0000 0000 0000 0000
00000140: 0000 0000 0000 0000 0000 0000 0000 0000
00000150: 0000 0000 0000 0000 0000 0000 0000 0000
00000160: 0000 0000 0000 0000 0000 0000 0000 0000
00000170: 0000 0000 0000 0000 0000 0000 0000 0000
00000180: 0000 0000 0000 0000 0000 0000 0000 0000
00000190: 0000 0000 0000 0000 0000 0000 0000 0000
000001a0: 0000 0000 0000 0000 0000 0000 0000 0000
000001b0: 0000 0000 0000 0000 0000 0000 0000 0000
000001c0: 0000 0000 0000 0000 0000 0000 0000 0000
000001d0: 0000 0000 0000 0000 0000 0000 0000 0000
000001e0: 0000 0000 0000 0000 0000 0000 0000 0000
000001f0: 0000 0000 0000 0000 0000 0000 0000 0000

critic.value_heads.value_heads.extrinsic.weight f4 [1, 128]
0.03340429 -0.042865664 -0.030196443 0.20487875 0.06177047 -0.05794461 0.06775805 -0.07126209
0.16096777 0.11974871 0.072800785 0.13692188 -0.0071428567 -0.0976789 0.026188582 0.045294076
0.06233406 0.1657958 -0.019864708 0.14506793 -0.13562156 0.02061817 -0.12158048 0.18073037
-0.18922722 -0.0425888 0.013100237 -0.11485011 -0.16019578 0.18211952 -0.05002643 -0.19778925
-0.072727054 -0.08570516 0.19029003 -0.15252927 0.1936087 -0.13463199 -0.06973153 0.08358261
-0.036569342 -0.0465436 0.004017025 -0.15268877 0.08069593 -0.072263926 0.08094117 -0.104964845
0.06883317 0.09077805 0.17938596 0.20988217 -0.1410223 0.028637141 -0.106342636 0.20228472
-0.10479139 0.15658528 0.03740102 -0.05976945 0.098266095 0.119868696 0.05043927 -0.031618133
-0.19901831 -0.007770598 0.037197113 0.21542716 -0.17119695 -0.020321503 -0.12017559 -0.027481407
-0.14618728 0.10336077 -0.10515738 0.20008883 -0.03609833 0.088448584 0.15034828 -0.04707861
0.0064002424 -0.03837481 0.12694657 -0.12699266 0.21452796 -0.031603813 0.051811904 0.015355006
-0.05365248 -0.06121637 0.058538586 0.16750252 -0.20396218 0.02808012 0.2128911 -0.048779607
0.14681056 -0.051214904 0.03025277 0.13472688 -0.15743648 0.19713914 0.0384337 0.022466362
0.1747342 -0.031026617 -0.1109725 0.022688285 0.18850061 -0.056873366 -0.09350051 -0.19116373
0.1153273 -0.16938548 -0.032330215 0.09548119 -0.068656296 0.039784104 -0.16566 0.21495026
-0.10549209 0.05284214 -0.16585508 0.03493738 0.106785715 0.06186402 0.1409415 -0.060866803
00000000: f0d2 083d e893 2fbd 885e f7bc bccb 513e
00000010: 0803 7d3d 5457 6dbd bcc4 8a3d dcf1 91bd
00000020: bcd4 243e d03e f53d 9418 953d 4035 0c3e
00000030: a00e eabb e00b c8bd 7089 d63c 4886 393d
00000040: 0052 7f3d 60c6 293e 50bb a2bc b08c 143e
00000050: 61e0 0abe 70e7 a83c 30ff f8bd 6211 393e
00000060: c8c4 41be 9871 2ebd 60a2 563c 8936 ebbd
00000070: 5d0a 24be 8a7d 3a3e 84e8 4cbd 4489 4abe
00000080: ecf1 94bd 3086 afbd 64db 423e a230 1cbe
00000090: 5c41 463e f8dc 09be 68cf 8ebd 5c2d ab3d
000000a0: bcc9 15bd 80a4 3ebd 40a1 833b 725a 1cbe
000000b0: e843 a53d 1cff 93bd 7cc4 a53d cff7 d6bd
000000c0: 68f8 8c3d d8e9 b93d f4b0 373e 5aeb 563e
000000d0: 2668 10be 7098 ea3c 2bca d9bd ba23 4f3e
000000e0: de9c d6bd e457 203e d031 193d d0d0 74bd
000000f0: bc3f c93d b87d f53d 6899 4e3d 0482 01bd
00000100: 75cb 4bbe 80a0 febb 005c 183d f098 5c3e
00000110: 414e 2fbe 4879 a6bc 9f1e f6bd b020 e1bc
00000120: 1eb2 15be d0ae d33d c15c d7bd 16e4 4c3e
00000130: d8db 13bd 8824 b53d e6f4 193e 80d5 40bd
00000140: 20b9 d13b e82e 1dbd 48fe 013e 5d0a 02be
00000150: 38ad 5b3e 0073 01bd b838 543d 9093 7b3c
00000160: b4c2 5bbd 04be 7abd 28c6 6f3d c885 2b3e
00000170: 76db 50be 4808 e63c 2000 5a3e 20cd 47bd
00000180: 8255 163e b8c6 51bd a8d4 f73c d8f5 093e
00000190: 0737 21be d8de 493e a86c 1d3d 600b b83c
000001a0: 86ed 323e 882b febc 8d45 e3bd c8dc b93c
000001b0: 4e06 413e 0cf4 68bd 327d bfbd 6dc0 43be
000001c0: b830 ec3d 6373 2dbe b06c 04bd a48b c33d
000001d0: ac9b 8cbd a8f4 223d c6a2 29be ec1b 5c3e
000001e0: 3d0c d8bd 0071 583d ead5 29be 801a 0f3d
000001f0: 78b2 da3d 2065 7d3d f852 103e 784f 79bd
