Assets/results/Run06/Robot Path Finder/Robot Path Finder-56317.onnx (onnx, 280587 bytes, 6 tensors)

distribution.branches.0.bias f4 [4]
000000 70 d5 29 bc ec ca f5 ba 92 52 c9 3a a2 30 1a 3c
       -0.010365829 -0.0018752492 0.0015359691 0.009411009

distribution.branches.0.weight f4 [4, 128]
000000 6b 3d fa ba e2 56 dc 3b b3 62 28 bc 25 fd 08 bb
       -0.001909179 0.0067242244 -0.010277438 -0.002090284
000010 eb 3f c8 3b cd 13 82 ba 9a e2 7a bc 8a a1 ca bc
       0.0061111352 -0.0009924114 -0.015312815 -0.024735231
000020 df 36 83 3b 4d 7b d8 3a ed 53 58 bb 05 33 61 3c
       0.004004344 0.0016516239 -0.0033009008 0.013745074
000030 f0 91 6e bc 93 56 94 3c 7c c9 46 3c 8c 8a cd bb
       -0.014561161 0.018107688 0.012132999 -0.0062726196
000040 94 7a 6b bb 40 69 be ba 94 7d 28 3c 5b 9b 6c bc
       -0.0035931217 -0.0014527217 0.010283846 -0.0144413365
000050 0e 0e bf bc 4d 76 e9 bc ff 09 c2 bb aa c1 e3 3c
       -0.023322131 -0.028498793 -0.005921602 0.027802307
000060 61 1d 98 39 91 9a 2d 3b f2 79 a2 bb 79 4b 0e ba
       0.00029013588 0.0026489834 -0.0049583847 -0.00054281164
000070 a0 1e 27 3c ce 52 4f 3b 76 78 07 bc 1b 11 24 3c
       0.010200173 0.0031635049 -0.008268466 0.010013844
000080 e7 9f 8f bc 8a b1 5f 3c 54 00 83 ba 40 95 d9 3c
       -0.017532302 0.013653168 -0.0009994605 0.026560426
000090 a5 89 04 bc d8 d3 2a bc 37 59 08 bc fc ba f0 3c
       -0.008089458 -0.010426484 -0.008322052 0.029386036
0000a0 d6 23 20 bc c3 a1 43 bc 8b 53 a8 bc a4 90 88 3c
       -0.009774169 -0.0119404225 -0.020547649 0.016670533
0000b0 14 da 78 bc 65 e2 36 bb e9 73 a7 3c 24 28 ae 3b
       -0.015188713 -0.0027905938 0.020441012 0.0053148437
0000c0 67 d6 12 3d 5c 06 2b bc 04 d3 83 3b bb f1 60 bc
       0.035849 -0.010438528 0.0040229578 -0.013729508
0000d0 d5 dc 8d 3a 61 3e b9 3b be 09 21 b8 37 46 54 bb
       0.0010823259 0.005653188 -3.8394464e-05 -0.0032390484
0000e0 9d cd 3c bc 59 53 d9 3c 58 77 bc 3c 65 a5 70 3c
       -0.011523631 0.026529001 0.023006126 0.014687871
0000f0 ef e2 4a bc f9 6f 4c 3c 5e 26 16 3c 3c b5 8f 3c
       -0.012383207 0.012477868 0.009164421 0.017542474
000100 bd 71 98 bb 07 b7 a1 bc 3a 14 d5 bc 02 10 39 bc
       -0.0046522305 -0.019740595 -0.026010621 -0.0112953205
000110 b3 a7 89 3c c8 44 1c bc 84 e1 02 bc 8d d2 84 b9
       0.016803598 -0.009537883 -0.007988337 -0.00025333875
000120 8d cd a6 bb 02 a9 b9 3c fa a8 4b 3c 6b bd a4 3c
       -0.0050904215 0.022663597 0.012430424 0.020109853
000130 df 2b 2e 3c f0 f5 8a 3b 96 59 6e ba b3 16 89 bc
       0.010630577 0.004240744 -0.0009092329 -0.016734457
000140 4a 3c c9 3b 66 20 40 3c 75 91 8b 3c 95 ab 8c bc
       0.00614122 0.011726474 0.017037133 -0.01717166
000150 3d 75 3c bc fd cb 39 bc 1f f8 ef bb 60 e7 3b 3c
       -0.011502561 -0.0113401385 -0.0073232795 0.011468738
000160 53 bc fd 3b 7b da 1e bc b1 d0 d1 bb b7 78 a8 3c
       0.0077433973 -0.0096956445 -0.006403052 0.020565374
000170 44 1b 75 b7 f2 65 0e 3c c5 76 6b bc 6f d8 88 bc
       -1.4609486e-05 0.008691298 -0.014371579 -0.016704766
000180 ce da 63 bb 2f e0 53 3c bc 6b e3 3c 0f e3 22 3c
       -0.003476787 0.0129318675 0.027761333 0.00994183
000190 fc 87 10 3c 15 a9 71 bc f5 1e f3 3b d4 4c 13 3c
       0.008821484 -0.014749785 0.007419462 0.008990485
0001a0 76 f6 76 bc 42 90 0b bc bf d0 88 3b 0a 0b 31 bc
       -0.015073409 -0.00851828 0.004175275 -0.010805855
0001b0 d5 aa 85 3c 5b 87 59 bc 4e 44 4e bc e0 d3 6b 3c
       0.01631681 -0.0132769 -0.012589527 0.014393777
0001c0 6d 95 af 3b 39 84 44 3c e4 73 e8 bc 0a b8 1a 3c
       0.005358389 0.011994415 -0.028375573 0.009443292
0001d0 6b d3 d4 3c 2c ea 96 bc d0 50 b4 3c 38 8b 1e ba
       0.025979718 -0.018422209 0.02201119 -0.0006047967
0001e0 69 f1 2f 3c a5 7d 4f 3a 12 e1 89 bc 37 dc 41 3b
       0.010738709 0.0007915146 -0.016830955 0.0029580721
0001f0 27 ee a8 3b c2 da 0c 3a 99 bd 07 3b 8b 37 22 bd
       0.005155343 0.00053731736 0.0020712374 -0.03960375
000200 b7 d0 05 bb e5 7d 3d 3c a9 47 4a bb 35 61 f3 3b
       -0.0020418593 0.01156566 -0.0030865467 0.0074273595
000210 f9 69 fa bc 08 4b 9b bc b6 75 c3 bb d5 3e 6f bc
       -0.03056811 -0.018956676 -0.00596496 -0.014602383
000220 ea 20 3c 3c 2e 16 91 bc 94 6d 47 bc 4b 47 85 bc
       0.011482457 -0.017710771 -0.012172122 -0.016269347
000230 93 b0 32 3b 1d 69 98 bc 69 8d 2e bc 08 fa 9c 3c
       0.002726589 -0.01860481 -0.010653832 0.019162193
000240 a7 a6 8b 3c 7d cc 1b 3c 94 2a eb ba 1f e1 65 ba
       0.01704724 0.009509203 -0.0017941766 -0.00087692024
000250 c6 5d 6c bc de ad e3 ba 86 9c 3e bc a1 ad db bb
       -0.014426654 -0.0017370542 -0.011633998 -0.006704048
000260 11 3e a2 3b 56 5e 22 3c 3c 52 d8 3b ad ed a2 ba
       0.0049512465 0.009910187 0.0066016 -0.0012430452
000270 6e 0c 27 bb fd a3 0a bc cc ad 06 3c f1 e0 13 bc
       -0.0025489586 -0.008461949 0.008220147 -0.009025798
000280 2c a2 70 ba a6 1a 00 3c 0a f1 df 3b ed 7e d6 bb
       -0.0009179439 0.0078188535 0.006834154 -0.0065458925
000290 37 af 76 bc 89 22 80 3b 71 29 eb ba 36 08 d6 bb
       -0.015056423 0.003910367 -0.0017941428 -0.0065317405
0002a0 f9 e3 62 3c 33 a9 50 bc e3 22 68 3b 21 56 8d bc
       0.013848298 -0.012735653 0.0035421185 -0.017252984
0002b0 0d 39 96 3b 78 30 d3 bc c6 5c 63 bb 32 7f 1b bc
       0.0045844377 -0.025779948 -0.0034692748 -0.009490775
0002c0 2c 7f bc 3c 9a 76 87 ba e3 6a 96 3c b5 22 df 3a
       0.023009859 -0.0010335029 0.018361514 0.0017023893
0002d0 5a 6b e2 bb 3d d8 94 bc ae 21 64 bb 43 58 5f 3c
       -0.00690977 -0.018169517 -0.0034810114 0.013631883
0002e0 24 22 d9 3b 94 61 ef 3a 32 32 9d 3b 52 9f 31 3c
       0.0066263843 0.0018263333 0.0047972435 0.010841208
0002f0 ec 26 11 3b a3 6b 23 3c af 92 9b 3b 89 ae bc bc
       0.0022148443 0.009974393 0.0047477107 -0.023032444
000300 a1 a4 02 bc 9c 9e 14 3c a5 42 9f bb 5e 3d a5 b9
       -0.007973821 0.009071019 -0.0048602396 -0.00031516975
000310 3d a5 b4 ba 42 87 39 bc 4a a4 81 3b fa 96 0f 3c
       -0.0013782155 -0.011323752 0.0039563524 0.008764023
000320 e6 91 93 bc cc 95 76 3c d8 02 9f bb a1 15 7e ba
       -0.018013906 0.015050363 -0.004852634 -0.0009692554
000330 47 69 5c bc 6a a0 67 3b 1c 98 d8 3a 79 c8 35 3c
       -0.013452834 0.0035343417 0.0016524824 0.01109516
000340 b1 61 38 3c 06 0f b2 bc 33 bc 6c 3c b0 24 be bb
       0.01125376 -0.02173568 0.014449167 -0.0058027133
000350 33 15 13 3b d6 f3 48 3c 97 36 5c 3b 1a b7 96 3c
       0.0022443056 0.012265166 0.0033601874 0.018397857
000360 97 18 d5 3b 9d e4 e4 3b 4f a9 52 3c 5e ea 33 3c
       0.0065031755 0.0069852606 0.012857749 0.01098117
000370 e8 b0 08 bc 43 3f 1b 3c 55 e4 5f 3c 67 05 91 bb
       -0.008342959 0.009475532 0.013665278 -0.004425693
000380 bb c2 0d bc b5 92 7c bc 52 cf 77 bc 32 37 e1 bc
       -0.008652384 -0.015415837 -0.015125113 -0.02749214
000390 87 d3 cd 3a c6 fe 05 3b d5 85 29 3c a2 fc 7e bc
       0.0015703299 0.0020446046 0.010346849 -0.015563162
0003a0 dc 0a 58 3c 74 d1 cb bb 0a 9e 76 bc 17 0e 47 bb
       0.013186183 -0.006220037 -0.015052328 -0.0030373388
0003b0 19 c4 bd bb 61 f5 41 3c 82 c7 53 3b 37 dc 06 3c
       -0.005791199 0.011838288 0.003231496 0.008231214
0003c0 e4 89 75 bc 33 9c 3a 3b 33 77 c1 3a ca c9 05 bc
       -0.014986489 0.002847445 0.0014760256 -0.008165786
0003d0 08 99 63 3a aa b5 b9 3b aa a4 02 3c 20 be af bc
       0.0008682166 0.005667408 0.007973829 -0.021452963
0003e0 a7 d2 94 3b 5b a5 f5 39 24 99 97 3b 0d b8 c4 3b
       0.0045417133 0.0004685324 0.00462641 0.006003386
0003f0 d4 df a0 bb 62 d9 8c bb f4 15 3e 3b 5e 6c 99 3b
       -0.004909495 -0.004298375 0.0029004784 0.004682108

network_body.linear_encoder.seq_layers.0.bias f4 [128]
000000 72 36 99 ba 76 4c 25 3c ee 7a e0 3a ec 44 56 bc
       -0.00116892 0.0100890305 0.001712648 -0.013077956
000010 0a aa bd 3b 06 71 29 3c e2 8d 08 bb 29 18 7e 3c
       0.0057880925 0.010341888 -0.0020836522 0.01550869
000020 19 54 7b 3c fa 14 90 3c 47 8b 52 bb 05 e9 49 3c
       0.015339875 0.017588127 -0.0032126473 0.012323623
000030 38 fd 4d 3b 79 99 3c 3c 8e 9b 46 3c 57 8e e5 3b
       0.0031431448 0.0115112 0.012122048 0.0070054936
000040 7a d3 3f bc f5 2c fb 3b 12 7e 79 3a 95 bc e1 3b
       -0.011708135 0.0076652714 0.0009517382 0.006888936
000050 88 e1 72 b9 b6 98 39 3c f5 ad 30 bc 98 cd c1 ba
       -0.00023162935 0.011327913 -0.010783662 -0.0014786003
000060 40 a8 e8 3b ac f8 ed b9 b7 2a a5 3b 59 72 55 bc
       0.007100135 -0.00045389438 0.0050404924 -0.013027751
000070 70 9e 04 3c cc da 54 3b 3c dc 82 bb 26 56 fb 3b
       0.008094415 0.0032479046 -0.003993539 0.007670182
000080 b4 c1 0f bc bf 39 fb b9 b4 21 3c bc 0a 2d 4d 3c
       -0.00877421 -0.00047917475 -0.011482645 0.012522945
000090 ba c4 38 3b 4d 17 83 3c 88 aa 21 ba db de 5a bb
       0.002819343 0.016002322 -0.0006167074 -0.0033396992
0000a0 16 c9 81 3c 64 aa f2 3b 5c 2d e8 bb 2e 6b 49 bb
       0.015842956 0.007405566 -0.0070854854 -0.003073405
0000b0 20 b4 2a 3c 5d d6 00 3c 9a 59 c4 3b 24 c3 25 3b
       0.010418922 0.007863608 0.0059921267 0.0025293315
0000c0 90 54 71 bc 8a e5 7e 3c f0 47 f0 bb 16 c0 23 b9
       -0.014729634 0.015557656 -0.0073327944 -0.00015616449
0000d0 12 9a 3c 3c 74 75 2f 3c 29 8a 53 3c 21 e3 59 3c
       0.011511343 0.010709155 0.012911358 0.013298781
0000e0 28 c2 09 3c 2a 37 ab bb 09 57 64 3c 38 0f 60 3c
       0.008408107 -0.005225082 0.013936766 0.013675503
0000f0 03 03 1e bc 93 3c 67 3c 72 47 71 3c 30 14 81 bb
       -0.009644273 0.014113563 0.014726507 -0.003939174
000100 44 ea d2 3b b8 b3 62 3b 89 c5 ad ba d9 04 1c 3c
       0.006436618 0.0034591984 -0.0013257723 0.00952264
000110 e7 b0 10 bc 54 a4 99 3c b3 03 00 3b 91 81 76 bc
       -0.008831239 0.018755116 0.0019533455 -0.0150455395
000120 7f 53 ad bb 30 42 37 3b fa 71 2c bc 47 0c 83 3c
       -0.0052894945 0.0027963035 -0.010525221 0.015997065
000130 fc d3 5d 3b 81 f0 a5 3c 20 82 92 bb 62 79 58 bc
       0.0033848276 0.020256283 -0.0044710785 -0.013212534
000140 08 98 06 bc 7c 0a b5 3c d4 b5 c4 3b 53 57 44 bc
       -0.008214958 0.022099726 0.006003121 -0.01198371
000150 43 f8 02 3c b3 bd 71 3c 67 d8 aa 3c 03 18 53 3c
       0.0079937605 0.0147547005 0.020855142 0.012884143
000160 5b 80 d8 3b 6a a9 81 ba 50 c8 0e 3c c5 b5 e3 bb
       0.006607098 -0.0009892408 0.00871475 -0.006949159
000170 37 75 05 bc bb 82 ea 3b 6f 0b 0e bc 85 5d bd 3b
       -0.008145622 0.0071566976 -0.008669718 0.0057789707
000180 d6 d1 8c 3b 86 fc 0c bc 08 e8 93 3c 60 da 50 3b
       0.0042974753 -0.008605128 0.018054977 0.0031868443
000190 b7 59 8e 3b dc e2 bd 3b 52 e0 14 bc 20 45 20 bc
       0.004344191 0.005794866 -0.009086685 -0.009782106
0001a0 03 62 45 3c 5e 0c aa 3c 63 6c de bb f5 20 eb bb
       0.012047294 0.02075785 -0.006787823 -0.0071755596
0001b0 73 2a 7b bc 2c 90 26 3a 26 e0 5a 3c 3b e7 0b 3c
       -0.015329945 0.0006353881 0.013359105 0.008539016
0001c0 ba e5 48 3a 1f f6 4a bb a0 85 41 bb df 26 35 bc
       0.00076636265 -0.0030969454 -0.002952911 -0.011056631
0001d0 6c b9 2a 3b d3 71 82 bc 0e 61 6d 3c 65 5f 03 3c
       0.0026050461 -0.015923416 0.014488472 0.008018349
0001e0 74 11 42 bc fb db 02 bc 62 83 e6 39 4e 34 e8 3b
       -0.011844981 -0.007987018 0.00043966906 0.0070863133
0001f0 32 ef ec bb dc bc 96 3c f8 30 1f 3c 02 19 17 3c
       -0.0072306627 0.018400602 0.009716265 0.009222271

network_body.linear_encoder.seq_layers.0.weight f4 [128, 410]
000000 be 60 95 bd 06 6b ad bc 9f 15 d9 3c f4 44 bc bd
       -0.07293843 -0.021169197 0.026499568 -0.09192839
000010 fd 75 17 3c c0 b7 c8 3b c7 04 0a bd 83 04 86 3d
       0.009244439 0.0061254203 -0.033695962 0.06543829
000020 d3 ea 9d bc 00 20 09 bd 15 30 50 bd 27 a2 54 3b
       -0.019277012 -0.033477783 -0.050827105 0.0032445283
000030 59 56 01 3d 9a f3 de 3c c4 2f d9 bc 38 b2 8f 3c
       0.03157649 0.027215768 -0.026512034 0.017541036
000040 8b 6f 20 bd 34 a1 b7 bc b1 8f 55 bd f0 94 a2 bb
       -0.039168876 -0.022415735 -0.052138988 -0.0049616024
000050 c4 fe 90 3a 8d 5c 52 bd 9f 84 ea 3c f9 f9 65 3d
       0.0011062254 -0.051357795 0.028627692 0.056146596
000060 e7 af 71 bd ea f2 8d 3b f3 a7 a5 3d 48 33 de bd
       -0.059005644 0.004331936 0.080886744 -0.10849625
000070 70 3c bd 3c 9c 28 5f bd 22 10 a4 bd e9 75 a9 3d
       0.023100108 -0.054482087 -0.080108896 0.08274443
000080 19 ac 72 bc 61 dc b0 bc 3d 86 ff bd d1 44 82 3d
       -0.014811539 -0.02158946 -0.12476776 0.06360782
000090 2e 08 ce bb ba 8f ab ba c4 86 fb bc 3b bc 9b 3d
       -0.006287596 -0.0013089099 -0.03070391 0.076042615
0000a0 f2 dc 84 3c 93 69 3f 3d e0 0d a6 3d b9 29 3d 3d
       0.016218636 0.046731543 0.08108115 0.046182368
0000b0 c8 54 c5 bd 6f 3e 0d ba 14 b1 81 bd e0 2d 11 bd
       -0.09635311 -0.00053880265 -0.06332603 -0.03544414
0000c0 23 97 7e bd 74 2b ad bb b1 3f 5c bd 0e 36 7a bd
       -0.062155854 -0.005284721 -0.05377168 -0.061086707
0000d0 ad 24 9d bc e6 67 f4 3c 86 f5 f5 3d 93 68 ff 3c
       -0.019182527 0.029834699 0.120097205 0.031177795
0000e0 c4 df 19 bc e0 9f 04 bd 06 1f 9e 3c 42 34 0f bd
       -0.009391729 -0.03237903 0.019301903 -0.034961946
0000f0 bd 2a 0e 3d c1 a2 75 bc 49 97 0c 3d 2b c1 0d 3d
       0.034708727 -0.014992417 0.034323964 0.034608047
000100 b8 db a4 3d 43 12 16 3b 7a c4 cd 3d 66 40 d1 3b
       0.080497205 0.0022899068 0.100472406 0.0063858507
000110 07 d7 67 bb a0 79 43 bd 4b 34 26 bd ac 4a c3 bd
       -0.003537597 -0.047723413 -0.040577214 -0.09535727
000120 06 0b 0c 3d a2 cf 85 bd 4c c8 7d 3c 5a 65 c5 3d
       0.0341902 -0.065337434 0.015489649 0.09638472
000130 d9 d3 24 3d ef a7 d4 bd 00 5c aa 3c 67 7b 13 bd
       0.040241096 -0.10383593 0.020795822 -0.036006358
000140 e1 4c cf 3b ec 53 1a 3e 54 b0 d9 3c 72 f6 d7 3d
       0.0063263034 0.15071076 0.026573338 0.105450526
000150 2c a2 5d bd 85 9c 5c 3d 7b 80 40 3c 62 c7 2f bc
       -0.054109737 0.053860206 0.011749382 -0.010728689
000160 33 e1 e0 bc e9 9d 36 bd e5 c9 9b 3c 47 5b 83 3d
       -0.027451133 -0.04458419 0.01901717 0.06413894
000170 34 bb 3d bd 0c 38 50 bd ec e8 c5 3d 54 2c 20 3d
       -0.04632111 -0.0508347 0.09663567 0.039104775
000180 59 3a fb 3d 17 f1 bf 39 27 71 0a 3d b9 14 9a 3c
       0.12266988 0.00036609985 0.033799317 0.01880871
000190 38 2a a6 bb 83 d4 83 3d b3 19 87 bc 33 12 3f bc
       -0.005070951 0.06437018 -0.016491747 -0.011662054
0001a0 d5 f1 c6 3d c4 42 59 bc 18 bd 4b 3d b4 c6 a6 bd
       0.097140945 -0.013260547 0.04974088 -0.08143368
0001b0 80 f2 17 bd 21 89 84 bd 5a f3 b7 3c dd cd 69 bd
       -0.0370965 -0.06471468 0.022454906 -0.057081092
0001c0 59 13 60 bc ef 0f d4 3d 8f 96 a4 3d b2 81 9e bd
       -0.013676488 0.103546016 0.08036529 -0.07739581
0001d0 54 e8 be 3d 2a 33 54 3d e2 31 00 bd fc 77 83 3b
       0.09321657 0.051806606 -0.031297572 0.004012106
0001e0 e0 40 73 bc 8e 1d 0e 3c 1d 4f a0 3c 01 b2 70 3d
       -0.01484701 0.008674039 0.019568974 0.058763508
0001f0 88 e3 cf bc f4 e3 a4 bc 57 4e 77 bd 1a 71 5a 3d
       -0.02537705 -0.020128228 -0.060377445 0.05333052
000200 d0 32 1b 3d ec ab b7 3c 43 13 a4 3d e9 3f 26 3b
       0.037890255 0.022420846 0.080114864 0.0025367683
000210 90 1b db bc 29 12 53 bd e3 5b 9b bd 69 2a 7a 3d
       -0.026746541 -0.05153099 -0.075858854 0.0610756
000220 10 5e c0 3d 3f 4f 0f bd 75 02 c6 3b 99 cc 42 3d
       0.09392941 -0.034987684 0.0060427734 0.0475584
000230 df 47 c6 3c 2c 84 b5 bd 1e fd 1b 3b c4 56 95 3d
       0.024204193 -0.088631004 0.0023801993 0.0729194
000240 9b 4b b6 bc 66 28 2c 3d ff 4e 88 3d a1 8b af 3d
       -0.022252848 0.042030714 0.06655692 0.08571554
000250 00 23 0d 3d 44 02 32 3d 00 7f 95 bc 6d 92 21 3d
       0.034457207 0.043459192 -0.018249035 0.039446283
000260 79 c6 33 bc f1 be 6c 3d de f5 1c bd b4 25 5c bc
       -0.010972613 0.057799283 -0.038320415 -0.0134367235
000270 a8 bb a0 bc 72 c0 58 3c b1 a2 60 3d 99 82 43 bd
       -0.019620731 0.013229476 0.054842655 -0.04773197
000280 62 7d 91 bd 8e 9a ab bc 46 8d 81 3d e2 cd a3 3c
       -0.07103993 -0.02094772 0.06325774 0.019995634
000290 bb d3 7d 3d e5 ce 52 3d 51 b9 64 3c 6c 9d 1f 3d
       0.0619695 0.05146684 0.0139601985 0.03896849
0002a0 4d 55 f8 3d d5 23 fa 3c 75 76 be 3d 01 79 fa bc
       0.12125645 0.030534664 0.09299938 -0.030575277
0002b0 5d b2 c8 bd 77 a8 36 bc 40 88 87 bc 23 a6 4f 3d
       -0.09799645 -0.011148564 -0.016544461 0.05069555
0002c0 21 12 bd bd 75 30 f1 3d ce 02 f3 b9 bb f9 8a 3d
       -0.092319734 0.117768206 -0.0004635066 0.067859136
0002d0 47 eb 4d 3b 47 af 8f bd cb 47 8e 3d f8 9c 16 3c
       0.0031420754 -0.070158534 0.06947287 0.009192698
0002e0 bf 30 87 3b 31 a3 12 3d 3b 5f 8a 3d 23 05 43 3d
       0.004125684 0.035800163 0.06756445 0.04761232
0002f0 d3 52 3b 3c 01 64 40 bc 9e f9 9d 3d b1 96 6d 3d
       0.011433321 -0.011742593 0.07713626 0.05800504
000300 ba 31 23 3c d8 4b c9 3b d4 df 57 3d a3 a2 07 3d
       0.009960586 0.0061430745 0.052703694 0.033114087
000310 c1 a2 cd 3d eb a5 7c bd 81 82 ef ba c8 67 52 bc
       0.100408085 -0.06168167 -0.0018273146 -0.012842126
000320 57 3f a5 3d 39 3c e5 bc 6f 52 ab 3b c5 fc 8b 3d
       0.08068722 -0.027982818 0.0052283327 0.06835321
000330 98 83 07 3d 67 ef 93 bd 9c 38 db 3c 3d b4 12 bb
       0.033084482 -0.07223397 0.026760392 -0.0022385262
000340 ef ab ad 3d e4 e7 e5 3d b6 34 41 bd 7a 3c c9 3c
       0.08480059 0.1122587 -0.04716941 0.02456497
000350 8b bf dd 3d cf df da 3d a7 de 56 3c a3 17 23 bd
       0.108275495 0.10687219 0.013114608 -0.039817464
000360 a8 d3 66 bc 03 15 67 3b 2a 82 00 3d 3e 02 a4 bd
       -0.014088549 0.0035260327 0.031374134 -0.0800824
000370 18 73 7d bc e7 94 df 3c 8e c6 06 bb 7d 09 28 bd
       -0.015469335 0.027292682 -0.0020565125 -0.041024674
000380 5e 60 56 bd ab bd 2b bd e7 03 a0 3d 7b 16 36 3d
       -0.052337997 -0.04192893 0.07813244 0.044455033
000390 97 74 28 3d e6 84 50 3b c8 be 94 3c 79 a9 78 3d
       0.041126814 0.0031817495 0.018157378 0.060708497
0003a0 d8 57 6c bc 86 df 6e 3c b7 66 9a 3d ac c8 fe bb
       -0.01442524 0.014579659 0.075391226 -0.007775387
0003b0 0c 38 89 bd 0f 34 c0 bc e0 f4 8e bb 2c c3 f5 3c
       -0.06700143 -0.023462323 -0.0043626875 0.030000292
0003c0 25 c0 67 3b 82 21 b1 bd 62 a8 ab 3c 56 b9 67 3d
       0.003536233 -0.08648969 0.020954315 0.056573234
0003d0 a0 99 b4 b9 ff 95 87 3c 6a 81 36 3d b2 b3 b5 bb
       -0.00034446735 0.016551016 0.044557013 -0.005545103
0003e0 39 dd d7 bc 54 cd 31 bd 2f cf 9c bb 1e 05 e9 3c
       -0.026350604 -0.043408707 -0.0047854404 0.028444823
0003f0 40 3e 52 3c ed ca 04 3d 94 be 0d 3d d1 67 15 bc
       0.012832224 0.032420088 0.034605578 -0.00911899

network_body.linear_encoder.seq_layers.2.bias f4 [128]
000000 4f ed a5 3b aa e8 04 bc 4e 63 5b 3b 22 a0 73 3c
       0.00506369 -0.008112112 0.0033475938 0.014869722
000010 e3 71 85 bb ad 73 d2 ba 3b f6 c8 ba d9 55 33 3c
       -0.0040724142 -0.0016056203 -0.0015332171 0.010945761
000020 01 e5 1f 3c 87 2d df 3b 2c 57 a5 3b ed 43 a9 3a
       0.009759189 0.006810847 0.005045792 0.001291392
000030 7e e9 61 3c 11 67 12 39 30 26 3c bb 6e fa b6 3b
       0.013788579 0.0001396204 -0.0028709285 0.0055840528
000040 d2 16 6e 3c 80 90 44 3b e4 dd 32 bb f2 95 84 3c
       0.014531808 0.0029993355 -0.0027292902 0.01618478
000050 59 29 2e 3c a9 2c 4a 3c a4 da 83 3b 8e ae 90 3b
       0.010629975 0.012339749 0.0040238667 0.00441534
000060 d1 0d a9 3b 9e a4 03 bc 4f 69 de bb f7 e3 54 bb
       0.0051591177 -0.008034853 -0.006787456 -0.003248451
000070 4a 03 3a bb 66 37 ce 3a ba 47 70 3c 53 ec a0 bb
       -0.0028383308 0.0015733063 0.014665538 -0.0049109845
000080 a2 e5 d4 3b bb 93 37 bc ec 3f 45 3c 9f 31 28 bc
       0.006497101 -0.011204655 0.012039166 -0.010265737
000090 66 68 a2 3b bd 07 54 3c c2 3d e1 3b 5c a2 2b bc
       0.004956293 0.012941298 0.006873817 -0.010475721
0000a0 3a 51 8e 3c b7 4b 51 3b 25 12 34 3c 4e 30 c9 3b
       0.017372716 0.0031935999 0.010990654 0.0061397916
0000b0 a3 1f cd 3b 7b 71 fe 3b 32 39 ea bb f6 6f 6f bb
       0.006259875 0.007764993 -0.0071479315 -0.003653524
0000c0 e1 25 02 bc 35 70 7d 3c 08 d2 a1 bb 8f 66 96 3b
       -0.007943601 0.015468647 -0.0049383678 0.0045898627
0000d0 3a 5f 26 bb ab 93 92 3b c7 0f ca 3b d0 5e 52 39
       -0.002538635 0.00447317 0.0061664316 0.00020062481
0000e0 a2 92 22 3c ab 1a 07 bc 04 35 bd bb 22 ff 08 bc
       0.009922655 -0.008246104 -0.005774142 -0.00836161
0000f0 da 52 92 3b 33 aa 04 3b 19 9e bd bb 72 1f 38 bb
       0.004465443 0.0020243048 -0.005786669 -0.0028094915
000100 06 2b 97 3b e6 cb 0f 3c ec 87 11 3c af e6 6f 3c
       0.004613283 0.0087766405 0.008882504 0.014642402
000110 da f7 1c bc b5 33 a0 3b 93 8d 2f 3c 53 86 f3 bb
       -0.009580577 0.0048889765 0.010714906 -0.007431784
000120 c6 b9 df 3b 21 56 3f bc 6a 61 d4 bb c4 92 4b 3b
       0.006827566 -0.01167825 -0.006481339 0.003106282
000130 0a 1a a3 3a dc 24 ee 3b 18 fd 1e bc 8e ef 56 3c
       0.0012443673 0.0072675776 -0.009703897 0.013118638
000140 72 a9 2a 3c 2b 62 3b 3b 04 81 2a bc fd 0d 5e 3b
       0.0104163755 0.0028592448 -0.010406736 0.003388285
000150 38 78 d4 ba 06 15 27 3c 81 ba 10 3c f6 27 92 bb
       -0.0016210144 0.0101978835 0.0088335285 -0.00446033
000160 55 20 02 bc db 94 6c 3c fb 58 d5 ba 4d df cd bb
       -0.007942279 0.014439787 -0.0016277129 -0.006282723
000170 98 32 ff bb a8 55 0b bc fa 42 9a 3c 22 7e a6 ba
       -0.0077880137 -0.008504309 0.018830765 -0.0012702385
000180 cb fc 6e bb f9 dc a4 3a eb 2f 6e bb 8b 04 8a 3b
       -0.0036466594 0.0012578062 -0.003634448 0.0042119673
000190 3b cf 04 bc 35 30 02 3c 1d e2 9a bb 2a 61 05 bc
       -0.008106048 0.007946064 -0.004726662 -0.0081408415
0001a0 1a 45 2f 3c 84 4d 19 3c 2b d0 af bb c9 7f 4b 3c
       0.010697627 0.00935686 -0.0053653917 0.012420603
0001b0 80 a6 35 ba c5 9d 74 3c e7 f7 3f 3c 31 db 2b bb
       -0.00069294125 0.014930193 0.011716819 -0.0026223178
0001c0 8b b6 bc bb 0a b4 b6 bb 97 ed 0f 3c e6 58 62 ba
       -0.0057590655 -0.0055756615 0.008784673 -0.0008634463
0001d0 f5 85 20 bc 34 9c d0 3b a0 1a e6 bb 9e 94 34 3b
       -0.009797563 0.006366277 -0.007022217 0.0027554403
0001e0 b3 09 6a 3b d2 d0 d0 39 08 29 74 3c 37 24 2c 3c
       0.0035711348 0.00039828435 0.014902361 0.010506681
0001f0 da 9c 1e bb d1 33 6e 3b 12 88 0a bb c2 ba 64 3c
       -0.0024202378 0.0036346803 -0.0021138233 0.013960542

network_body.linear_encoder.seq_layers.2.weight f4 [128, 128]
000000 a7 f0 a4 3c fe 1b 99 3d ca c2 92 bd 61 b4 ac bc
       0.020134283 0.07476042 -0.07166059 -0.021082105
000010 c0 a6 e2 bd 35 5a dc bc 14 2e b8 bc d2 da f0 3d
       -0.11066961 -0.026898483 -0.02248291 0.11760487
000020 8b 88 10 3d 0a d3 92 bd eb 73 44 bd 25 04 10 3b
       0.035286468 -0.07169159 -0.04796211 0.0021975127
000030 1c 61 85 bc b3 67 b0 3b 08 0b 74 bd 0c fb 82 bc
       -0.016281657 0.0053834557 -0.059580833 -0.01598885
000040 1e 09 92 3d 7d 74 82 3d ee 6e 32 be 4e b7 2a 3d
       0.07130645 0.063698746 -0.17425129 0.04167872
000050 54 4e 0a 3d 21 f6 34 3c 07 c0 44 3e 4a 05 ac bd
       0.033766106 0.01104501 0.19213878 -0.08399446
000060 cb 33 28 bc 69 c9 18 be 44 12 2f 3d 13 6e 92 bc
       -0.010266255 -0.14920582 0.04274203 -0.017874753
000070 f4 9c 44 be 90 9a 23 be 6a 0e 01 3c 1f 97 f7 bd
       -0.19200498 -0.1597693 0.007876972 -0.12089371
000080 a5 df 69 bc 0d 0a a1 3c 0c 65 34 bd af 62 44 bd
       -0.014274512 0.019658113 -0.04404168 -0.047945675
000090 09 ae 3d 3e 05 05 07 be fa 9b a9 3c 50 6b 11 3d
       0.1852342 -0.13185509 0.020704258 0.03550273
0000a0 35 b4 37 bd 28 60 27 3d f2 3c 16 be e2 3c 70 bc
       -0.044849593 0.040863186 -0.14671686 -0.014662953
0000b0 72 60 22 bd 28 79 76 bd 8a 98 59 bd 97 4c ce 3c
       -0.03964276 -0.060174137 -0.05312399 0.025183005
0000c0 9e 03 87 bd 7b ea a0 3d 97 21 f6 bd e7 94 c7 3d
       -0.06592487 0.078572236 -0.120181255 0.09745198
0000d0 ef 67 32 bd 62 33 b7 bd e3 f9 2e 3e 8e 14 8a 3c
       -0.04355615 -0.08945347 0.17087512 0.016855504
0000e0 71 b7 db 3d dd 21 7e 3c 09 a4 8e bd f4 ba 3e bd
       0.10728348 0.015511003 -0.06964881 -0.04656501
0000f0 f2 4c 65 bd b7 a3 31 3c 26 82 ac 3b 7b 83 88 3b
       -0.055981584 0.010842255 0.0052645383 0.0041660643
000100 9c 44 d5 bd 39 62 12 3e 98 3b e8 3d eb 56 62 bd
       -0.10413477 0.14295281 0.113394916 -0.055258673
000110 26 39 b8 bd c5 32 0f be fa 0f 4e 3d f8 63 4b 3d
       -0.08995275 -0.13984211 0.050308205 0.049655885
000120 78 75 28 3d 11 bd a1 3d ea 89 1c bb 6d 2d 31 be
       0.041127652 0.0789739 -0.0023885914 -0.17302485
000130 71 ee 11 bd c3 49 eb 3d 87 38 71 3d 4a fb 8d 3d
       -0.035627786 0.11488678 0.0588918 0.06932695
000140 0f 22 81 3d 87 29 26 bd ac fe f7 bd 9d de 43 be
       0.06305324 -0.040566947 -0.12109122 -0.19127889
000150 0f 2f 20 3d f1 62 36 bb a4 4a 0d 3d 02 36 e8 3c
       0.03910738 -0.002782997 0.03449501 0.028346065
000160 9c ef 38 3c 11 40 20 3e 79 14 5f bc e2 14 90 bd
       0.011287596 0.1564944 -0.013615721 -0.07035233
000170 25 9d 5a 3d 22 bb 44 bd 16 41 01 be 75 d3 61 bd
       0.05337252 -0.048030026 -0.12622485 -0.0551333
000180 20 26 fa bc f2 b2 96 3d a8 5c dc 3d 75 36 69 39
       -0.030535758 0.0735835 0.1075986 0.00022240898
000190 4b 2a 94 3d 54 04 1a be e7 07 25 bc 75 e7 d2 3d
       0.07234629 -0.15040714 -0.010072685 0.10298053
0001a0 31 00 bf 3d 46 0c a0 bd 19 41 0d bd 1a f6 09 3c
       0.093262084 -0.07814841 -0.03448591 0.008420492
0001b0 f4 b0 cb 3c 4f 62 ac bd bc 75 53 bd 89 3c 57 bd
       0.024864651 -0.084171884 -0.051625952 -0.052547965
0001c0 52 86 a8 3c ec 49 08 3e d8 ea 2e 3e 1c 90 fa 3d
       0.020571861 0.13309449 0.17081773 0.12234518
0001d0 fc ac bd bd 53 42 5b be 6c 10 11 be bc 51 86 bd
       -0.0926151 -0.2141202 -0.1416642 -0.06558558
0001e0 ec e9 cc 3d 01 e6 1d bc ae f1 86 bd d9 39 45 3d
       0.100055546 -0.009637357 -0.065890655 0.04815087
0001f0 dc 67 1e 3e e4 ba 24 be 87 a0 04 3d e2 cf b7 bd
       0.15469307 -0.16086918 0.032379653 -0.089751974
000200 49 9c 50 3d dd e7 59 bc 5b 62 a4 3a 6b f3 d6 bc
       0.050930295 -0.013299909 0.0012541519 -0.026239118
000210 68 cd 94 bd 8d 6a b2 3d b1 06 fd 3d e2 ea ae 3d
       -0.07265741 0.08711729 0.12354792 0.08540894
000220 12 a2 6a bc be a8 00 be e9 d7 26 bc 61 f0 0d 3d
       -0.014320867 -0.1256437 -0.010183313 0.03465307
000230 8b 08 7a bd 8b a3 3c 3e 03 44 53 bb 30 6c 16 3e
       -0.061043303 0.18421762 -0.0032236583 0.14689708
000240 b8 3e 43 3d a1 31 ba 3d 54 66 cb 3b c1 6d cb bc
       0.047667235 0.09091497 0.006207267 -0.024832608
000250 80 55 59 3d e0 a1 06 3d 8f 58 5f 3c 73 c1 a8 3d
       0.053060055 0.03286922 0.013631954 0.082400225
000260 44 30 03 3d 00 77 da 3c ec cf 09 bc 55 8a de 3d
       0.03202845 0.026668072 -0.008411389 0.108662285
000270 44 51 4d be d9 e5 6d 3c a6 70 88 3b a1 c6 5b bc
       -0.20050532 0.014520132 0.0041638194 -0.013414056
000280 0a ca 22 bc 07 f6 28 3d 48 d5 79 bd 42 70 6c bd
       -0.009935865 0.041250255 -0.060994416 -0.057724245
000290 30 cc 3f be 60 a8 36 bd d2 4c 8e bd 70 0c 62 3e
       -0.18730235 -0.04459417 -0.06948246 0.22075057
0002a0 aa b0 f0 bd c6 e9 3a 3e 90 9a 01 3e c1 cb 8f 3d
       -0.11752446 0.1825324 0.12656617 0.07021285
0002b0 01 10 fd bd 6d 68 10 bd 3e 37 cc bd 76 a5 67 3d
       -0.12356568 -0.03525584 -0.09971474 0.05655428
0002c0 a8 de 4f 3b 83 5f 3c 3d a7 98 b6 3d f1 e9 17 3d
       0.0031718407 0.045989525 0.08915835 0.03708834
0002d0 c9 10 35 bc 2f e9 f0 3d a3 a3 1b 3d 15 4b ca bd
       -0.011051365 0.11763226 0.037997853 -0.09877602
0002e0 91 4d 92 bd 6c b4 01 3c 7b ef 3c bd f3 6e 26 3c
       -0.07143701 0.007916551 -0.046126824 0.010158288
0002f0 b4 34 71 3e d0 c2 86 bd 1a 91 17 be 4e 56 f2 39
       0.23555261 -0.06580126 -0.14801446 0.0004622214
000300 ff 1c 86 bd ba 2c 00 3c 8a 64 a4 3c 68 6b d8 3d
       -0.06548499 0.007823164 0.020067472 0.10567361
000310 7f fd 7b 3a e9 7b a8 3d d9 4b 8f bd 8d 97 1d 3c
       0.0009612664 0.08226759 -0.06996889 0.009618652
000320 4c 08 18 bd d5 32 c0 bd 2c 90 5c 3e 3e c1 87 bd
       -0.037117288 -0.093846954 0.21539372 -0.06628655
000330 f8 15 2b be c3 a3 f1 3c c3 78 b0 3c 52 45 1c bb
       -0.16707599 0.029497033 0.021541959 -0.002384503
000340 d2 63 95 bd 1c 38 9b 3c 4f d8 95 3c 93 c3 83 3d
       -0.0729443 0.018947653 0.01829162 0.06433787
000350 bf 11 b3 3d bd 66 2a be 29 9e 3e bd 08 f0 60 3d
       0.08743619 -0.16640754 -0.046537552 0.05491641
000360 a3 49 93 3d 3b 65 db 3d 84 49 8c 3d 93 b0 23 be
       0.071917795 0.107126676 0.068499595 -0.15985326
000370 a8 c9 08 be 60 b8 2f 3e 56 46 e4 3d 9e 81 48 3e
       -0.13358176 0.17160177 0.11146228 0.19580695
000380 8d b3 f7 bb 37 f9 1a bd f9 02 17 be 4b d9 b7 bd
       -0.007559246 -0.037835326 -0.14747228 -0.08976992
000390 cd d2 fd bc 1f a0 54 3e ea 08 38 bc 67 f8 be bd
       -0.030984307 0.20764206 -0.011232594 -0.09324723
0003a0 60 73 bd 3c ec 91 ae 3d 77 01 59 3d 9f 32 69 bd
       0.023126304 0.08523926 0.052979913 -0.05693304
0003b0 7a 91 71 3d 1b 13 d3 bd 05 f8 8a 3d 2f 2d 33 3d
       0.058976628 -0.103063785 0.06785587 0.043744262
0003c0 7c d7 74 be a5 ca 28 3e a2 8b 21 3e e2 bd 27 bc
       -0.23910326 0.16483553 0.15775922 -0.010238143
0003d0 0c 90 78 bd df f4 5c 3d 78 d4 3b bd 88 b1 45 be
       -0.06068425 0.053944465 -0.045856923 -0.19306004
0003e0 81 dd 36 bd d9 e4 06 be 00 46 d6 3b 88 e1 8f 3b
       -0.044644836 -0.13173236 0.0065391064 0.004390899
0003f0 3b 12 eb bd df d9 ac bb 37 88 b6 bb 82 0d e1 bc
       -0.114780866 -0.0052749957 -0.0055704373 -0.027472261
