Assets/results/Run09/Robot Path Finder.onnx (onnx, 280587 bytes, 6 tensors)

distribution.branches.0.bias f4 [4]
0.0 0.0 0.0 0.0
00000000: 0000 0000 0000 0000 0000 0000 0000 0000

distribution.branches.0.weight f4 [4, 128]
-0.004803903 0.0015047448 -0.011752108 0.008383115 -7.3625844e-05 0.006573663 -0.007849717 -0.00768188
0.0076522976 0.007442411 0.010653606 0.011960784 -0.003890292 0.016035097 0.0037977186 0.010020516
0.0017511075 -0.016747696 -0.0031993573 -0.0017800153 0.0017741325 0.0097710155 0.0030607898 0.0116460165
-0.012109754 0.005575672 0.0102930805 -0.000746353 0.0053644734 -0.0025322093 0.0009687218 0.00869152
-0.008835125 0.002470911 0.007677903 -0.0040073227 -0.007274752 0.00010842384 -0.0052283383 -0.0024811723
-0.0014523648 -0.016410103 0.0022990396 0.008121352 -0.0034535315 -0.0032404717 0.01135433 0.013676089
-0.003129119 -0.006790831 -0.001177057 -0.0072363513 0.023742236 0.0026620273 0.0034604415 -0.000139457
-0.009589497 -0.003165294 0.0011462398 0.00060453557 0.004100144 -0.0036699742 0.00050156034 0.0070222365
-0.0030672017 0.0069993846 0.019363904 0.008297152 -0.00010513025 -0.014552981 -0.0018493691 0.0066372612
-0.0059371977 0.0030454162 0.001344426 0.0040424583 -0.02264747 0.0023843981 -0.011036329 -0.00550942
0.0062607066 -0.012300101 -0.0020349275 0.0031616788 0.0031734917 0.0074689896 0.003393971 -0.001934511
-0.0035502387 -0.012512028 -0.0064356485 -0.0099132955 0.026820092 -0.0009678334 0.007855318 0.00080074224
0.0023131012 -0.0048424457 -0.016064564 -0.013829074 -0.004604972 -0.008309207 0.0035582935 0.000876626
-0.0020562978 0.0066518197 0.008556921 0.003971565 0.015877774 0.00616662 -0.004309216 0.011777408
-0.0069180625 -0.0029522178 0.010872593 0.0051599774 0.0044086087 0.006503127 -0.0012574451 0.0036546667
0.010053209 0.02128103 -0.0058247703 0.0026561157 0.0030030422 0.012123531 -0.012947122 0.01076363
0.018093422 -0.0010734277 0.002829982 -0.0020153252 -0.0036840797 0.012706875 0.015921107 0.00068584824
-0.0014172097 -0.005706316 -0.0071249353 -0.011736501 -0.01206812 0.009775464 -0.012312209 -0.007104204
0.011768963 0.00705373 -0.01732976 0.014887047 -0.0021869715 0.012426641 -0.015208292 -0.014502567
-0.0111997565 -0.0006672005 0.00034323367 -0.014920637 -0.030070087 0.0042325007 -0.008563827 -0.003277097
-0.0017371655 -0.0009891951 0.0046599195 0.015449381 -0.0032037583 0.014626952 -0.021862382 0.0033429933
0.0035986702 -0.013916016 -8.600345e-05 0.012443385 -0.008869822 -0.005582913 0.0019286236 0.003478116
-0.0056486954 0.00019702292 -0.010899134 0.00019259834 0.012666351 -0.006454808 0.009940629 0.002211667
0.0061120666 0.0036576968 0.0038725676 -0.004318395 -0.0019742353 0.0102707045 -0.017755585 -0.024205763
0.00017196036 -0.014163454 -0.0018460026 -0.00882393 -0.008789707 -0.006921708 -0.014857927 -0.012411318
-0.0048420406 0.01317689 0.022287048 0.0021315191 0.0035104298 -0.008823424 0.0029515736 0.012951458
0.009877524 -0.0012601215 0.0072064595 0.014480524 -0.008994449 -0.012341014 -0.011809681 0.0049412865
-0.0030514258 0.005305636 0.014627265 0.008609492 -0.03623127 0.009801077 0.006971996 -0.013980283
0.020783126 -0.014798644 0.00037172687 0.015305086 0.012729413 0.0020544927 -0.008042735 0.003696125
-0.017758137 0.0034579847 -0.0015164452 -0.01346526 4.6547684e-05 0.0033897504 -0.0055769184 0.007829757
0.0172564 -0.0077974387 0.005255058 0.0007901468 0.0029814206 -0.0021596719 0.0013706319 -0.011961705
0.014963986 -0.011856607 0.0017578267 0.00019015493 -0.010768703 0.0052900515 0.0028113609 -0.01185643
00000000: 0f6a 9dbb db3a c53a ea8b 40bc 5559 093c
00000010: 9367 9ab8 e267 d73b 199c 00bc 48b8 fbbb
00000020: 20c0 fa3b 78df f33b 768c 2e3c 2af7 433c
00000030: 45f4 7ebb 095c 833c 25e3 783b 172d 243c
00000040: 6b85 e53a 7732 89bc 4fac 51bb 674f e9ba
00000050: 028a e83a 9c16 203c 8897 483b efce 3e3c
00000060: fd67 46bc 20b4 b63b 4fa4 283c e7a6 43ba
00000070: 77c8 af3b 6cf3 25bb d2f1 7d3a e166 0e3c
00000080: 33c1 10bc 02ef 213b eb96 fb3b dc4f 83bb
00000090: 0b61 eebb 9b61 e338 7b52 abbb 2a9b 22bb
000000a0: 475d beba 7b6e 86bc 7cab 163b 6b0f 053c
000000b0: a554 62bb 185e 54bb 8307 3a3c ad11 603c
000000c0: e811 4dbb 9f85 debb 7b47 9aba ea1e edbb
000000d0: 147f c23c 6875 2e3b 93c8 623b 343b 12b9
000000e0: 441d 1dbc d270 4fbb 6d3d 963a b279 1e3a
000000f0: 805a 863b f383 70bb 257b 033a ca1a e63b
00000100: 1b03 49bb 185b e53b 0da1 9e3c c7f0 073c
00000110: 6079 dcb8 a06f 6ebc 8866 f2ba 627d d93b
00000120: d38c c2bb 9b95 473b 7337 b03a 9976 843b
00000130: 3087 b9bc 9043 1c3b b8d1 34bc 5d88 b4bb
00000140: 9d26 cd3b 5d86 49bc 6b5c 05bb 2b34 4f3b
00000150: 5bfa 4f3b 6dbe f43b 626d 5e3b 6b8f fdba
00000160: 1fab 68bb 40ff 4cbc 22e2 d2bb 606b 22bc
00000170: cfb5 db3c 33b6 7dba 97b3 003c e7e8 513a
00000180: 6697 173b 61ad 9ebb d599 83bc 5793 62bc
00000190: 4ee5 96bb 5723 08bc 4232 693b 60cd 653a
000001a0: f4c2 06bb 82f7 d93b 5432 0c3c e723 823b
000001b0: 1b12 823c 5c11 ca3b 5334 8dbb 08f6 403c
000001c0: eab0 e2bb ff79 41bb f622 323c 0715 a93b
000001d0: 1776 903b 2f18 d53b dbd0 a4ba 2283 6f3b
000001e0: 37b6 243c 8e55 ae3c b7dd bebb 3a12 2e3b
000001f0: b0ce 443b c6a1 463c 2a20 54bc f059 303c
00000200: a838 943c 42b2 8cba 3877 393b 8c13 04bb
00000210: 9a70 71bb 7f30 503c fb6c 823c 7fca 333a
00000220: abc1 b9ba 0cfc babb 4a78 e9bb 744a 40bc
00000230: 5db9 45bc 4529 203c 26b9 49bc 62ca e8bb
00000240: 9cd2 403c fa22 e73b 24f7 8dbc cde8 733c
00000250: 4b53 0fbb 1c99 4b3c 332c 79bc 2d9c 6dbc
00000260: 2f7f 37bc 11e7 2eba 0bf4 b339 b075 74bc
00000270: 8b55 f6bc cab0 8a3b 4b4f 0cbc 90c4 56bb
00000280: 9ab1 e3ba e1a7 81ba 3db2 983b 671f 7d3c
00000290: 25f6 51bb e2a5 6f3c bd18 b3bc 1f16 5b3b
000002a0: abd7 6b3b 0000 64bc c05c b4b8 57df 4b3c
000002b0: bb52 11bc def0 b6bb dfc9 fc3a 1af1 633b
000002c0: b118 b9bb f097 4e39 4892 32bc 39f4 4939
000002d0: 8786 4f3c db82 d3bb 05de 223c 9df1 103b
000002e0: bb47 c83b f8b5 6f3b e7ca 7d3b 5381 8dbb
000002f0: 2c62 01bb 7546 283c 2974 91bc 2a4b c6bc
00000300: 4250 3439 d50d 68bc 92f5 f1ba 3f92 10bc
00000310: b402 10bc 7fcf e2bb aa6e 73bc d758 4bbc
00000320: fba9 9ebb e2e3 573c 5493 b63c f5b0 0b3b
00000330: 3d0f 663b 1f90 10bc 306f 413b 5a32 543c
00000340: 57d5 213c a92a a5ba 2a24 ec3b b83f 6d3c
00000350: 745d 13bc f731 4abc 647d 41bc 84ea a13b
00000360: 6efa 47bb e7da ad3b 32a7 6f3c d40e 0d3c
00000370: 3d67 14bd b294 203c 5775 e43b 8f0d 65bc
00000380: 6041 aa3c 0376 72bc 56e4 c239 2fc2 7a3c
00000390: 078f 503c aba4 063b adc5 03bc b03a 723b
000003a0: 8379 91bc 5b9f 623b 75c3 c6ba 659d 5cbc
000003b0: 323c 4338 9326 5e3b 95be b6bb 6248 003c
000003c0: 4b5d 8d3c a881 ffbb 9f32 ac3b db21 4f3a
000003d0: f063 433b 4889 0dbb c6a6 b33a 07fb 43bc
000003e0: 822b 753c 3742 42bc e066 e63a 5364 4739
000003f0: 376f 30bc 2b58 ad3b cf3e 383b 7941 42bc

network_body.linear_encoder.seq_layers.0.bias f4 [128]
0.0 0.0 0.0 0.0 0.0 0.0 0.0 0.0
0.0 0.0 0.0 0.0 0.0 0.0 0.0 0.0
0.0 0.0 0.0 0.0 0.0 0.0 0.0 0.0
0.0 0.0 0.0 0.0 0.0 0.0 0.0 0.0
0.0 0.0 0.0 0.0 0.0 0.0 0.0 0.0
0.0 0.0 0.0 0.0 0.0 0.0 0.0 0.0
0.0 0.0 0.0 0.0 0.0 0.0 0.0 0.0
0.0 0.0 0.0 0.0 0.0 0.0 0.0 0.0
0.0 0.0 0.0 0.0 0.0 0.0 0.0 0.0
0.0 0.0 0.0 0.0 0.0 0.0 0.0 0.0
0.0 0.0 0.0 0.0 0.0 0.0 0.0 0.0
0.0 0.0 0.0 0.0 0.0 0.0 0.0 0.0
0.0 0.0 0.0 0.0 0.0 0.0 0.0 0.0
0.0 0.0 0.0 0.0 0.0 0.0 0.0 0.0
0.0 0.0 0.0 0.0 0.0 0.0 0.0 0.0
0.0 0.0 0.0 0.0 0.0 0.0 0.0 0.0
00000000: 0000 0000 0000 0000 0000 0000 0000 0000
00000010: 0000 0000 0000 0000 0000 0000 0000 0000
00000020: 0000 0000 0000 0000 0000 0000 0000 0000
00000030: 0000 0000 0000 0000 0000 0000 0000 0000
00000040: 0000 0000 0000 0000 0000 0000 0000 0000
00000050: 0000 0000 0000 0000 0000 0000 0000 0000
00000060: 0000 0000 0000 0000 0000 0000 0000 0000
00000070: 0000 0000 0000 0000 0000 0000 0000 0000
00000080: 0000 0000 0000 0000 0000 0000 0000 0000
00000090: 0000 0000 0000 0000 0000 0000 0000 0000
000000a0: 0000 0000 0000 0000 0000 0000 0000 0000
000000b0: 0000 0000 0000 0000 0000 0000 0000 0000
000000c0: 0000 0000 0000 0000 0000 0000 0000 0000
000000d0: 0000 0000 0000 0000 0000 0000 0000 0000
000000e0: 0000 0000 0000 0000 0000 0000 0000 0000
000000f0: 0000 0000 0000 0000 0000 0000 0000 0000
00000100: 0000 0000 0000 0000 0000 0000 0000 0000
00000110: 0000 0000 0000 0000 0000 0000 0000 0000
00000120: 0000 0000 0000 0000 0000 0000 0000 0000
00000130: 0000 0000 0000 0000 0000 0000 0000 0000
00000140: 0000 0000 0000 0000 0000 0000 0000 0000
00000150: 0000 0000 0000 0000 0000 0000 0000 0000
00000160: 0000 0000 0000 0000 0000 0000 0000 0000
00000170: 0000 0000 0000 0000 0000 0000 0000 0000
00000180: 0000 0000 0000 0000 0000 0000 0000 0000
00000190: 0000 0000 0000 0000 0000 0000 0000 0000
000001a0: 0000 0000 0000 0000 0000 0000 0000 0000
000001b0: 0000 0000 0000 0000 0000 0000 0000 0000
000001c0: 0000 0000 0000 0000 0000 0000 0000 0000
000001d0: 0000 0000 0000 0000 0000 0000 0000 0000
000001e0: 0000 0000 0000 0000 0000 0000 0000 0000
000001f0: 0000 0000 0000 0000 0000 0000 0000 0000

network_body.linear_encoder.seq_layers.0.weight f4 [128, 410]
-0.11044421 0.030834856 -0.11873818 0.15000904 0.028940164 -0.074517034 0.014186847 -0.027801316
0.061911367 -0.09338824 0.002788722 -0.035992563 -0.0047995606 0.030026281 0.02789996 -0.02437582
0.029478565 0.024013959 0.022656739 0.0072256643 -0.052675806 0.041372318 0.022743035 -0.08365326
-0.000666343 0.054620165 -0.0038460086 0.118494 0.0046466244 -0.057674028 0.041406386 0.028199079
0.00484847 0.054872055 -0.009016098 0.08944952 0.109957926 -0.0038323342 0.054391224 0.029303782
0.11526343 0.0046781637 0.0827342 -0.081463866 0.082381055 0.08547871 -0.050910596 0.10066033
-0.006090635 -0.010903475 -0.020427413 -0.011313097 -0.05850519 0.027475517 -0.015266539 0.011130978
0.065908015 -0.0026380327 0.005098914 0.069235906 -0.009662728 -0.013729949 0.03416503 -0.013510373
0.038379617 -0.061125804 -0.06903308 0.023823421 -0.032990254 -0.055060636 0.05833421 -0.024912227
0.10132776 0.078693345 0.02780979 -0.06498199 0.016315972 0.014231702 -0.044480897 0.059563596
-0.027518662 0.029807026 0.024000116 0.020069333 -0.06441441 -0.023010908 -0.118128724 -0.062113248
0.026876947 -0.103009716 -0.06699998 0.08246382 -0.023083476 0.017311228 0.110564865 0.054664727
-0.07828523 -0.026194366 0.01696821 -0.031563267 0.04033628 0.107247904 0.00395507 -0.029287495
-0.0055328277 0.0039691897 0.07816276 0.051366962 0.04798753 -0.038185596 0.055005927 -0.072370395
0.06662051 -0.07789945 0.00185604 0.08646762 0.03512605 0.041697793 0.05237476 0.08062008
0.005723694 0.0392852 0.041265953 -0.028101549 0.03945566 -0.039610203 0.039303735 0.02981316
0.09874437 0.0608624 0.067056686 0.0039695264 -0.015797036 -0.040694326 0.014702911 -0.031977378
0.027212735 -0.067584865 0.024770355 0.0013888514 0.05837001 0.05909345 0.06718597 0.03612343
-0.00018353756 0.08002628 -0.028364515 0.0102046775 -0.09607323 -0.064576335 -0.009463609 -0.009939496
-0.051797315 0.057912316 -0.033220086 -0.05577404 0.01890286 0.039321918 0.06561799 -0.03971392
-0.058701366 -0.099153906 -0.050552983 0.011859717 0.07381075 -0.04246375 -0.006052294 0.028675113
0.041685373 -0.029518807 0.016854087 -0.015481285 -0.02492961 -0.003461269 0.052329753 -0.007259953
8.1005215e-05 0.04292844 0.044606976 0.018990796 -0.011461152 0.03775392 -0.04038253 -0.02183717
-0.015664209 0.025018299 -0.07829433 -0.009222941 -0.01163201 0.05837402 0.016471019 -0.024401426
-0.023720415 -0.0012091775 0.03885402 -0.034273185 -0.06997225 0.015098793 0.035132993 0.016972726
-0.032343253 -0.017825997 0.045846835 0.016655732 0.044120733 0.008376341 0.10523471 -0.022934753
0.027967392 0.015987251 0.048065107 0.014715079 -0.0016709947 0.023023468 -0.034923762 -0.03647489
-0.01333741 -0.0006711437 0.016325798 -0.03330674 -0.039486345 -0.023771534 0.056582842 -0.003934252
-0.05303326 0.0032710056 0.0071463734 -0.07570132 0.019483259 -0.08280954 -0.08024706 -0.084334806
0.013375089 -0.024564879 -0.08637795 0.043733068 0.11056716 0.0043983753 0.07271087 0.037281007
0.031920414 0.018620424 0.094394945 0.056418102 0.02649744 0.027699886 0.013151981 -0.033130147
-0.08349275 0.022520518 -0.04445578 0.013333128 0.06387357 -0.035921354 -0.029509002 -0.052521374
00000000: 9330 e2bd 6199 fc3c 012d f3bd f89b 193e
00000010: ec13 ed3c 639c 98bd f36f 683c 96bf e3bc
00000020: c696 7d3d 5542 bfbd fec2 363b f06c 13bd
00000030: a245 9dbb adf9 f53c 758e e43c cdaf c7bc
00000040: 087d f13c ecb8 c43c a09a b93c 44c5 ec3b
00000050: 96c2 57bd 0576 293d 9a4f ba3c 6652 abbd
00000060: 86ad 2eba 65b9 5f3d 510d 7cbb fbac f23d
00000070: b642 983b 9a3b 6cbd be99 293d c101 e73c
00000080: eadf 9e3b 85c1 603d 42b8 13bc 4f31 b73d
00000090: 9f31 e13d e627 7bbb 55c9 5e3d 7c0e f03c
000000a0: 3c0f ec3d 484b 993b 8c70 a93d 87d6 a6bd
000000b0: 66b7 a83d 760f af3d a187 50bd 0127 ce3d
000000c0: f393 c7bb 7da4 32bc 6457 a7bc 915a 39bc
000000d0: 23a3 6fbd 5614 e13c 8120 7abc b55e 363c
000000e0: c8fa 863d d8e2 2cbb ca14 a73b 8ecb 8d3d
000000f0: 6b50 1ebc 94f3 60bc a1f0 0b3d 9d5a 5dbc
00000100: f233 1d3d 0d5f 7abd 3761 8dbd 5629 c33c
00000110: ca20 07bd 4387 61bd daef 6e3d ba14 ccbc
00000120: ee84 cf3d fa29 a13d 5bd1 e33c 4715 85bd
00000130: 13a9 853c 162c 693c 9a31 36bd f5f8 733d
00000140: d16e e1bc dd2d f43c e49b c43c 7168 a43c
00000150: b4eb 83bd 5f81 bcbc 79ed f1bd 766a 7ebd
00000160: 0b2d dc3c c2f6 d2bd 4937 89bd cbe2 a83d
00000170: 8f19 bdbc 47d0 8d3c d56f e23d 1fe8 5f3d
00000180: 0254 a0bd 9195 d6bc ea00 8b3c 7c48 01bd
00000190: a837 253d caa4 db3d 8899 813b 54ec efbc
000001a0: b94c b5bb fa0f 823b cc13 a03d 2a66 523d
000001b0: 928e 443d 8068 1cbd e54d 613d ee36 94bd
000001c0: 5570 883d bf89 9fbd 5e46 f33a f015 b13d
000001d0: 55e0 0f3d 4ecb 2a3d eb86 563d 241c a53d
000001e0: d38d bb3b 85e9 203d 7d06 293d 3835 e6bc
000001f0: 429c 213d 4f3e 22bd f4fc 203d ba3a f43c
00000200: 7d3a ca3d da4a 793d 0455 893d cd12 823b
00000210: c968 81bc 18af 26bd 7ae4 703c b6fa 02bd
00000220: 3eed de3c ef69 8abd 33eb ca3c 1f0a b63a
00000230: 6415 6f3d f90b 723d cc98 893d 29f6 133d
00000240: fd73 40b9 d1e4 a33d b35c e8bc 8531 273c
00000250: 0bc2 c4bd 9940 84bd 410d 1bbc 45d9 22bc
00000260: 6c29 54bd 7735 6d3d c911 08bd 5273 64bd
00000270: 2cda 9a3c 0510 213d ba62 863d 10ab 22bd
00000280: d870 70bd 3411 cbbd a510 4fbd 424f 423c
00000290: 172a 973d 78ee 2dbd 5252 c6bb 12e8 ea3c
000002a0: 48be 2a3d 6dd1 f1bc 9511 8a3c 37a5 7dbc
000002b0: 2e39 ccbc 75d6 62bb b957 563d e6e4 edbb
000002c0: 58e1 a938 bbd5 2f3d ceb5 363d 9692 9b3c
000002d0: 8ec7 3bbc dba3 1a3d 2768 25bd dde3 b2bc
000002e0: 3a52 80bc 2df3 cc3c c758 a0bd d11b 17bc
000002f0: 3094 3ebc 9919 6f3d 3bee 863c 80e5 c7bc
00000300: 5151 c2bc 447d 9eba 6525 1f3d 0a62 0cbd
00000310: 9c4d 8fbd ee60 773c 9de7 0f3d 630a 8b3c
00000320: 5c7a 04bd d307 92bc e4c9 3b3d 9a71 883c
00000330: f1b7 343d ec3c 093c 4c85 d73d aae1 bbbc
00000340: df1b e53c b2f7 823c ebdf 443d 8417 713c
00000350: 4705 dbba b69b bc3c 380c 0fbd b266 15bd
00000360: 2785 5abc b1ef 2fba aebd 853c a66c 08bd
00000370: 6fbc 21bd 85bc c2bc 69c3 673d e6ea 80bb
00000380: 6739 59bd 5e5e 563b 202c ea3b 4b09 9bbd
00000390: 5b9b 9f3c 0c98 a9bd 9258 a4bd bab7 acbd
000003a0: 3023 5b3c 493c c9bc ece6 b0bd 7221 333d
000003b0: 0971 e23d 3f20 903b 70e9 943d f8b3 183d
000003c0: fbbe 023d dc89 983c 2352 c13d ab16 673d
000003d0: 2911 d93c dfea e23c 687b 573c 7ab3 07bd
000003e0: 3ffe aabd f37c b83c 4417 36bd 3173 5a3c
000003f0: 25d0 823d 4522 13bd ddbc f1bc a720 57bd

network_body.linear_encoder.seq_layers.2.bias f4 [128]
0.0 0.0 0.0 0.0 0.0 0.0 0.0 0.0
0.0 0.0 0.0 0.0 0.0 0.0 0.0 0.0
0.0 0.0 0.0 0.0 0.0 0.0 0.0 0.0
0.0 0.0 0.0 0.0 0.0 0.0 0.0 0.0
0.0 0.0 0.0 0.0 0.0 0.0 0.0 0.0
0.0 0.0 0.0 0.0 0.0 0.0 0.0 0.0
0.0 0.0 0.0 0.0 0.0 0.0 0.0 0.0
0.0 0.0 0.0 0.0 0.0 0.0 0.0 0.0
0.0 0.0 0.0 0.0 0.0 0.0 0.0 0.0
0.0 0.0 0.0 0.0 0.0 0.0 0.0 0.0
0.0 0.0 0.0 0.0 0.0 0.0 0.0 0.0
0.0 0.0 0.0 0.0 0.0 0.0 0.0 0.0
0.0 0.0 0.0 0.0 0.0 0.0 0.0 0.0
0.0 0.0 0.0 0.0 0.0 0.0 0.0 0.0
0.0 0.0 0.0 0.0 0.0 0.0 0.0 0.0
0.0 0.0 0.0 0.0 0.0 0.0 0.0 0.0
00000000: 0000 0000 0000 0000 0000 0000 0000 0000
00000010: 0000 0000 0000 0000 0000 0000 0000 0000
00000020: 0000 0000 0000 0000 0000 0000 0000 0000
00000030: 0000 0000 0000 0000 0000 0000 0000 0000
00000040: 0000 0000 0000 0000 0000 0000 0000 0000
00000050: 0000 0000 0000 0000 0000 0000 0000 0000
00000060: 0000 0000 0000 0000 0000 0000 0000 0000
00000070: 0000 0000 0000 0000 0000 0000 0000 0000
00000080: 0000 0000 0000 0000 0000 0000 0000 0000
00000090: 0000 0000 0000 0000 0000 0000 0000 0000
000000a0: 0000 0000 0000 0000 0000 0000 0000 0000
000000b0: 0000 0000 0000 0000 0000 0000 0000 0000
000000c0: 0000 0000 0000 0000 0000 0000 0000 0000
000000d0: 0000 0000 0000 0000 0000 0000 0000 0000
000000e0: 0000 0000 0000 0000 0000 0000 0000 0000
000000f0: 0000 0000 0000 0000 0000 0000 0000 0000
00000100: 0000 0000 0000 0000 0000 0000 0000 0000
00000110: 0000 0000 0000 0000 0000 0000 0000 0000
00000120: 0000 0000 0000 0000 0000 0000 0000 0000
00000130: 0000 0000 0000 0000 0000 0000 0000 0000
00000140: 0000 0000 0000 0000 0000 0000 0000 0000
00000150: 0000 0000 0000 0000 0000 0000 0000 0000
00000160: 0000 0000 0000 0000 0000 0000 0000 0000
00000170: 0000 0000 0000 0000 0000 0000 0000 0000
00000180: 0000 0000 0000 0000 0000 0000 0000 0000
00000190: 0000 0000 0000 0000 0000 0000 0000 0000
000001a0: 0000 0000 0000 0000 0000 0000 0000 0000
000001b0: 0000 0000 0000 0000 0000 0000 0000 0000
000001c0: 0000 0000 0000 0000 0000 0000 0000 0000
000001d0: 0000 0000 0000 0000 0000 0000 0000 0000
000001e0: 0000 0000 0000 0000 0000 0000 0000 0000
000001f0: 0000 0000 0000 0000 0000 0000 0000 0000

network_body.linear_encoder.seq_layers.2.weight f4 [128, 128]
0.14912446 0.07275166 0.070011385 0.03084524 0.045792144 -0.14563093 -0.06669715 0.15118806
0.08636715 0.032913074 -0.0058747525 -0.073058955 -0.018062305 -0.07235599 -0.08682157 0.027415885
-0.07611679 0.0011116054 -0.1332933 0.002648327 -0.110972404 0.21960706 -0.025159165 -0.10881338
-0.03506898 -0.021330494 -0.013466585 0.048713032 -0.060763404 -0.09885298 -0.02017963 -0.24399826
-0.065638885 -0.1262444 -0.037505865 -0.12975058 -0.08797276 -0.02814908 0.040312 0.028637731
0.079275295 0.18300614 -0.09764465 -0.1219829 0.017513217 0.007928742 0.0047205784 0.018339943
0.03240046 -0.07207323 0.07251873 0.12600116 -0.014314584 0.091178864 0.014424003 -0.031673927
0.09394882 0.044389844 0.0592086 0.08971695 -0.01895104 0.0426902 -0.034774758 0.009462411
0.040691976 -0.007949328 0.0044571 0.07376199 -0.08867371 0.12448768 -0.0888038 -0.025916357
-0.073047996 0.13687007 0.04270948 0.008357391 -0.0784472 -0.023621928 -0.13800214 -0.12562428
0.15944369 0.015331064 -0.023997644 -0.18152452 -0.006933721 0.047979422 -0.11025581 0.062474474
-0.035373744 -0.07357705 -0.11412814 0.04910534 0.114025295 0.031140517 -0.1626498 0.093315035
-0.012321457 0.00047185348 0.107797824 -0.00052565883 0.014828835 0.061761685 0.062203802 -0.18095486
0.070580885 -0.0466972 0.04386268 -0.18902406 -0.1750835 -0.01378802 -0.012588715 -0.05053348
0.15010239 -0.17434986 0.018771024 -0.033936385 -0.03987381 -0.10978801 -0.011263401 -0.094302684
-0.21374317 -0.06138514 -0.036639087 -0.13767453 -0.06743464 0.1914638 -0.11878008 0.019403126
-0.07163105 0.004513112 0.048749 -0.007187188 -0.022776749 -0.018447168 -0.11696923 0.026280114
0.00776224 0.023397692 0.10227924 0.09029075 0.014164607 0.0584841 -0.19466032 -0.031171741
-0.11872682 -0.11533423 -0.0598319 0.048202086 -0.024457632 0.100936495 -0.041546438 0.1470748
0.13576749 -0.05675597 0.050922543 0.021703709 0.2406165 0.057929546 0.004943359 -0.1428571
0.07229867 -0.2527574 -0.021636363 0.040184043 0.12880583 0.008645386 0.045975935 -0.16732128
0.07280389 0.13316576 -0.105425745 -0.042859443 -0.1875738 0.11699308 0.005177242 -0.07350662
0.059544254 0.066016436 -0.1250665 -0.008247023 0.11603025 0.0911744 0.07670012 0.06578104
-0.018006923 -0.035277717 0.154624 -0.07262129 0.026018633 -0.019046988 0.08525516 0.07393564
0.118673414 0.017717255 -0.059959248 -0.010231577 -0.15922293 -0.09156061 0.12713787 -0.034004617
-0.11184563 -0.09476638 0.09731626 0.08408185 0.103793345 0.020223426 -0.009625888 -0.008351075
0.03638723 0.14485824 0.015565274 -0.03479658 -0.00038698467 -0.015125413 -0.15057333 0.064028054
-0.06604576 -0.13220562 -0.14568964 -0.123177394 0.11041903 0.1402108 0.04932455 0.02854555
-0.05380357 0.02588412 -0.14702593 0.089515395 -0.027658122 -0.032410968 -0.11280234 0.07577721
0.04822699 0.027823273 -0.22041084 -0.074236386 -0.06774248 -0.035139307 -0.04226484 0.0997037
0.064329214 -0.16649176 -0.15727322 -0.00942855 -0.027977107 0.006458339 -0.00066615647 0.111724995
0.077009566 -0.04836137 -0.024942212 -0.0101219015 -0.11384883 0.1722305 0.024944361 0.000782287
00000000: 15b4 183e d3fe 943d 2162 8f3d 28af fc3c
00000010: 8b90 3b3d 4620 15be 8498 88bd 0bd1 1a3e
00000020: 43e1 b03d dccf 063d ff80 c0bb ef9f 95bd
00000030: 66f7 93bc 612f 94bd 82cf b1bd 4797 e03c
00000040: 1fe3 9bbd 4ab3 913a 0a7e 08be 8e8f 2d3b
00000050: 8045 e3bd ace0 603e 981a cebc 8dd9 debd
00000060: 7ea4 0fbd 4abd aebc f4a2 5cbc 5187 473d
00000070: 0ce3 78bd 6e73 cabd c04f a5bc aeda 79be
00000080: ae6d 86bd 3646 01be c09f 19bd 56dd 04be
00000090: 102b b4bd e698 e6bc 321e 253d ad99 ea3c
000000a0: 165b a23d f665 3b3e ebf9 c7bd 2cd2 f9bd
000000b0: e177 8f3c 8ee7 013c 15af 9a3b a63d 963c
000000c0: 58b6 043d 219b 93bd b384 943d 7306 013e
000000d0: b887 6abc fcbb ba3d a752 6c3c 85bc 01bd
000000e0: 3d68 c03d 20d2 353d b884 723d 85bd b73d
000000f0: 363f 9bbc ebdb 2e3d fa6f 0ebd 3a08 1b3c
00000100: a1ac 263d e63d 02bc dd0c 923b 8710 973d
00000110: 909a b5bd 66f3 fe3d c4de b5bd 8a4e d4bc
00000120: 309a 95bd ab27 0c3e 23f0 2e3d 70ed 083c
00000130: eda8 a0bd c682 c1bc 6f50 0dbe a7a3 00be
00000140: 3545 233e 252f 7b3c b596 c4bc 90e1 39be
00000150: 4434 e3bb 1286 443d cccd e1bd 3ce5 7f3d
00000160: 0fe4 10bd 90af 96bd 04bc e9bd ae22 493d
00000170: 1886 e93d 661a ff3c ab8d 26be f41b bf3d
00000180: f0df 49bc 1a63 f739 1bc5 dc3d 5ecc 09ba
00000190: a4f4 723c d2f9 7c3d 6ac9 7e3d 3b4c 39be
000001a0: b68c 903d 9045 3fbd 5ba9 333d 868f 41be
000001b0: 1749 33be 26e7 61bc e640 4ebc 32fc 4ebd
000001c0: 71b4 193e c588 32be b1c5 993c e100 0bbd
000001d0: b852 23bd 89d8 e0bd 218a 38bc c421 c1bd
000001e0: 7ddf 5abe fc6e 7bbd de12 16bd 8dfa 0cbe
000001f0: 2c1b 8abd 160f 443e f842 f3bd 4ef3 9e3c
00000200: 4db3 92bd bae2 933b 08ad 473d 8182 ebbb
00000210: 4e96 babc 841e 97bc 908d efbd 6549 d73c
00000220: 635a fe3b 84ac bf3c c777 d13d 5bea b83d
00000230: ab12 683c 068d 6f3d 0955 47be e15b ffbc
00000240: 0c27 f3bd 5a34 ecbd 4b12 75bd 8d6f 453d
00000250: 5f5b c8bc cbb7 ce3d 992c 2abd c79a 163e
00000260: a206 0b3e f378 68bd 2894 503d facb b13c
00000270: 2c64 763e 8847 6d3d e7fb a13b 2249 12be
00000280: 5311 943d 6b69 81be be3e b1bc 0698 243d
00000290: ade5 033e 61a5 0d3c 4351 3c3d 4556 2bbe
000002a0: 351a 953d 9b5c 083e 74e9 d7bd 628d 2fbd
000002b0: 5913 40be 119a ef3d dba5 a93b a48a 96bd
000002c0: ade4 733d a033 873d 6f11 00be 861e 07bc
000002d0: 45a1 ed3d a5b9 ba3d f414 9d3d 36b8 863d
000002e0: 4183 93bc 5e7f 10bd c155 1e3e 79ba 94bd
000002f0: 0725 d53c 6e08 9cbc 429a ae3d 926b 973d
00000300: 0c0b f33d c723 913c d497 75bd 58a2 27bc
00000310: 560b 23be 2184 bbbd 6e30 023e 6d48 0bbd
00000320: 520f e5bd e014 c2bd bf4d c73d 1b33 ac3d
00000330: 9b91 d43d 99ab a53c e7b5 1dbc f3d2 08bc
00000340: c70a 153d b855 143e 7e05 7f3c dc86 0ebd
00000350: 34e4 cab9 95d0 77bc e52f 1abe 2421 833d
00000360: 0043 87bd e960 07be aa2f 15be 6e44 fcbd
00000370: 5f23 e23d 6c93 0f3e 8a08 4a3d 5bd8 e93c
00000380: 2261 5cbd ef0a d43c f78d 16be d953 b73d
00000390: 4993 e2bc 5dc1 04bd ea04 e7bd 1531 9b3d
000003a0: aa89 453d a2ed e33c 61b3 61be 3f09 98bd
000003b0: 92bc 8abd 3cee 0fbd e61d 2dbd 7431 cc3d
000003c0: 09bf 833d d17c 2abe 3b0c 21be 347a 1abc
000003d0: 3f30 e5bc 79a0 d33b 01a1 2eba 13d0 e43d
000003e0: 31b7 9d3d 9216 46bd 9c53 ccbc 55d6 25bc
000003f0: 9329 e9bd 315d 303e 1e58 cc3c 6412 4d3a
