Assets/results/Run07/Robot Path Finder/Robot Path Finder-260822.onnx (onnx, 280587 bytes, 6 tensors)

distribution.branches.0.bias f4 [4]
0	0x3cc52e2c	0.024069868
1	0x3b029d2b	0.0019930105
2	0xbba1e0c0	-0.0049401224
3	0xbcb9f704	-0.022700794

distribution.branches.0.weight f4 [4, 128]
0	0xbc6f1c80	-0.014594197
1	0xbb22893e	-0.002480104
2	0xbcc5cc90	-0.024145395
3	0x3bcf1df5	0.00632071
4	0x3cd64514	0.026155986
5	0xbcbef0f5	-0.023308257
6	0xbcdd28ba	-0.026996959
7	0xbc9945f8	-0.018710122
8	0xbd1aabd6	-0.03776153
9	0xbc82ece3	-0.015982097
10	0x3cd2d89b	0.025738051
11	0xbc165649	-0.009175845
12	0x3c913f9a	0.017730523
13	0xbd1cbb6e	-0.038264684
14	0x3c1cecfd	0.009577987
15	0x3c97e731	0.018542858
16	0xbcbd65ec	-0.02311989
17	0x3ac70e71	0.0015186799
18	0xbc8dfd51	-0.017332705
19	0x3cddaec0	0.027060866
20	0xbbe36b09	-0.00694025
21	0x3cac14c5	0.021005997
22	0x3c61c662	0.013780208
23	0xb9c2838d	-0.00037100576
24	0x3cbd691a	0.023121405
25	0xbcaaebf0	-0.020864457
26	0xbd0c54ba	-0.03426049
27	0xbcec9beb	-0.028882941
28	0xbcf76fdc	-0.030204706
29	0xbc232325	-0.00995711
30	0x3cb8f868	0.022579387
31	0xbcba2e78	-0.022727236
32	0x3bf6987b	0.0075255013
33	0xbcc51c86	-0.024061453
34	0xbcba1433	-0.02271471
35	0x3c5f1c9f	0.013617664
36	0x3ca5a78e	0.020221498
37	0x3c9ae630	0.01890859
38	0x3cb23624	0.021754332
39	0xbba9f663	-0.0051868423
40	0x3cb5c79c	0.022189908
41	0x3c297587	0.010342962
42	0x3d2fbbf6	0.042903863
43	0x3d048827	0.032356407
44	0xbd04f289	-0.032457862
45	0x3d16333d	0.03666996
46	0xbc42696c	-0.011865955
47	0xbbc60534	-0.0060431007
48	0x3bafcbb0	0.0053648576
49	0xbd19349d	-0.03740369
50	0x3d090dc1	0.033460382
51	0x3cc88d3e	0.024481412
52	0xbc06e96e	-0.008234365
53	0x3be221d9	0.0069010076
54	0xbb92f2e1	-0.00448452
55	0xbcb2c784	-0.021823652
56	0x3c585c14	0.013205547
57	0x3d081d2f	0.033230957
58	0xbcc6d29d	-0.02427035
59	0xbcef8543	-0.029238349
60	0x3ce40e2c	0.027838789
61	0xbc3e8905	-0.011629348
62	0x3cfb7779	0.030696617
63	0x3bda5795	0.0066632726
64	0x3d0b4d3d	0.034009207
65	0xbca253aa	-0.019815285
66	0x3d1d86a9	0.0384585
67	0x3c4d685d	0.012537089
68	0x3c29c2b3	0.010361361
69	0xbc9375e8	-0.018000558
70	0x3cdf61af	0.027268259
71	0xbba0c6b1	-0.0049064984
72	0x3cee9a02	0.029126171
73	0xbc884179	-0.016632782
74	0xbcb61a0d	-0.022229219
75	0x3c9ec6d1	0.019381912
76	0x3c588938	0.013216309
77	0xbd06dc74	-0.032925084
78	0x3d060b74	0.032725766
79	0xbcb0cad2	-0.021581087
80	0x3c2f4541	0.010697664
81	0x3c068379	0.008210056
82	0x3b2927cb	0.0025811072
83	0xbccec3fb	-0.025239935
84	0x3c223e75	0.009902586
85	0x3c8131a6	0.015770745
86	0xbd039c3f	-0.03213143
87	0x3ccff47c	0.025385134
88	0xbcfdd50a	-0.030985374
89	0xbccc6665	-0.02495117
90	0xbcb752e1	-0.022378387
91	0xbcd0eea3	-0.025504416
92	0x3ca81472	0.020517562
93	0x3cbe7371	0.023248406
94	0x3c555787	0.013021356
95	0x3ccf3c86	0.025297415
96	0xbb7ac327	-0.0038263293
97	0x3d4a9fd6	0.049468838
98	0xbcb7ef87	-0.022453083
99	0x3d234743	0.039862882
100	0xbad0ed83	-0.0015939925
101	0x3c87b121	0.016563954
102	0x3bff12b8	0.007784214
103	0x3cdb9f43	0.02680934
104	0xbcbab57d	-0.022791618
105	0xbd26784d	-0.04064207
106	0xbc453122	-0.01203564
107	0xbcea9028	-0.028633192
108	0xbc6768f4	-0.014124144
109	0x3d4bcacb	0.049753945
110	0xbd4d1b29	-0.05007473
111	0x3ce44919	0.027866887
112	0x3bf02d0e	0.0073295897
113	0xbd309729	-0.043112908
114	0xbb2c2b0b	-0.0026270773
115	0x3ce5d86f	0.028057305
116	0x3cafdb80	0.02146697
117	0x3ce28857	0.027652903
118	0xbbd4909a	-0.0064869644
119	0xbd4126e6	-0.047156237
120	0xbd1cbadf	-0.03826415
121	0xbbd9ee0f	-0.0066506932
122	0xbd052a97	-0.03251132
123	0x3c82cfe4	0.01596827
124	0xbccc11da	-0.024910856
125	0x3c07a029	0.008277931
126	0xbc899764	-0.016795821
127	0x3c857e13	0.016295468
128	0x3ca06a61	0.019581975
129	0xbc6ca73b	-0.014444168
130	0xbbb61765	-0.005556988
131	0xbd1ad367	-0.037799265
132	0x3cbedd81	0.02329898
133	0x3bc08ff9	0.005876538
134	0x3bdb8ca2	0.0067001143
135	0xbb129aca	-0.0022370094
136	0x3c939e78	0.0180199
137	0x3c38e278	0.011284463
138	0xbc73029c	-0.014832165
139	0x3b25ec45	0.002531783
140	0xbd1a6a18	-0.037698835
141	0xbc4da202	-0.012550833
142	0xbce65bc0	-0.028119922
143	0xbbeb3919	-0.0071784374
144	0x3c926ac6	0.01787318
145	0xbc040fe6	-0.008060431
146	0x3ab3ee79	0.0013727687
147	0x3abd656e	0.0014449784
148	0x3d01876b	0.031623285
149	0xbb8213b3	-0.0039696335
150	0xbc345ab7	-0.011007956
151	0x3cb57e53	0.022154963
152	0x3cba0e3b	0.022711864
153	0x3cac5f27	0.021041466
154	0x3ab000f4	0.0013428018
155	0x3be17739	0.0068806675
156	0x39a8ea2f	0.00032217937
157	0x3cef5356	0.029214542
158	0x3b4ff686	0.0031732633
159	0xbc9cff9a	-0.01916485
160	0xbca4a5de	-0.020098623
161	0xbc10061e	-0.008790521
162	0xbd2a4ac1	-0.041575197
163	0xbd1648d2	-0.03669054
164	0x3c26a982	0.01017225
165	0xbd0f7364	-0.035022154
166	0x3c888976	0.016667109
167	0xbcb1c134	-0.021698572
168	0xbd53293c	-0.051552996
169	0xba2af356	-0.0006521245
170	0xbc9f7a5c	-0.019467525
171	0xbcf355d9	-0.029704021
172	0xbc118b75	-0.008883347
173	0xbcbbb935	-0.022915462
174	0xbc705912	-0.0146696735
175	0xbc2586c6	-0.010102933
176	0xbc737922	-0.014860423
177	0xbc8b0622	-0.016970698
178	0xbb80188c	-0.003909176
179	0x3c693336	0.014233401
180	0x3c426139	0.011864
181	0xbd284f0e	-0.041091017
182	0x3d0169c4	0.031595007
183	0x3b508d20	0.0031822398
184	0x3baaff73	0.00521844
185	0xbb8124b8	-0.003941145
186	0x3c814c2f	0.015783397
187	0xbb463b0b	-0.0030247595
188	0x3c0104bb	0.007874663
189	0x3cc99c98	0.024610803
190	0xbc52e433	-0.01287179
191	0x3bef9827	0.007311839
192	0x3c9a6dd7	0.018851204
193	0x3ca67501	0.020319464
194	0xbc161baf	-0.009161874
195	0x3c96a3ef	0.018388717
196	0x3c821650	0.01587978
197	0x3ce0061a	0.02734666
198	0x3b3fa4fa	0.002924262
199	0x3ce60815	0.028080026
200	0xbcef0d1b	-0.029181054
201	0x3cea1fdf	0.02857965
202	0x3c187693	0.009305614
203	0x3c086ab1	0.008326218
204	0x3c62406c	0.013809305
205	0x3aaae400	0.001303792
206	0xbca81350	-0.020517021
207	0xbba5759a	-0.0050494196
208	0xbbdad083	-0.0066776886
209	0xbd371b15	-0.04470356
210	0x3caccd55	0.021094004
211	0xbc1ff1ea	-0.009762267
212	0x3c450bd6	0.012026748
213	0xbc8125e4	-0.015765138
214	0x3ba9e37d	0.0051845894
215	0x3c7eda2f	0.015554949
216	0x3c0f584f	0.008749082
217	0xbc009d47	-0.007849998
218	0xbcb4374c	-0.021999024
219	0xba59b3ed	-0.0008304704
220	0x3b0d0ed7	0.0021523738
221	0xbc088ea9	-0.008334794
222	0xbc50b8bf	-0.012739359
223	0xbbbd7861	-0.0057821725
224	0x3c9a6d96	0.018851083
225	0xba8b8251	-0.0010643696
226	0xbb8b34ae	-0.0042482233
227	0xbd12176a	-0.03566686
228	0xbc170135	-0.009216596
229	0xbcbabc42	-0.022794846
230	0x3ca7f23b	0.020501247
231	0x3ce0d5d5	0.027445713
232	0x3c993b40	0.01870501
233	0xbc69ad9f	-0.014262586
234	0x3b2149c1	0.002461061
235	0xbc6af80b	-0.014341365
236	0xbc1397d1	-0.009008364
237	0xbce84e4b	-0.028357645
238	0x3aa376bb	0.0012471298
239	0x3bb24af4	0.005441064
240	0x3d032430	0.032016933
241	0xbb866bef	-0.004102222
242	0x3c5f78c4	0.013639633
243	0x3c0c7009	0.008571633
244	0x3a905cb9	0.0011013962
245	0x3c1b9dec	0.009498101
246	0xba8a9410	-0.001057269
247	0x3b827157	0.0039807963
248	0xbc6491ce	-0.013950778
249	0xbc8c40dc	-0.017120771
250	0x3b5c60f7	0.0033627131
251	0x3ca6c479	0.020357357
252	0xbc23e873	-0.010004151
253	0xb91db6e4	-0.00015040819
254	0x3cbe8462	0.023256484
255	0x3cd8bbdf	0.026456771

network_body.linear_encoder.seq_layers.0.bias f4 [128]
0	0x3c76801d	0.015045193
1	0xbc1c2d2f	-0.009532257
2	0xbbd68c80	-0.0065475106
3	0xbc522011	-0.012825028
4	0x3cd55b8c	0.02604463
5	0x3c916a3c	0.017750852
6	0xbc7a15ad	-0.015263957
7	0xbba54b48	-0.0050443746
8	0x3cf1e124	0.0295263
9	0x3c964ae7	0.018346263
10	0x3cde48f7	0.027134402
11	0xbcb0daea	-0.021588761
12	0x3a90c381	0.0011044593
13	0xbc4acd54	-0.012378056
14	0x3cef776d	0.029231751
15	0x3c95068d	0.0181916
16	0xbb22cb39	-0.0024840368
17	0xbbc1c8e3	-0.00591384
18	0x390870e5	0.00013012027
19	0xb86b4a7d	-5.609774e-05
20	0x3c7a1486	0.015263682
21	0xbcafb18a	-0.021446962
22	0x3d02b91b	0.03191481
23	0x3c0eeb41	0.008723081
24	0xbcb95e3f	-0.022627948
25	0x394fb1a5	0.00019807236
26	0x3cabc5b0	0.020968288
27	0x3d043327	0.032275345
28	0xbc1127b1	-0.008859561
29	0xbc2ed931	-0.0106719
30	0x3b3678cb	0.0027842994
31	0x3ca31a97	0.01991014
32	0xbb4bf661	-0.0031122195
33	0xbc81eca6	-0.015859913
34	0x3c14d47d	0.009083864
35	0x3cdad5bd	0.026713246
36	0x3cc0f967	0.023556424
37	0xbc92c954	-0.017918266
38	0xbc0a3cce	-0.0084373485
39	0x3c1e9ad8	0.009680472
40	0x3c0055b1	0.00783293
41	0x3c48ddc0	0.012259901
42	0xbc8f04cb	-0.01745834
43	0x3c16eca2	0.009211691
44	0xbc5fafcc	-0.013652753
45	0x3cfa1e94	0.030532159
46	0xbca4e714	-0.020129718
47	0x3c47ea0b	0.012201796
48	0x3cbf1bb6	0.023328643
49	0x3c874926	0.016514372
50	0x3b9d1189	0.00479335
51	0x3cf05bb9	0.029340612
52	0xbc7320ca	-0.0148393605
53	0x3c34cf9b	0.011035825
54	0x3cb7f38e	0.022455003
55	0x3c3e8831	0.01162915
56	0x3cb19589	0.02167775
57	0x3cb3e517	0.021959824
58	0x3c6c68db	0.014429296
59	0x3ba18ccc	0.0049301144
60	0x3c982546	0.01857246
61	0x3ca953cd	0.020669842
62	0xbc762a4a	-0.015024731
63	0xbb20c68b	-0.0024532403
64	0x3cf4c8c8	0.029880896
65	0x3c8e3efa	0.017364014
66	0x3b9da705	0.00481117
67	0xbb915fbb	-0.004436461
68	0x3d0b8390	0.034061015
69	0xbc8f6773	-0.017505383
70	0xbc82d766	-0.01597185
71	0x3bc7615a	0.0060846033
72	0x3b0c6cdb	0.0021427188
73	0xbc628002	-0.013824465
74	0x3d073a6e	0.033014707
75	0xbb86f5b4	-0.0041186456
76	0x3c8f284c	0.01747527
77	0x3c582a7a	0.013193721
78	0x3cd12375	0.025529603
79	0x3cf8e87d	0.030384297
80	0xbc61457e	-0.013749478
81	0xbb250690	-0.0025180914
82	0x3cd0db7a	0.02549528
83	0x3c311bb0	0.010809824
84	0x3d03d70a	0.0321875
85	0x3bbc6caa	0.0057502585
86	0xbb927840	-0.0044699013
87	0xbc1484b5	-0.009064843
88	0xbcfb6d77	-0.030691845
89	0x3c938ecd	0.018012429
90	0x3c55090f	0.013002648
91	0xbb89ab97	-0.0042013633
92	0x3c1c2377	0.00952994
93	0xbc009d68	-0.007850029
94	0x3c673cde	0.014113633
95	0xbc1cbd0f	-0.009566559
96	0x3cc2549a	0.023721982
97	0x3b2d4282	0.0026437347
98	0x3bdd724f	0.0067580114
99	0x3d05d8dc	0.032677516
100	0x3cf11549	0.029429095
101	0x3c92443f	0.017854808
102	0xbc3dc20e	-0.011581911
103	0x3b031593	0.0020001873
104	0x3ca22d69	0.019797044
105	0x3cf7ddef	0.030257193
106	0x3c8e3009	0.01735689
107	0x3cd0186e	0.025402274
108	0x3d04d74a	0.03243188
109	0x3ceebeae	0.029143658
110	0x3cf88bd0	0.030340105
111	0xbbfe9929	-0.007769723
112	0x3cd2a526	0.025713515
113	0x3d05092a	0.032479443
114	0x3c967f3b	0.018371215
115	0x3b8c56d3	0.004282811
116	0xbc94659b	-0.018114856
117	0xbc21d531	-0.009877489
118	0xbccbb5d7	-0.024866981
119	0x3c75e27e	0.015007613
120	0x3a94d568	0.0011355104
121	0x3c9b14bb	0.018930783
122	0xbc570781	-0.013124348
123	0xbc94d1ae	-0.01816639
124	0xbc4b196d	-0.012396199
125	0xba263396	-0.00063400844
126	0xbba24bac	-0.0049528684
127	0x3c6d74be	0.014493166

network_body.linear_encoder.seq_layers.0.weight f4 [128, 410]
0	0xbb4b035d	-0.0030977346
1	0x3ce0074f	0.027347235
2	0xbd3f787b	-0.04674576
3	0x3c6c1490	0.014409199
4	0x3c69d49c	0.014271881
5	0xbd08eca5	-0.033428807
6	0x3c22431a	0.009903694
7	0x3d5a0cb8	0.053234786
8	0x3cf3d60c	0.029765151
9	0xbd20e2eb	-0.039278906
10	0xbdcfcb27	-0.1014617
11	0x3c23dfa4	0.010002051
12	0x3ccb1cd4	0.02479402
13	0x3bde7160	0.0067884177
14	0x3d2efd84	0.04272224
15	0xbd70da3b	-0.05880187
16	0xbcf125ba	-0.029436935
17	0x3d046d4a	0.03233079
18	0x3d404843	0.046943914
19	0xbd4334be	-0.04765772
20	0x3d0607a6	0.032722138
21	0x3d7f509d	0.06233274
22	0x3977a06e	0.0002361552
23	0x3b881bce	0.004153705
24	0x3ca0b4f6	0.019617539
25	0x3d116e05	0.035505313
26	0xbdb4344f	-0.087990396
27	0xbd06e125	-0.03292956
28	0xbd2b7b7e	-0.04186582
29	0x3d1fba9a	0.038996316
30	0xbd39d12b	-0.045365494
31	0x3ddd52fe	0.10806845
32	0x3cca5145	0.024696955
33	0xbd1a7076	-0.037704907
34	0x3cc35b8d	0.023847366
35	0xbd1a8298	-0.0377222
36	0x3d2f5872	0.042808957
37	0xbc0f739c	-0.008755591
38	0x3bb5f680	0.0055530667
39	0xbcc22f5d	-0.023704225
40	0xbc1614f3	-0.009160268
41	0xbcef18ba	-0.029186595
42	0x3d51dd43	0.051236402
43	0xbba7935f	-0.0051140036
44	0xbd83c88f	-0.06434738
45	0xbc804434	-0.015657522
46	0xbdbd6380	-0.09247494
47	0x3d2f7a62	0.042841323
48	0xbd1d1cc1	-0.0383575
49	0xbd5bba47	-0.053644445
50	0xb9a18892	-0.00030810066
51	0xbd64b675	-0.055838067
52	0xbcd0d302	-0.025491241
53	0x3d6e722c	0.05821435
54	0x3ba09937	0.004901077
55	0xbce0cdd3	-0.027441895
56	0x3d2712fa	0.04078958
57	0xbda4482f	-0.080215804
58	0xbcae7de1	-0.021300258
59	0xba9a1508	-0.0011755535
60	0x3db83dd2	0.08996166
61	0x3d4ebebd	0.05047487
62	0x3d94cb63	0.072653554
63	0x3d6162a4	0.05502571
64	0xbcd35df6	-0.02580164
65	0x3d33f5b7	0.043935504
66	0xbd0ca651	-0.0343383
67	0x3d20cd1f	0.03925812
68	0xbc3b9218	-0.011448406
69	0x3b1ef275	0.0024253402
70	0xbd5818a0	-0.05275786
71	0xbd71c704	-0.059027687
72	0x3c83521e	0.016030367
73	0xbd098f31	-0.033583824
74	0x3cfcf811	0.030880006
75	0x3c400954	0.011720974
76	0x3d03e2f8	0.032198876
77	0xbd479f9b	-0.048736196
78	0xbd611011	-0.054946963
79	0x3dbf78fa	0.09349246
80	0x3c658152	0.014007883
81	0x3d515dbd	0.051114786
82	0xbd38ab96	-0.045085512
83	0xbd915b39	-0.070974775
84	0xbd67f0a8	-0.056625992
85	0x3c5395cc	0.012914132
86	0x3c996d90	0.018729001
87	0xbdd66bbe	-0.10469769
88	0xbd2c48e4	-0.0420617
89	0x3d809be9	0.062797375
90	0xbc94ec52	-0.018179093
91	0xbc468b01	-0.012118102
92	0xbc048e4a	-0.008090565
93	0x3d173b22	0.036921628
94	0xbb358e6b	-0.0027703296
95	0xbbd75a17	-0.006572019
96	0xbd106f35	-0.035262305
97	0x3d5e819e	0.05432283
98	0x3c9c6b37	0.019094093
99	0x3dde4e35	0.108547606
100	0x3d765b80	0.060145855
101	0xbcb33bb8	-0.021879062
102	0x3e35cfa1	0.17754985
103	0x3c9809e8	0.018559411
104	0x3cad134a	0.021127362
105	0x3b7a43ff	0.0038187501
106	0x3c5b92de	0.013401715
107	0x3cb885ce	0.02252474
108	0x3c1a99fb	0.009436126
109	0xbd98d823	-0.074631
110	0xbd1fb0eb	-0.03898708
111	0x3e0f22fc	0.13978189
112	0x3d6ac3ff	0.057315823
113	0xbd36138b	-0.04445223
114	0xbc8b0b37	-0.016973121
115	0x3cd549d8	0.026036188
116	0xbb4e6537	-0.0031493434
117	0x3d698202	0.05700875
118	0xbd7bd034	-0.061477855
119	0x3c74f2ae	0.0149504375
120	0x3cbf74e0	0.02337116
121	0x3d1fca38	0.03901121
122	0xbdad08be	-0.08448933
123	0x3d9a132f	0.0752319
124	0xbbc2e6a9	-0.005947907
125	0xbcd6e661	-0.0262329
126	0xbcb1564c	-0.021647595
127	0x3d84bc3b	0.064812146
128	0xbcf7db85	-0.030256042
129	0xbde5427a	-0.1119432
130	0xbc832eae	-0.01601347
131	0xbcdcce78	-0.02695392
132	0x3db25e3b	0.08709379
133	0x3d9a4fc8	0.07534748
134	0xbd80c121	-0.062868364
135	0xbcc53071	-0.02407095
136	0x3c13c1f2	0.009018408
137	0xbb9bd997	-0.0047561633
138	0xbda746d9	-0.0816781
139	0x3dd21d1b	0.10259458
140	0x3d13f934	0.03612633
141	0x3cbc28a5	0.0229686
142	0x3c9987c5	0.018741498
143	0x3da5a5ac	0.0808824
144	0xbcad83f3	-0.021181082
145	0x3d5b7cf9	0.05358598
146	0xbd1db67b	-0.038504105
147	0x3cb3c0d5	0.021942535
148	0x3c4aedcd	0.012385798
149	0x3cac76d0	0.021052748
150	0x3cfb200b	0.030654928
151	0xbe0f2dcc	-0.13982314
152	0xbd09c321	-0.033633355
153	0x3dad8aa8	0.08473712
154	0x3d5dfaaf	0.05419415
155	0x3bafd732	0.0053662295
156	0xbd657d51	-0.056027714
157	0x3d563204	0.052293792
158	0x3cc6d566	0.024271678
159	0xbcddc41b	-0.02707105
160	0xbd0c618c	-0.034272715
161	0x3b8ce2a3	0.004299478
162	0x3d6a7076	0.057236157
163	0xbd4c226a	-0.049837507
164	0x3b051cd0	0.0020311363
165	0x3da8d376	0.08243458
166	0xbd633b53	-0.055476498
167	0x3dae0a4b	0.08498057
168	0x3df1ffb8	0.118163526
169	0x3d525a39	0.051355574
170	0xbd098b79	-0.033580277
171	0x3ccd14e2	0.025034372
172	0xbced53ef	-0.028970687
173	0x3d572220	0.05252278
174	0xbd5e8ace	-0.054331593
175	0x3cb7df94	0.022445478
176	0x3d4acbd8	0.049510807
177	0x3dd11cc9	0.102105685
178	0xbcebd08a	-0.028785963
179	0xbd3532a0	-0.044237733
180	0x3d6ac3cf	0.057315644
181	0x3d84b815	0.06480423
182	0xbcf6294e	-0.030048992
183	0xbd984c99	-0.07436485
184	0x3d368c6f	0.04456752
185	0xbd35fd38	-0.04443094
186	0xbda8d430	-0.082435966
187	0x3db951c9	0.090488024
188	0xbd9277b2	-0.07151736
189	0xbd773036	-0.060348712
190	0xbd46276a	-0.048377432
191	0x3dc6de4e	0.0971037
192	0xbc6d91a3	-0.0145000545
193	0x3c61606a	0.013755897
194	0xbda50b06	-0.08058743
195	0xbcdf3d5a	-0.027250934
196	0xbc7dcae1	-0.015490265
197	0xbcc1c598	-0.02365379
198	0xbb58644f	-0.0033018773
199	0x3d43d74c	0.047812745
200	0x3cc91cf6	0.024549942
201	0x3d3187ba	0.04334233
202	0xbd2d65a3	-0.042333256
203	0x3cd19907	0.025585664
204	0xbc90417e	-0.017609354
205	0xbbf1ecce	-0.0073829656
206	0x3d2d7ab8	0.04235336
207	0x3c62519b	0.013813402
208	0x3dd3d630	0.103435874
209	0xbc8f5c01	-0.017499926
210	0xbde2f2ec	-0.1108149
211	0x3d896d88	0.067103446
212	0x3c96134d	0.01831975
213	0x3d7c2ed6	0.061568104
214	0x3c3136d3	0.010816294
215	0x3b06c50d	0.0020564229
216	0xbd54da88	-0.05196622
217	0x3cf27bd8	0.029600069
218	0x3b16bfe0	0.002300255
219	0xbb95c38d	-0.0045704306
220	0x3d4b9c52	0.049709626
221	0xbdcb5cb7	-0.09929793
222	0xbda2ea90	-0.079548955
223	0x3bb95a59	0.0056565222
224	0xbc84a5ef	-0.016192405
225	0xbd2d4a29	-0.042307053
226	0xbd343b44	-0.044001833
227	0xbd2c9e25	-0.042143006
228	0x3d0c5ebd	0.034270037
229	0xbccf17d7	-0.025279922
230	0xbd92f8d9	-0.0717637
231	0xbda22703	-0.07917597
232	0xbcb1e2e2	-0.021714631
233	0xbce35d50	-0.027754456
234	0xbc58acb4	-0.013224769
235	0x3dd08cc3	0.10183098
236	0xbc844168	-0.01614447
237	0xbceba9e4	-0.028767534
238	0x3b58f6d9	0.0033106117
239	0xbc3950c0	-0.011310756
240	0x3d906273	0.07050028
241	0x3af43268	0.0018630745
242	0xbd9b53ee	-0.07584368
243	0xbd10d43d	-0.035358656
244	0x3d14ebf8	0.03635785
245	0x3c8531b9	0.016259061
246	0xbd820a1e	-0.06349586
247	0x3d247e0b	0.040159266
248	0x3dd9ae17	0.10628908
249	0x3bae3a26	0.0053169904
250	0xbc1839a7	-0.009291089
251	0x3d9ea30b	0.07745942
252	0x3ca06a54	0.019581951
253	0x3bcf554e	0.006327308
254	0xbbf46205	-0.007457974
255	0x3e0b3cdb	0.13597433

network_body.linear_encoder.seq_layers.2.bias f4 [128]
0	0xbca55935	-0.020184139
1	0x3bed348a	0.007238929
2	0xbcb4df77	-0.022079213
3	0x3bfa02c7	0.0076297256
4	0x3c83d3e8	0.016092256
5	0xbba310e7	-0.00497638
6	0x38b0943e	8.419946e-05
7	0xbc9fbc55	-0.019498983
8	0xbc6b87cb	-0.014375637
9	0xb9126a29	-0.00013963193
10	0x3c8cff41	0.017211558
11	0xbc2b7e44	-0.010467116
12	0x3b040df1	0.0020149911
13	0xbc86bd4d	-0.016447688
14	0x3bcb14e5	0.006197559
15	0x3ce9ea6f	0.02855417
16	0xbc96abe7	-0.018392516
17	0xbbdee261	-0.006801889
18	0xbbb795b4	-0.005602563
19	0x3cf415ba	0.029795516
20	0x3ae5f36a	0.0017543857
21	0x3cdefcd9	0.027220177
22	0x3c757611	0.0149817625
23	0x3c0a332c	0.008435052
24	0x3c801fab	0.0156401
25	0xbb7cd3f5	-0.0038578485
26	0xbc927445	-0.017877707
27	0xbb833cd2	-0.004005053
28	0xbc71951f	-0.014745026
29	0x3be34694	0.006935904
30	0x3cdfcb60	0.027318656
31	0xbb9f9bfb	-0.0048708892
32	0x3c684947	0.014177627
33	0xbc84396d	-0.016140664
34	0xbb1d4896	-0.0023999563
35	0x3c5b7b55	0.013396104
36	0x3cd20044	0.025634892
37	0x3c98cf85	0.01865364
38	0x3cc211d2	0.023690138
39	0x3ca64b61	0.020299615
40	0x3c585649	0.013204166
41	0x3ba4d1a1	0.0050298725
42	0x3ce85f02	0.028365616
43	0x3ce46451	0.027879866
44	0xbc8edde5	-0.017439792
45	0x3cbeb55d	0.02327984
46	0xbb9c2424	-0.0047650505
47	0x388c354d	6.685648e-05
48	0x3ba5cf8f	0.0050601433
49	0xbc88dfb6	-0.016708236
50	0x3cfc6898	0.030811593
51	0x3c7087cd	0.014680815
52	0xbb33ee26	-0.002745518
53	0x3c212adb	0.009836878
54	0xbbf2da1d	-0.007411255
55	0xbcb7952b	-0.022409996
56	0x3bfe57aa	0.007761915
57	0x3ce10db9	0.027472364
58	0xbc005403	-0.00783253
59	0xbc8856bb	-0.016642919
60	0x3ce903fe	0.028444286
61	0x3b21d69c	0.0024694568
62	0x3cf56889	0.029957073
63	0x3a645683	0.0008710401
64	0x3cf42bf7	0.02980612
65	0xbc0d91be	-0.008640705
66	0x3d012ee4	0.03153886
67	0x3c73d586	0.014882451
68	0x3cb85775	0.02250264
69	0x3bdc2994	0.0067188237
70	0x3cb1c588	0.021700636
71	0x3c3a5e72	0.011375057
72	0x3c8bcd2f	0.017065613
73	0x3a3b9717	0.0007155998
74	0xbc6e0e87	-0.014529831
75	0x3ccca93a	0.024983037
76	0x3bef5cc5	0.00730476
77	0xbc2c214c	-0.0105059855
78	0x3cf26179	0.029587494
79	0xbc5c5f5c	-0.01345047
80	0x3b5ba320	0.0033513978
81	0x3c078a8a	0.008272776
82	0x3c522de8	0.012828328
83	0xbc3a2e21	-0.011363537
84	0x3c3dd8b0	0.011587307
85	0x3b8d908b	0.0043202094
86	0xbc9fedbe	-0.019522544
87	0x3ccf4987	0.025303615
88	0xbc6ba4fd	-0.014382598
89	0xbc1547c0	-0.009111345
90	0xbbcaae07	-0.0061852965
91	0xbc960ce5	-0.018316695
92	0x3cb9f401	0.022699358
93	0x3c0ec669	0.008714297
94	0x3c92600e	0.017868068
95	0x3cc8ee11	0.024527581
96	0x3bb92d07	0.0056511196
97	0x3ce558f4	0.027996518
98	0xbc31c84b	-0.010850976
99	0x3cac6a3b	0.021046748
100	0x3b13efa6	0.0022573262
101	0x3cb20017	0.021728558
102	0x3c32ba85	0.0109087275
103	0x3c89b003	0.016807562
104	0xbcbb14b5	-0.022837022
105	0xbc806297	-0.015672011
106	0xb998bda2	-0.00029132987
107	0xbc68f0c6	-0.014217561
108	0x3bd6b711	0.006552585
109	0x3cbe47bb	0.023227563
110	0xbc9a3c35	-0.018827537
111	0x3cf4f492	0.029901776
112	0x3b2750ef	0.0025530418
113	0xbbfc4fe9	-0.0076999557
114	0xbbdf9ee6	-0.006824362
115	0x3cab8828	0.020938948
116	0x3ce3c369	0.02780314
117	0x3ce45f02	0.027877335
118	0xbc1e9a75	-0.00968038
119	0xbca0d52d	-0.0196329
120	0xbc941b4d	-0.018079424
121	0x3c76d647	0.015065736
122	0xbc90ab53	-0.017659819
123	0x3c7eccf7	0.015551797
124	0xbc94ddc6	-0.018172156
125	0x3bf509a6	0.007477957
126	0x3b81ae13	0.003957519
127	0x3c942ce2	0.018087808

network_body.linear_encoder.seq_layers.2.weight f4 [128, 128]
0	0xbd07eb02	-0.033183105
1	0xbd9f8dd8	-0.077907264
2	0xbe358743	-0.1772738
3	0x3d85dda9	0.06536419
4	0xbdbe6781	-0.092970856
5	0xbdba7dfd	-0.091060616
6	0xbe75a286	-0.23987779
7	0xbacc2d71	-0.0015577507
8	0x3cd75f1a	0.026290465
9	0xbd1db25e	-0.038500182
10	0xbd0c4ba2	-0.034251817
11	0x3df92d9e	0.12166904
12	0xbdf20bba	-0.11818643
13	0x3e6216d4	0.2207902
14	0xbd723098	-0.059128374
15	0xbe2f1bd8	-0.17100465
16	0xbde9b35f	-0.114111654
17	0xbd2c3868	-0.04204598
18	0x3d4e61b2	0.05038614
19	0xbe3fe990	-0.18741441
20	0xbd4f006f	-0.050537523
21	0x3c03d070	0.008045301
22	0xbe6f2442	-0.23353675
23	0x3dae1894	0.08500782
24	0x3e09295b	0.13394682
25	0x3d9b57fd	0.07585142
26	0x3e143599	0.14473571
27	0xbd087198	-0.033311456
28	0xbe388739	-0.18020333
29	0x3cd98061	0.026550474
30	0x3bfded42	0.0077492306
31	0x3d3f25d4	0.046666935
32	0xbd19be3b	-0.037534934
33	0xbd456c7d	-0.048199166
34	0x3dd97c8b	0.10619458
35	0xbd7d464b	-0.061834615
36	0xbcf1f7af	-0.02953705
37	0x3e140683	0.14455609
38	0xbdc6b7be	-0.09703015
39	0xbd410de6	-0.047132395
40	0xbd5742f2	-0.05255408
41	0xbd7f1a07	-0.06228068
42	0xbc34f4a0	-0.011044651
43	0xbd258daf	-0.040418323
44	0xbd0e6c68	-0.034771353
45	0xbd3044ed	-0.043034483
46	0xbcc8be35	-0.02450476
47	0x3de1789a	0.11009331
48	0x3db5a7e9	0.08869917
49	0x3cb4a3c3	0.022050744
50	0xbd9f7c65	-0.07787398
51	0xbdc6ef62	-0.097136274
52	0xba7a6d67	-0.00095530454
53	0x3e0d3f90	0.13793778
54	0xbe05e5b0	-0.130759
55	0x3de92b89	0.11385257
56	0x3df05ebc	0.11736819
57	0x3e04617b	0.12927811
58	0xbdbae7bc	-0.09126231
59	0xbd987ce9	-0.074457
60	0xbdba4d2f	-0.09096753
61	0xbd8c57a9	-0.06852657
62	0xbcaf4adb	-0.021397999
63	0x3c587eff	0.013213872
64	0xbce0863a	-0.027407754
65	0x3d4a607d	0.049408425
66	0xbd93c810	-0.07215893
67	0x3d3f5f53	0.046721768
68	0xbd7da2aa	-0.061922707
69	0x3e2f99f0	0.17148566
70	0x3e18e013	0.14929228
71	0x3d4da55d	0.05020653
72	0x3d7f94a2	0.062397607
73	0xbdd2b398	-0.10288161
74	0x3d78ae3a	0.06071303
75	0x3d725a51	0.059168164
76	0xbcc6d4b9	-0.024271356
77	0xbd3bc4a9	-0.045841847
78	0xbd004308	-0.031313926
79	0x3e107478	0.1410693
80	0xbd5853d9	-0.05281434
81	0xbe2c0ab2	-0.16800955
82	0x3dbe8959	0.09303541
83	0x3bb55bc5	0.0055346214
84	0xbdd6c548	-0.10486847
85	0x3e324837	0.1741036
86	0xbd3b42c5	-0.045717973
87	0x3da4d919	0.080492206
88	0x3d59613c	0.053071246
89	0x3d093192	0.03349454
90	0xbe69a723	-0.22817664
91	0x3d309616	0.043111883
92	0x3da0b43b	0.07846876
93	0xbd95dc2f	-0.07317387
94	0x3d01f3f2	0.031726785
95	0xbd24b9d4	-0.040216282
96	0xbc93ded4	-0.018050589
97	0x3daf2b9c	0.0855324
98	0xbe01ea76	-0.12687096
99	0x3d126405	0.035739917
100	0x3d6da458	0.05801806
101	0xbcd8c2a4	-0.02646
102	0x3d8bb69c	0.06821939
103	0xbd90bae0	-0.070668936
104	0xbcdabf8f	-0.02670267
105	0x3b99f4f2	0.004698389
106	0xbde90019	-0.11376972
107	0xbb8511fb	-0.0040609813
108	0xbbc45d49	-0.005992566
109	0x3d414efc	0.047194466
110	0x3deccce2	0.11562516
111	0xbd93e615	-0.07221619
112	0xbda3580e	-0.079757795
113	0xbbcf384f	-0.006323851
114	0x3ddce5e4	0.10786036
115	0xbdc742c8	-0.097295344
116	0x3c89e159	0.016831087
117	0xbb8b20f5	-0.004245872
118	0xbd8bfeae	-0.06835686
119	0xbdbb8217	-0.09155672
120	0x3dc4af56	0.09603755
121	0x3dbf01b1	0.093264945
122	0xbc9269b1	-0.017872663
123	0x3d1c1e9d	0.038115133
124	0x3e066507	0.13124476
125	0x3e2a560d	0.16634388
126	0xbca8a214	-0.020585097
127	0x3d877ce7	0.0661562
128	0xbd1e62a5	-0.038668294
129	0xbe2cf9fe	-0.1689224
130	0x3d8f82d3	0.070073746
131	0xbd6f587b	-0.05843399
132	0xbd976edd	-0.07394192
133	0x3b368edb	0.0027856145
134	0x3c873f7b	0.016509762
135	0xbdbaf04f	-0.091278665
136	0x3dff0221	0.12451578
137	0x3d76ea73	0.060282182
138	0x3d66525e	0.056230895
139	0xbd1e97ed	-0.038719106
140	0x3ce3ea3f	0.027821658
141	0xbdb77252	-0.08957352
142	0x3e2914d7	0.16511856
143	0xbd46c931	-0.048531715
144	0x3d84a0c2	0.064759746
145	0x3d6a69b0	0.057229698
146	0x3db5d5a4	0.08878639
147	0xbdabe3f3	-0.08393087
148	0xbdfe7f01	-0.12426568
149	0xbe14d433	-0.14534073
150	0x3dce246c	0.10065541
151	0x3c6023fb	0.013680453
152	0xbe137750	-0.14400983
153	0xbe32449b	-0.17408983
154	0x3d9ae12e	0.07562481
155	0x3b728eb4	0.0037011327
156	0x3e8ef504	0.27921307
157	0x3cdc1277	0.026864273
158	0xbd166806	-0.0367203
159	0x3c30265a	0.010751331
160	0xbd50fb88	-0.05102113
161	0x3e560954	0.20901996
162	0xbe06687c	-0.13125795
163	0xbd001fe9	-0.031280432
164	0x3d9504b2	0.07276286
165	0xbccf9ae5	-0.025342414
166	0xbc59cb18	-0.01329305
167	0x3e1f3bd2	0.15550163
168	0x3dcbbba2	0.099478975
169	0xbc4dce71	-0.0125614265
170	0x3e3145c2	0.17311767
171	0x3e43e861	0.19131614
172	0x3b55887d	0.0032582574
173	0x3d9fb158	0.077974975
174	0x3d2fe44f	0.04294234
175	0x3bf66a1b	0.007519973
176	0xbdb77a19	-0.08958835
177	0x3de8db30	0.11369932
178	0xbe2d87e4	-0.1694637
179	0xbd4d7dd2	-0.05016882
180	0xbd8c596d	-0.06852994
181	0xbe28326e	-0.16425487
182	0xbe23da9a	-0.16001359
183	0xbc791fee	-0.015205367
184	0x3bfca2ae	0.0077098226
185	0xbd9da7c5	-0.07698015
186	0xbe06acb5	-0.1315182
187	0xbc295f0e	-0.010337604
188	0xbcb9e8aa	-0.02269395
189	0xbdb35641	-0.08756686
190	0xbd6b546a	-0.05745355
191	0x3d3f26fd	0.04666804
192	0xbdadf605	-0.0849419
193	0x3d39deab	0.04537837
194	0x3da62ec3	0.08114388
195	0xbd1908f6	-0.03736206
196	0x3dd05e84	0.101742774
197	0x3c72c575	0.014817585
198	0xbd37669b	-0.044775587
199	0xbd2414a0	-0.040058732
200	0x3ce16554	0.027514137
201	0x3dcafee8	0.09911901
202	0x3e67f04a	0.22650257
203	0xbd4127a8	-0.04715696
204	0xbdedf32b	-0.11618646
205	0x3c876cf9	0.016531454
206	0x3c064a97	0.008196495
207	0x3e262c80	0.16227913
208	0xbd23a3a9	-0.039951
209	0xbd9fc952	-0.07802071
210	0x3de2df6f	0.11077773
211	0x3dac5c4f	0.08416044
212	0xbd8f2805	-0.06990055
213	0x3d310b0a	0.04322342
214	0x3d977003	0.073944114
215	0xbd8e47ea	-0.0694731
216	0xbdf60169	-0.12011988
217	0x3b5392a1	0.0032283443
218	0x3cb50640	0.022097707
219	0x3dfd7b78	0.123770654
220	0xbd796f9a	-0.060897447
221	0x3d15df75	0.03659006
222	0xbdcb5523	-0.09928348
223	0xbe5a84de	-0.21339747
224	0xbd9aaec5	-0.07552866
225	0x3dddb1fb	0.10824963
226	0x3e74d757	0.2391027
227	0xb6af9f06	-5.233919e-06
228	0xbd1a7f7b	-0.03771923
229	0x3add4b81	0.0016883464
230	0xbc77580d	-0.015096677
231	0x3dfce516	0.12348382
232	0xbe27ed6b	-0.16399162
233	0xbdabc290	-0.08386719
234	0xbd91a6ec	-0.07111916
235	0xbdf08a59	-0.11745138
236	0x3b3421fb	0.0027486074
237	0xbbd4e318	-0.0064967982
238	0xbc81cea0	-0.015845597
239	0x3d9b9e2b	0.075985275
240	0x3dc68e3f	0.096951
241	0xbdf4adc8	-0.11947209
242	0x3d824fbb	0.06362864
243	0x3df14380	0.11780453
244	0x3d985e02	0.074398056
245	0x3ce82134	0.028336145
246	0xbe5c1c12	-0.21495083
247	0xbe42c88f	-0.1902182
248	0xbb779972	-0.003778067
249	0x3dbaee87	0.09127527
250	0xbd9c0ea7	-0.07619982
251	0x3d11c44b	0.03558759
252	0x3d6bba61	0.05755079
253	0x3d380050	0.044922173
254	0x3dabf82c	0.083969444
255	0x3d55209e	0.05203306
