Assets/results/Run07/Robot Path Finder/Robot Path Finder-245863.onnx (onnx, 280587 bytes, 6 tensors)

distribution.branches.0.bias f4 [4]
00000000: 4ffc c53c b6a9 de3a e456 a7bb c5e7 b5bc
0.024168162 0.0016987834 -0.0051067937 -0.022205243

distribution.branches.0.weight f4 [4, 128]
00000000: 3eeb 72bc ff7b 42bb d814 c7bc 3f46 c43b
00000010: a9bf d73c f7a7 bfbc c809 debc 531b 9abc
00000020: 569f 1abd 27d3 83bc fdb5 d43c e34c 1abc
00000030: acdc 913c c4f5 1cbd 798f 1b3c b665 9a3c
00000040: 0b29 b9bc 3610 963a fb80 8ebc 4574 df3c
00000050: a550 c0bb 0de6 ae3c 7b22 683c 5753 9e3a
00000060: 014c c33c a249 abbc 7488 0cbd 032d edbc
00000070: 7a32 f7bc 63c5 11bc 4997 bb3c 2f6c bbbc
00000080: fede 013c 57d6 c5bc a27c c1bc ea99 5d3c
00000090: 0c10 a73c 2149 993c cf68 b63c 7c53 b6bb
000000a0: c008 b43c ea4d 283c 56f2 2f3d 9873 043d
000000b0: fa3d 05bd 6366 153d b3ad 45bc 39f9 e5bb
000000c0: fe0d 983b 0984 19bd 4e74 083d 323f cb3c
000000d0: 5c88 fcbb 01c7 d63b dfaf 88bb 63c9 b2bc
000000e0: f561 533c c66e 093d 197f c7bc 8dd6 efbc
000000f0: 8a62 e53c 3f84 34bc 6bf9 fb3c 1a19 c93b
00000100: 4177 0b3d eb69 9cbc f282 1d3d 2f8f 4e3c
00000110: 28e8 383c 4f4e 8dbc 6fc8 df3c 8d11 8abb
00000120: 34e2 ec3c 718f 85bc 6afb b6bc f8e7 9d3c
00000130: ccf7 573c 70f6 06bd 8d81 053d 615c b1bc
00000140: eac0 333c af1d 063c d92b 503b 7407 d0bc
00000150: cf87 283c c320 773c dbe6 03bd bb9c cf3c
00000160: 8b42 febc 8be9 ccbc 412b b8bc 9897 d1bc
00000170: 8f4b ab3c 915b c03c 55ca 553c 6515 d13c
00000180: 4740 61bb 6ffd 4a3d faaa b8bc c2d8 223d
00000190: a74a 0bbb a4fa 863c 87f7 053c 62ed dc3c
000001a0: 958b bbbc 828d 26bd 90c9 3abc b54f ebbc
000001b0: b682 68bc 60a5 4b3d 2276 4dbd 34b6 e43c
000001c0: 1ba1 f63b 23fa 30bd f71d 3abb 8260 e83c
000001d0: 5590 af3c 4d63 e43c ff24 d8bb 4e46 41bd
000001e0: a52e 1dbd 1abe e5bb 7679 05bd f95d 843c
000001f0: 7e6d cdbc 29ba 073c fa30 84bc 5618 883c
00000200: 45cd a33c f71d 65bc 3702 aabb 463b 18bd
00000210: 5faa ba3c 086c ca3b 261a e83b 50ae d0ba
00000220: 4593 943c 6afd 3e3c 93f2 75bc 7993 353b
00000230: df96 19bd 1348 48bc f998 e4bc f177 f4bb
00000240: ee86 903c 9f52 01bc 940f e33a 7ad3 923a
00000250: 085b fc3c 2215 8fbb a495 36bc eba7 b13c
00000260: 0bd8 b13c a32d b03c eb29 e93a 7d01 ec3b
00000270: b3b4 1f3a 6e17 e93c 3afc 383b 7a60 99bc
00000280: b4c1 a4bc f9bc 0abc 9917 28bd caa5 14bd
00000290: 5076 1e3c b888 10bd 2b47 843c dbce acbc
000002a0: 859d 52bd a385 89ba 8c8f a0bc a2be f3bc
000002b0: d7ec 0bbc 91ba bbbc 8d46 6abc b84e 1fbc
000002c0: a10e 76bc 1d69 88bc fcee 83bb e270 603c
000002d0: 0168 3f3c e59c 26bd 2c4d 003d 3db8 643b
000002e0: c1e9 9f3b 08dc 88bb e471 843c 7683 2fbb
000002f0: 19ee fa3b fc03 c43c aae1 54bc d55c ec3b
00000300: 0632 973c 69cf a03c 687a 19bc be49 913c
00000310: 1f18 793c 95d3 d73c 3614 0a3b 9569 e03c
00000320: 0fce ecbc 793e e93c 9d3b 1e3c ee93 033c
00000330: f653 593c b44c cf3a 1dde a9bc 7a26 9bbb
00000340: 8732 ddbb 3020 33bd e71f a63c 9c1b 1bbc
00000350: 1ba9 3a3c f22e 82bc bbe2 b53b 4900 7a3c
00000360: fb04 143c 2fc9 f6bb afb5 b0bc 709c 06ba
00000370: 1e99 ea3a 5515 0ebc a246 51bc 4b95 c6bb
00000380: 0fce 973c a826 a5ba 7b05 80bb 2e05 12bd
00000390: 3290 13bc b614 bdbc 06a5 a23c 9f91 dc3c
000003a0: 4b5b 9c3c 9288 64bc de61 1f3b 2bea 64bc
000003b0: 1eb1 0ebc 4955 eabc 11f9 c73a b4fc a33b
000003c0: a12c 003d 4e05 78bb e508 633c 87c2 033c
000003d0: 1e35 133a 59f8 113c 988a 37ba d872 8f3b
000003e0: c314 5ebc 1145 88bc 1684 713b ee0d a23c
000003f0: 14b1 1ebc 9d2e 9db9 0183 ba3c 90d2 d43c
-0.014826594 -0.0029675958 -0.024301931 0.0059898193 0.026336508 -0.023395522 -0.027104273 -0.018811857
-0.03774961 -0.016091896 0.025965685 -0.009417745 0.01780542 -0.038320318 0.009494656 0.018847328
-0.022602579 0.0011448923 -0.017395487 0.027277121 -0.0058689886 0.021349931 0.014168377 0.001207928
0.023839952 -0.020909134 -0.03430982 -0.028952127 -0.030175436 -0.008897158 0.022899287 -0.022878734
0.007926701 -0.024150057 -0.023619 0.0135254655 0.020393394 0.018711628 0.022266774 -0.0055641513
0.021976829 0.010272482 0.04295572 0.0323368 -0.03252981 0.036474597 -0.012065339 -0.007018235
0.00464034 -0.037479434 0.03331404 0.024810407 -0.007706685 0.006554485 -0.004171356 -0.021824544
0.012901773 0.033552907 -0.024352597 -0.02927711 0.028001089 -0.011017858 0.03075858 0.0061370255
0.034049276 -0.019093474 0.038454957 0.01260738 0.011285819 -0.017249255 0.027317254 -0.004213518
0.028916456 -0.01630375 -0.02233668 0.01927565 0.013181638 -0.032949865 0.032594252 -0.021650495
0.010971287 0.008185788 0.0031764416 -0.025394179 0.010286286 0.015083495 -0.032202583 0.02534329
-0.03103759 -0.025013706 -0.022481563 -0.02558498 0.020910053 0.023481162 0.013048728 0.025522897
-0.0034370588 0.0495581 -0.022542465 0.039757498 -0.0021254213 0.016476937 0.008176691 0.026968662
-0.022893706 -0.040662296 -0.011400595 -0.02872453 -0.01419132 0.04971826 -0.05016149 0.027918912
0.0075265295 -0.0432073 -0.0028399208 0.028366331 0.021431128 0.027879382 -0.006596207 -0.04718619
-0.03837456 -0.0070111873 -0.032586537 0.01615809 -0.025076624 0.00828413 -0.016136635 0.016613167
0.019995341 -0.013984195 -0.0051882523 -0.037165903 0.022786317 0.006177429 0.0070831953 -0.001592109
0.01813663 0.011657098 -0.0150114475 0.0027706309 -0.037497398 -0.012224215 -0.027904974 -0.007460587
0.017642464 -0.007893234 0.0017323368 0.0011201941 0.030805126 -0.004366533 -0.011144076 0.021686515
0.021709463 0.021506136 0.0017788982 0.007202326 0.0006092295 0.028453555 0.002822651 -0.018722761
-0.020111896 -0.008467906 -0.04103813 -0.03629092 0.009671763 -0.035286635 0.016147217 -0.02109473
-0.051419754 -0.0010492097 -0.019599698 -0.029753987 -0.008540354 -0.02291611 -0.014299047 -0.009723358
-0.015018136 -0.016651684 -0.004026292 0.013698788 0.011682511 -0.04067697 0.031323597 0.0034899854
0.0048801606 -0.0041766204 0.016167589 -0.0026781238 0.007657778 0.023927681 -0.012993256 0.007213215
0.01845647 0.01963015 -0.009367563 0.017735358 0.015203505 0.026346007 0.0021069176 0.027394095
-0.02890685 0.028472172 0.009657768 0.008030875 0.013264647 0.0015815706 -0.020735795 -0.0047348114
-0.006750408 -0.04373187 0.020278884 -0.009467032 0.011392857 -0.015891526 0.00555071 0.015258857
0.009034391 -0.007531307 -0.021571008 -0.00051350053 0.0017898416 -0.008672078 -0.012773188 -0.0060602776
0.018530874 -0.0012600021 -0.0039069033 -0.03564947 -0.009006547 -0.023081165 0.01985408 0.026924906
0.0190865 -0.0139485765 0.0024319808 -0.013971846 -0.00870922 -0.02860512 0.0015256723 0.00500449
0.03129256 -0.0037844959 0.013857101 0.008041984 0.000561552 0.008909308 -0.0007001548 0.004377704
-0.013554755 -0.016634496 0.003685241 0.019782033 -0.009685773 -0.00029980103 0.022767546 0.02597931

network_body.linear_encoder.seq_layers.0.bias f4 [128]
00000000: 2e53 6e3c 68ff 1abc 0535 d7bb 76f5 50bc
00000010: 8e5a d43c 27aa 913c 4ef6 75bc 792b c6bb
00000020: d038 f03c 07b5 933c f306 db3c 2dc2 b2bc
00000030: 2e23 d43a 43eb 5dbc 925b ef3c 8576 943c
00000040: 5b9e 33bb d82b c4bb 8b26 4eba 8503 8938
00000050: 3ac6 7e3c 9fdb aebc b17c 023d 70f5 fd3b
00000060: 353f b6bc 7930 253a 3773 ac3c cb2d 043d
00000070: 77b0 0fbc 9dd4 1cbc 7551 173b 1892 a23c
00000080: 10c1 56bb 1efa 7abc 197c 0e3c 5726 db3c
00000090: cc46 c03c 7bc4 91bc 767b 15bc 8b07 1c3c
000000a0: a1f1 f83b 961a 3f3c b20b 88bc 48ea 123c
000000b0: 80aa 6cbc 1ea5 f83c 831d a9bc 8a02 463c
000000c0: e088 bd3c 0271 803c e4f0 a13b 8f7c eb3c
000000d0: e012 82bc b69c 2d3c b112 b73c 744e 3b3c
000000e0: 949d ae3c 6043 b33c 7227 6c3c 1bcc 8d3b
000000f0: fccb 943c 806a aa3c 6784 83bc 6cd3 41bb
00000100: 98e0 f23c 8dfe 913c f43d 913b 804f b0bb
00000110: b474 0a3d c90a 90bc 7d78 7cbc 4e57 bf3b
00000120: 9698 f63a 49e0 63bc d770 063d 888b 9dbb
00000130: 3250 8a3c 6754 553c 1166 d23c 3fdf f83c
00000140: bdf9 5cbc 189d 17bb f8dd cf3c 0fb8 273c
00000150: 3bf4 023d 9f9f a33b 41ed 9fbb 2ce6 0cbc
00000160: d262 f6bc 6790 933c 0cc6 553c 66ea 84bb
00000170: d6cf 193c 76f9 1cbc ecc2 623c 2f03 19bc
00000180: 28be c03c 1862 3b3b 2ca1 d43b 3840 053d
00000190: 91cb ef3c 3038 903c 1358 3abc a5bb 133b
000001a0: b213 9f3c 5e8a f53c 8e3c 893c 7322 d03c
000001b0: 9af4 033d 7a3f ed3c 3bf9 f83c 002d e8bb
000001c0: 9f59 d33c 0c85 033d 0edc 963c 5921 943b
000001d0: 96fa 97bc dba7 25bc cfe4 c8bc 9b86 6f3c
000001e0: 046a 25b9 18b1 9d3c ddcb 68bc efa8 93bc
000001f0: 5fb5 47bc bb3b 8bba 861d b1bb 792d 643c
0.014546199 -0.009460308 -0.0065675997 -0.012753835 0.025922086 0.01778133 -0.015012337 -0.006047663
0.029323965 0.018030657 0.026736712 -0.021821106 0.0016184801 -0.01354486 0.029218469 0.01812292
-0.002740762 -0.005986672 -0.000786402 6.5333246e-05 0.015550191 -0.021344958 0.031857196 0.0077502057
-0.022246936 0.00063014735 0.021051032 0.032270234 -0.0087701 -0.009572175 0.0023089324 0.019845054
-0.0032768883 -0.015318422 0.008696579 0.02675168 0.023471259 -0.017793885 -0.009123674 0.009523283
0.007597164 0.011664053 -0.01660714 0.00896699 -0.014444947 0.030352172 -0.020643955 0.012085566
0.023136556 0.015678886 0.0049420465 0.028745918 -0.01587814 0.010596445 0.02234778 0.011432279
0.021315373 0.021882713 0.014413701 0.00432731 0.018163674 0.020802736 -0.016054345 -0.002957548
0.02964811 0.017821575 0.004432434 -0.005380571 0.033802703 -0.017583268 -0.015409586 0.005839265
0.0018813785 -0.013908454 0.032822456 -0.004807893 0.016883943 0.013020611 0.025683435 0.03037989
-0.013487277 -0.0023134407 0.025374398 0.010236754 0.031971198 0.0049933936 -0.004880578 -0.008599799
-0.030076418 0.018013192 0.013047706 -0.004056263 0.009387931 -0.0095809605 0.013840418 -0.009339138
0.023528174 0.0028592404 0.0064889397 0.032531947 0.029271873 0.017604917 -0.011373538 0.0022542265
0.019418571 0.029973205 0.016752508 0.025407052 0.032215692 0.028960932 0.03039228 -0.0070854425
0.02579957 0.032109305 0.018415477 0.004520577 -0.018552106 -0.010110821 -0.024523167 0.014619495
-0.0001577512 0.019249484 -0.014208761 -0.01802489 -0.012189238 -0.001062266 -0.005405131 0.013926857

network_body.linear_encoder.seq_layers.0.weight f4 [128, 410]
00000000: c6ed 8ebb 9287 d03c 7b78 3fbd aa0a 603c
00000010: ac67 633c 6ae1 09bd c884 223c 50ad 563d
00000020: 21fa ec3c 5b99 21bd 27cb cfbd 500a 153c
00000030: d704 c73c 4541 e33b 38fd 2e3d 897f 74bd
00000040: a015 f7bc 431f ff3c 2b36 403d 3bdc 46bd
00000050: 5992 023d fc77 7f3d b594 7339 0d39 483b
00000060: f61f 993c 84c2 0a3d 113b b4bd 0149 09bd
00000070: 911c 2dbd d09b 213d b6d4 39bd 7443 db3d
00000080: 90b6 b43c 7c01 16bd c627 c33c 4c28 1bbd
00000090: 3716 2d3d dd9d 1abc 8cdc b53b 25b6 c9bc
000000a0: 8cbd 24bc 8896 e7bc cbdc 513d 0a8f b8bb
000000b0: f683 84bd dc03 80bc c664 bdbd b095 2b3d
000000c0: 61a6 22bd 7bb8 52bd 9273 9db9 a4a5 65bd
000000d0: 48fc cfbc f6d0 6f3d e484 a03b fb07 e7bc
000000e0: 40ee 213d 97b9 9fbd 966d aebc 3b3b c1ba
000000f0: 4f22 b73d b262 4d3d fac9 943d 2b34 5e3d
00000100: 610f d7bc 09d6 323d 82a4 0cbd 1b8f 1f3d
00000110: f0a9 3bbc 2211 e43a 631b 58bd ab65 75bd
00000120: 14e7 863c ec22 06bd 20ed fc3c adba 363c
00000130: 5efc 013d a8d8 44bd 8b15 61bd 337f bd3d
00000140: 5273 5f3c e2e5 513d f9b4 38bd e74b 92bd
00000150: 8e0e 6abd 2a42 5e3c a362 993c 1776 d8bd
00000160: 6692 2dbd 5ba2 803d ef03 95bc 0397 51bc
00000170: c57f 0dbc c629 0e3d c8e5 35bb 8620 eebb
00000180: 47b2 0ebd 40fa 5f3d d753 9c3c c5ff dc3d
00000190: 8fb7 783d bcb2 c2bc 42ce 353e 05d6 8e3c
000001a0: 4122 bb3c 74a4 773b 5272 5b3c 87f7 b03c
000001b0: 1253 183c 23f6 98bd 60b6 1fbd 76fb 0d3e
000001c0: 0958 723d a408 2fbd 1e17 8bbc 694a cc3c
000001d0: 5ca2 38bb d728 693d c7d5 7bbd a28d 623c
000001e0: e42d c03c 9616 163d b50b adbd 61ef 983d
000001f0: e3cd c1bb d95f d8bc c05e b1bc 0029 823d
00000200: ea56 fbbc 92dc e5bd 863a 83bc 532b e0bc
00000210: b2bf b13d 1ccf 9a3d 4ac3 80bd 1687 cebc
00000220: b590 213c a500 a9bb d349 a7bd 75fe d03d
00000230: 73b0 143d 07ea b93c 2d7f 993c 1d58 a33d
00000240: 0333 b1bc d552 5a3d 79bc 1dbd 4956 b23c
00000250: 89bc 473c eb89 ac3c 6b17 fb3c 03ef 0fbe
00000260: b106 0abd 0ddb ae3d 55f4 5d3d 6523 a93b
00000270: 25e5 66bd 9461 563d 8fcc c63c 08b1 e5bc
00000280: 4d39 05bd e879 c93a 266a 6a3d 378b 4fbd
00000290: 25a1 d63a 168d a83d c63f 63bd 90be ab3d
000002a0: ed7a f23d d3b4 4a3d ce91 09bd bcdf c83c
000002b0: 56ec eebc 9d2e 573d 818f 5ebd b770 af3c
000002c0: 1d45 483d fc3e cf3d 27dd ebbc 3f34 35bd
000002d0: d342 6e3d f9c2 833d f332 f6bc a957 9abd
000002e0: 5d5e 313d 603f 35bd 7dd7 a8bd 4abc b93d
000002f0: e5e8 90bd d41a 76bd 8e2c 46bd d4af c43d
00000300: 57be 66bc 251a 6a3c a30d a5bd 743f debc
00000310: 40c7 81bc 0dac b6bc 68b8 58bb 7f52 403d
00000320: e014 ca3c 7fae 313d 2d6b 2dbd 681f d33c
00000330: 00ca 8bbc c0ea f3bb 0076 2d3d d9c6 523c
00000340: 735a d53d 8850 94bc 95f5 e2bd 289d 893d
00000350: c770 8b3c 4183 7c3d a124 313c 9050 b43a
00000360: 39fa 53bd 5491 f43c 956c 163b a06e 8cbb
00000370: d955 463d b4c2 c9bd caec a2bd f04f a13b
00000380: 8a5e 8abc bb51 2bbd 5e40 34bd f421 29bd
00000390: 3311 073d 0a7a eabc 11fb 92bd f6f9 a3bd
000003a0: e67a aebc 71fc ecbc dec0 58bc c7b6 d13d
000003b0: 7746 91bc 96cb ebbc 96b0 583b 25a9 46bc
000003c0: d495 903d 762d e03a 3e55 9bbd 83c0 0fbd
000003d0: 2f35 143d c59b 843c 4a0c 82bd df39 203d
000003e0: f61f da3d f4e5 cb3b 4221 18bc 3823 9f3d
000003f0: 0e89 a33c 75d2 d83b ca84 f4bb 92fb 093e
-0.004361841 0.02545527 -0.04674576 0.0136744175 0.013879698 -0.033662237 0.009919353 0.052411377
0.028927865 -0.03945289 -0.1014617 0.009096697 0.0242943 0.006935271 0.042721957 -0.05969194
-0.030161679 0.031142836 0.04692666 -0.048549872 0.03187785 0.062370285 0.00023229684 0.0030551583
0.018691998 0.03387691 -0.088003285 -0.033516888 -0.04226357 0.039455235 -0.045368873 0.10706225
0.022059709 -0.03662251 0.023822676 -0.037880227 0.042257514 -0.009437052 0.005549973 -0.024622986
-0.010054957 -0.028270021 0.051235955 -0.005632286 -0.06470482 -0.01562684 -0.09247737 0.0418908
-0.039709453 -0.051445466 -0.0003003148 -0.05606617 -0.025388852 0.05854889 0.0048986543 -0.028202048
0.039533854 -0.0779907 -0.021292489 -0.0014742384 0.08942091 0.05014295 0.072650865 0.05424897
-0.02625245 0.04366115 -0.034336574 0.038954835 -0.0114540905 0.0017400126 -0.052760493 -0.05991141
0.016467609 -0.032748148 0.030874789 0.011152905 0.031734817 -0.048058182 -0.054952186 0.09252777
0.013638334 0.051244624 -0.045094464 -0.071433835 -0.057142787 0.013565579 0.018723791 -0.10569399
-0.042375945 0.06280967 -0.018190352 -0.012792352 -0.00863642 0.034707807 -0.0027755369 -0.0072670607
-0.034837987 0.054682016 0.019082947 0.10790972 0.06072193 -0.023766868 0.17754462 0.017436037
0.022843482 0.003778723 0.013393955 0.021602405 0.009297149 -0.07468822 -0.038992286 0.13865456
0.059165988 -0.04273285 -0.016978797 0.024937825 -0.0028172946 0.056923714 -0.06148317 0.013827713
0.023459382 0.036642633 -0.084494986 0.07467533 -0.005914436 -0.026412891 -0.021651626 0.063554764
-0.030681092 -0.11223711 -0.016019117 -0.027364409 0.08679141 0.07559034 -0.062872484 -0.025210898
0.009861161 -0.0051575475 -0.08168378 0.10204784 0.036301088 0.0226946 0.0187374 0.07975791
-0.02163077 0.05330165 -0.03850982 0.02176966 0.012190946 0.021061858 0.030650815 -0.1405602
-0.033697788 0.08537874 0.05418809 0.00516169 -0.056370873 0.05233915 0.024267463 -0.028038517
-0.03252535 0.0015371414 0.057230137 -0.050669875 0.0016374929 0.08230035 -0.05548074 0.08385956
0.118398525 0.049488854 -0.033586316 0.024520747 -0.029165428 0.05253469 -0.054336075 0.021416051
0.048894037 0.10119435 -0.028791977 -0.04423928 0.058169197 0.064336725 -0.030053591 -0.07536251
0.043302882 -0.044249892 -0.08244226 0.090691164 -0.07075671 -0.06008418 -0.048382334 0.09603849
-0.0140834665 0.01428846 -0.080592416 -0.027129866 -0.01584208 -0.022298837 -0.00330689 0.046953674
0.024668157 0.043379303 -0.04233854 0.025771812 -0.017064095 -0.007443756 0.04234886 0.012864792
0.104176424 -0.018104807 -0.11081997 0.06719428 0.01702155 0.06164861 0.010811956 0.001375692
-0.051752303 0.029854454 0.0022952904 -0.0042856485 0.048421714 -0.0985159 -0.0795532 0.0049228594
-0.016890783 -0.04182599 -0.044006698 -0.041292146 0.032975387 -0.028622646 -0.07176793 -0.08006661
-0.021298837 -0.028928967 -0.013229577 0.1023994 -0.017733796 -0.0287836 0.0033064238 -0.012125288
0.070598274 0.0017103392 -0.07584618 -0.035095703 0.036183532 0.016187558 -0.0635 0.03911769
0.10650627 0.006222481 -0.009285273 0.07770389 0.019962814 0.0066168853 -0.0074621188 0.13474873

network_body.linear_encoder.seq_layers.2.bias f4 [128]
00000000: cb1e a6bc 5a58 ee3b 5a64 b0bc 5ea3 f23b
00000010: 9144 813c 7c6c a1bb e6dc 49b9 e405 9dbc
00000020: 1a0b 75bc 94f4 28b9 0327 8e3c 93bb 28bc
00000030: 5083 0e3b 1620 88bc d251 c83b 135c e83c
00000040: b740 9abc afdb cdbb 88cd babb fc42 f33c
00000050: dc70 a93a 2074 de3c be8f 743c fb87 fd3b
00000060: 790d 7e3c 667f 88bb d640 94bc 276c 6ebb
00000070: 9f00 6abc 0f11 d23b f832 dd3c 0ede 9dbb
00000080: d3b9 6a3c f377 83bc 4fd3 faba cc99 5d3c
00000090: 0047 cd3c f451 993c 459f be3c 5bdd a63c
000000a0: ce26 583c 0af0 913b 53f2 e83c 063d e53c
000000b0: e3e3 8cbc 708e bf3c 7245 97bb da23 7939
000000c0: 54af a63b 7522 88bc ef2a fc3c 8e01 703c
000000d0: 11b3 70bb 738f 1e3c 4a92 01bc 8f21 b6bc
000000e0: 6304 f33b 074a e13c fd23 07bc 78d3 88bc
000000f0: bc4e e73c cee5 f43a 2496 f53c a726 ba39
00000100: 522a f03c 28fb 1bbc d2d9 003d b3f8 6c3c
00000110: 364e b63c 9784 c23b 83eb b03c cd41 333c
00000120: b9e2 8b3c 0990 65b8 3f52 79bc 01dd c73c
00000130: bc8f d53b 043a 21bc 988e f23c 2f9f 5bbc
00000140: 2db4 653b 55b3 ff3b d153 4a3c 580d 34bc
00000150: 17a0 343c bbdd 8e3b 89d2 a1bc 1e75 cc3c
00000160: 063e 68bc dd99 15bc 4fb5 d2bb 6969 95bc
00000170: 61fa b93c 2831 0f3c 6f51 943c aa8e c83c
00000180: 2719 ae3b c6b0 e53c 50a6 31bc f970 ac3c
00000190: 5daa 513b 7781 af3c d2f7 2c3c f15a 883c
000001a0: 54e3 bfbc e2ed 77bc 83f6 7bba dd9f 6abc
000001b0: a2a7 cb3b c716 bf3c ceea 95bc 9dc5 f23c
000001c0: 0a74 f93a 4396 ebbb cca2 eabb cce9 ab3c
000001d0: ecbb e23c a45f e13c 9afb 1bbc b6cf 9dbc
000001e0: 1fed 94bc 0cec 793c 44ca 8cbc 22ad 7b3c
000001f0: b429 91bc b410 df3b 641a 683b d581 903c
-0.020278355 0.007273716 -0.021532226 0.007404729 0.015779765 -0.0049262624 -0.00019251145 -0.019167848
-0.01495626 -0.00016112841 0.017352587 -0.010298627 0.0021745749 -0.016616862 0.0061132694 0.028364217
-0.018829687 -0.006282292 -0.0057007708 0.029695027 0.0012927311 0.027154982 0.014926849 0.0077371574
0.015506142 -0.0041655777 -0.018097322 -0.0036380382 -0.014282375 0.006410725 0.027001843 -0.0048177307
0.0143265305 -0.016048407 -0.0019136461 0.013525438 0.02505827 0.018715836 0.023269305 0.020369222
0.0131928455 0.0044536637 0.028435862 0.0279832 -0.017198509 0.02338335 -0.004616433 0.00023759846
0.0050868187 -0.016617993 0.030782191 0.014648808 -0.0036727826 0.009677756 -0.007908413 -0.022232799
0.0074162944 0.02750112 -0.008248326 -0.016702399 0.028235786 0.001868421 0.02997882 0.00035505483
0.029317055 -0.00952033 0.03145773 0.014463591 0.02225409 0.005936216 0.021596676 0.010940981
0.017075883 -5.4731998e-05 -0.015217363 0.024397375 0.0065173786 -0.009840492 0.02960901 -0.013404652
0.003505002 0.0078033605 0.012349085 -0.0109895095 0.0110244965 0.0043599284 -0.019753711 0.02495819
-0.014174944 -0.009130922 -0.006430305 -0.01823874 0.022702398 0.008739747 0.018105237 0.02448209
0.005313057 0.028038394 -0.010842875 0.021049963 0.0031992414 0.021424038 0.010557132 0.016644927
-0.023423828 -0.015132399 -0.0009611623 -0.014320341 0.0062150517 0.02332629 -0.01830044 0.029635245
0.0019031775 -0.0071895435 -0.00716052 0.020985506 0.027677499 0.027511425 -0.009520436 -0.019264083
-0.018179474 0.015254032 -0.017186292 0.015361102 -0.01772008 0.006807411 0.003541612 0.017640034

network_body.linear_encoder.seq_layers.2.weight f4 [128, 128]
00000000: 7185 09bd 835f 9fbd e0b7 35be dc39 863d
00000010: b9bd bdbd 8ae8 babd e775 75be de6a e3ba
00000020: 694d d63c f314 1fbd 8db3 09bd 9d42 f93d
00000030: 935d f2bd 3d28 623e c5bc 72bd 986c 2ebe
00000040: d5f0 eabd d029 2cbd a603 4e3d fd0b 40be
00000050: 833d 51bd 764a 053c 825e 6fbe 0950 ad3d
00000060: 824a 093e 77eb 9a3d 515f 143e 8c46 08bd
00000070: 4a44 38be 7543 da3c b22e f73b 5e31 3e3d
00000080: b661 19bd c5fe 44bd ef2e d93d 6783 7ebd
00000090: ce07 f2bc 341c 143e e85b c7bd 027a 42bd
000000a0: 4671 58bd 9813 7fbd d673 2ebc 6316 27bd
000000b0: 0be8 0ebd d308 31bd 4d8f c8bc db24 e13d
000000c0: 53c7 b33d b22f b23c afad 9fbd 5f10 c7bd
000000d0: 0134 6aba 592c 0d3e 298c 05be d348 e93d
000000e0: 60ed ef3d 276e 043e d55f bbbd b003 99bd
000000f0: 72ab babd 9573 8cbd e529 b2bc ef8d 583c
00000100: 63d4 dfbc f49f 4b3d be1e 93bd 25f3 3e3d
00000110: a0b4 7dbd 7beb 2f3e a9f8 183e 02a7 4b3d
00000120: 0e14 7e3d 210c d3bd d2d4 783d cb5b 703d
00000130: e4ba c8bc 7ff8 38bd 9a4a 00bd 3686 103e
00000140: 50f4 57bd df9d 2cbe 0cbe bd3d 4fb3 c33b
00000150: e988 d6bd f84e 323e 0266 3bbd 11a6 a53d
00000160: 94da 593d 5909 083d d63b 6abe 1216 313d
00000170: 5cf9 9f3d 06ab 95bd 6f6d 013d 4b65 25bd
00000180: 611b 96bc e05c af3d bf55 01be 79e5 113d
00000190: a8b5 6c3d cb05 d5bc ebdc 8b3d 7beb 8ebd
000001a0: cd6e dcbc 6f1c ae3b 376a e9bd ebb2 8bbb
000001b0: 0936 c7bb 7162 413d 2a7b ec3d aabb 93bd
000001c0: 84f8 a3bd 127c c8bb 4e58 dc3d 3649 c7bd
000001d0: 3eac 853c 4399 94bb 0bc5 8bbd 3ddf bbbd
000001e0: cbcd c23d fdc3 bf3d f940 95bc e19b 1c3d
000001f0: 5c7e 063e eeeb 2a3e 1954 aabc 4651 873d
00000200: f559 1cbd ff05 2dbe cce8 8f3d 61a8 70bd
00000210: adbf 97bd 2a6b 1a3b c930 843c 2de2 babd
00000220: a0c3 fe3d fd3c 773d 2178 643d 49c2 1ebd
00000230: 6453 df3c 7499 b7bd cd40 293e 7b88 46bd
00000240: 15a2 823d 28a7 663d 1c0d b73d b155 adbd
00000250: 7f34 00be 25d7 14be 1128 ce3d d40e 683c
00000260: f689 13be 0c7e 32be 5589 9a3d 9ac8 803b
00000270: 62e9 8e3e 26b9 db3c 1b00 15bd 209c 313c
00000280: d616 51bd 62fd 553e 090e 06be 7971 03bd
00000290: d532 953d 9240 d0bc abe3 52bc 61e4 1e3e
000002a0: aa8d cb3d f0ee 41bc 8171 313e 5323 433e
000002b0: a8a1 563b 117e 9f3d 3aac 2f3d f49d f83b
000002c0: 51a4 b8bd b7fe e83d eb8d 2dbe 380d 4bbd
000002d0: 9d68 8cbd b388 27be dc83 23be c810 81bc
000002e0: 83ad fb3b 6146 9dbd 2d15 07be 23b2 24bc
000002f0: 4d51 bcbc a70f b4bd e1a8 6abd 6294 3e3d
00000300: 8fbf acbd f02f 393d 5107 a43d f6e8 19bd
00000310: 169c d03d 9dc0 703c 58a2 37bd 95f0 24bd
00000320: e74e dd3c a0b6 ca3d d7da 673e 6152 40bd
00000330: 321a eebd 655c 843c 7db4 053c 7258 263e
00000340: 62bf 23bd 528f a1bd e9f2 e13d 247b ae3d
00000350: 9846 8fbd 6dd5 303d 373d 973d d037 8ebd
00000360: 7621 f6bd 1353 373b b880 af3c 0860 fd3d
00000370: 2f16 79bd c96c 153d 1650 cabd 1acb 5abe
00000380: 529d 99bd 6ca0 dc3d c5a1 743e 9e10 49b8
00000390: ddc7 1bbd ed24 e33a 398b 77bc 56e6 fd3d
000003a0: 55b0 27be a174 aabd f9b3 90bd 6068 f2bd
000003b0: eca9 2d3b 0a4d d2bb a502 85bc 7293 9b3d
000003c0: fa01 c73d 66a1 f3bd 1121 823d 3e4b f13d
000003d0: e8da 973d ff00 eb3c 9c35 5cbe d937 43be
000003e0: 8a1a 97bb 3ffe b93d 1040 9cbd 577c 113d
000003f0: 8c34 6b3d 0174 383d 8266 ab3d 9f74 533d
-0.033574525 -0.07781889 -0.17745924 0.065540045 -0.09264702 -0.091263846 -0.23970757 -0.0017350574
0.026159959 -0.038838338 -0.0336185 0.121709086 -0.11834254 0.22085662 -0.059262056 -0.17033613
-0.11471716 -0.042032063 0.05029645 -0.18754573 -0.051084053 0.008135429 -0.23375896 0.08462531
0.13407329 0.075644426 0.14489485 -0.033270404 -0.179948 0.026643494 0.0075434083 0.0464338
-0.0374467 -0.04809453 0.10604655 -0.062137034 -0.029544737 0.14463884 -0.097343266 -0.047479637
-0.0528424 -0.062274545 -0.010647735 -0.040792834 -0.034889262 -0.043221306 -0.024482394 0.10993358
0.087782525 0.021751259 -0.077967994 -0.097199194 -0.0008934141 0.13786449 -0.13041748 0.11390843
0.117151976 0.12932645 -0.09149138 -0.074714065 -0.09114732 -0.06857983 -0.021748492 0.013217433
-0.027322954 0.04971309 -0.07183598 0.0466186 -0.061939836 0.17179672 0.14938606 0.049719818
0.062030844 -0.10305048 0.060749836 0.05868129 -0.024503179 -0.04515886 -0.031321146 0.14113697
-0.05272323 -0.16857098 0.09264764 0.005972303 -0.10475332 0.17412937 -0.04575158 0.08088315
0.053186968 0.03321204 -0.22874388 0.04323394 0.078112334 -0.07308011 0.031598505 -0.040379804
-0.018323602 0.085626364 -0.12630366 0.035619233 0.05779043 -0.026003739 0.06829246 -0.06978508
-0.026908303 0.005313448 -0.11397212 -0.004263272 -0.0060794395 0.04721302 0.11546929 -0.072135285
-0.08006385 -0.006118306 0.1075903 -0.09730761 0.016317483 -0.004534872 -0.06824692 -0.09173439
0.09511908 0.09363554 -0.018219458 0.038234595 0.1313414 0.16691563 -0.020792054 0.066072986
-0.038171727 -0.16896819 0.07026824 -0.05875433 -0.07409606 0.002356241 0.016136544 -0.09125171
0.12439656 0.060360897 0.055778626 -0.038759504 0.027261443 -0.08964816 0.16528626 -0.04847
0.06378571 0.056311756 0.08938047 -0.0846361 -0.12520026 -0.14535196 0.10066236 0.014163692
-0.14408097 -0.17430896 0.07545725 0.0039301636 0.27912432 0.026821684 -0.036377054 0.010840446
-0.05104717 0.20897439 -0.13091291 -0.032090638 0.07285086 -0.025421415 -0.012871663 0.15516807
0.0993913 -0.011836752 0.17328455 0.19056444 0.0032750163 0.07787717 0.042888857 0.007587189
-0.09015716 0.11376708 -0.16948669 -0.049573153 -0.06855891 -0.1636074 -0.15968269 -0.015755072
0.0076805963 -0.07679439 -0.13191672 -0.010052237 -0.022987986 -0.08792048 -0.05728996 0.046528228
-0.084349744 0.045211732 0.08009208 -0.037575684 0.10186021 0.01469436 -0.044832557 -0.0402685
0.027015163 0.09898114 0.22642075 -0.046953563 -0.1162609 0.016157338 0.008160708 0.16244677
-0.03997744 -0.07888664 0.110326596 0.08519581 -0.069958866 0.04317229 0.07384723 -0.06944239
-0.12018101 0.00279731 0.021423683 0.12371832 -0.06081217 0.0364807 -0.098785564 -0.2136654
-0.075007096 0.107727855 0.23889835 -4.793761e-05 -0.0380324 0.001732973 -0.015108877 0.12397449
-0.16375859 -0.083230264 -0.07065577 -0.11836314 0.0026498986 -0.006417875 -0.016236613 0.07596482
0.09717174 -0.11896019 0.06353963 0.117819294 0.074148 0.028686998 -0.21504825 -0.19064273
-0.004611318 0.09081697 -0.076294065 0.03551897 0.05742316 0.045032505 0.08369161 0.05162489
