Assets/results/Run04/RobotPathFinder/RobotPathFinder-34240.onnx (onnx, 280587 bytes, 6 tensors)

distribution.branches.0.bias f4 [4]
0	0x3c3c2f9c	0.01148596
1	0xbc226858	-0.009912573
2	0x3bc2609f	0.0059319283
3	0xbc1bb16a	-0.009502748

distribution.branches.0.weight f4 [4, 128]
0	0x3c96f78c	0.018428586
1	0xbbdeabd8	-0.0067953877
2	0xbc27b93c	-0.010237034
3	0xbc820b23	-0.015874451
4	0x3c8f06d4	0.01745931
5	0x3caafb94	0.020871915
6	0x3c39ed22	0.011348041
7	0xbb818f5e	-0.0039538583
8	0xbb553aba	-0.0032536224
9	0xbc604002	-0.013687136
10	0xbae97bec	-0.0017813421
11	0xbc87aa61	-0.016560735
12	0xbc04842b	-0.008088152
13	0x3c08b33a	0.008343512
14	0x3c2db518	0.010602258
15	0xbc77a7dc	-0.015115704
16	0x3b6abb4f	0.003581721
17	0x3bc113a2	0.005892233
18	0xbabd2236	-0.0014429751
19	0x3c6ff42e	0.014645619
20	0x3c863dcf	0.016386895
21	0xbcc718c1	-0.024303796
22	0xbc332402	-0.010933878
23	0x3bbd4a38	0.00577667
24	0x3caa7cd9	0.020811485
25	0xbc07df16	-0.008292934
26	0x3bb2a32d	0.005451581
27	0x3c572081	0.013130308
28	0xbca8ca26	-0.020604204
29	0x3940a37a	0.00018371447
30	0xbcbb0217	-0.022828145
31	0xbbb06af9	-0.005383846
32	0xbcb3ce94	-0.02194909
33	0xbc95da15	-0.018292466
34	0xbca086df	-0.019595562
35	0xbcc6a8db	-0.024250438
36	0xbc7618a9	-0.015020528
37	0x3ba5c9f8	0.005059477
38	0xbb17b893	-0.0023150786
39	0xbc0a1afa	-0.008429283
40	0x3bb822bb	0.0056193746
41	0x3c99728d	0.01873138
42	0x3ccec4c3	0.025240308
43	0x3b90963e	0.0044124415
44	0xbc203063	-0.009777161
45	0x3abff79a	0.0014645935
46	0xbc443ffa	-0.011978144
47	0xbb858202	-0.004074336
48	0xbc8128b2	-0.015766475
49	0xbb1b3dcd	-0.002368796
50	0xbcdfbd28	-0.027311876
51	0xbcc0b45f	-0.023523508
52	0xbc10b05e	-0.008831112
53	0x3bb6e759	0.005581778
54	0xbca1cd9a	-0.019751359
55	0xbc16e875	-0.0092106955
56	0x3bdff9bf	0.006835192
57	0xbb996556	-0.0046812696
58	0x3c439420	0.011937171
59	0x3ac6292e	0.0015118474
60	0xbbc832eb	-0.0061095855
61	0xbcbb83d5	-0.02289001
62	0xba4a9dca	-0.0007729201
63	0xbc2bf9cf	-0.010496571
64	0x3c812704	0.015765674
65	0x3be3ccfa	0.0069519253
66	0x3b4d4d18	0.003132647
67	0xbcf29eae	-0.02961668
68	0xbc1453a9	-0.009053149
69	0xbc8c7d5a	-0.017149616
70	0xbcde9beb	-0.027173957
71	0x3ca7067c	0.020388834
72	0xbc64ac25	-0.013957058
73	0xbc230c52	-0.009951668
74	0x3ca46c4d	0.020071173
75	0xbcb1bdde	-0.021696981
76	0xbccde8b3	-0.025135374
77	0x3c161646	0.009160584
78	0x3b2e75e9	0.0026620573
79	0xbc73038f	-0.014832391
80	0x3c8ab7b9	0.016933309
81	0xbc2d40bd	-0.010574517
82	0x3ca5c754	0.020236649
83	0xbc1ec99d	-0.009691623
84	0xbc1e41f2	-0.009659277
85	0x3c3489c2	0.011019172
86	0x3b196a91	0.0023409466
87	0x3c0213c0	0.007939279
88	0xbbe76488	-0.007061545
89	0x3c05e1f8	0.008171551
90	0x3bfc5e40	0.007701665
91	0xbadf164b	-0.0017020194
92	0xbc12001f	-0.008911162
93	0xbc9d74b7	-0.019220693
94	0x3c22ed53	0.009944278
95	0xbd06a1b8	-0.03286907
96	0x3c412322	0.0117881615
97	0x397375c7	0.00023218161
98	0xbbe97eea	-0.007125725
99	0xb9f89b0c	-0.00047417765
100	0x3bfdf911	0.0077506383
101	0xbc192025	-0.009346043
102	0x3b8d23b7	0.004307236
103	0xbc854e66	-0.016272735
104	0xbaa13780	-0.0012299865
105	0xbc84b18b	-0.01619794
106	0xbbc89201	-0.0061209206
107	0x3c53b99b	0.01292267
108	0x3b0ccd3b	0.0021484632
109	0x3be50270	0.006988816
110	0xbc7afe92	-0.015319483
111	0x3b6e5871	0.0036368633
112	0x3b6912cd	0.0035564185
113	0x3c6cd3a4	0.014454756
114	0xba0fac12	-0.00054806576
115	0x3cb8421f	0.022492466
116	0x3c86b761	0.016444864
117	0x3a3c9b41	0.00071947655
118	0xbcd0bcaa	-0.025480587
119	0x3bb8160e	0.0056178635
120	0x3c56d231	0.013111637
121	0xbbf35075	-0.0074253627
122	0xbc9a0edc	-0.018805914
123	0x3a9c441c	0.0011922154
124	0x3af9ae9c	0.001904923
125	0xbb0a1954	-0.0021072226
126	0xbcb34552	-0.02188364
127	0xbc807f25	-0.015685627
128	0x3c08bef6	0.00834631
129	0x3ccef887	0.025264991
130	0x3bc386e0	0.005967006
131	0x3bd62680	0.0065353513
132	0x3cb3cd56	0.021948498
133	0xbb63ddb3	-0.0034769594
134	0xbcea7727	-0.02862127
135	0xbc6e0c80	-0.014529347
136	0xbcdcad5e	-0.026938137
137	0x3c03280f	0.008005156
138	0xbbb2f8b7	-0.005461778
139	0x3c9ace93	0.01889733
140	0x3bc666f2	0.0060547525
141	0x3c720c0e	0.014773382
142	0x3d008f18	0.031386465
143	0x3cc048c8	0.023472205
144	0xbcd639a1	-0.026150526
145	0x3cda340d	0.026636148
146	0xba983f68	-0.0011615576
147	0x3c2d9995	0.010595699
148	0xbc341c52	-0.01099308
149	0x3c54f452	0.012997704
150	0x3c209987	0.009802229
151	0x3be7a9c3	0.0070697977
152	0x3d06c37a	0.032901265
153	0xbc966e41	-0.01836312
154	0xbc866b39	-0.01640855
155	0x3c04cb6c	0.00810514
156	0x3c877a69	0.016537862
157	0x3c3b7f7a	0.011443967
158	0x3c0c4759	0.0085619325
159	0xbc0c2305	-0.008553271
160	0xb9ae81e2	-0.00033284636
161	0x3c177097	0.009243152
162	0x3c81d7f2	0.015850041
163	0xbae063b3	-0.0017119556
164	0xbb720a8a	-0.0036932551
165	0xbbb5c7ec	-0.005547514
166	0x3cf35db5	0.029707769
167	0x3c6b84a5	0.014374887
168	0x3cdb1062	0.02674121
169	0xbaf8a5ce	-0.0018970312
170	0xbb504c99	-0.0031783937
171	0x3cb6c74c	0.022311829
172	0x3ca576b1	0.020198198
173	0x3bd70f08	0.006563071
174	0xbc84d400	-0.01621437
175	0x3c1d9555	0.009618123
176	0xbad56984	-0.0016282056
177	0xbac2b2a8	-0.0014854269
178	0xbc837a35	-0.016049484
179	0x3c82ebba	0.015981544
180	0xbc8b65e6	-0.017016362
181	0xbce6b02b	-0.028160175
182	0x3bae8a0f	0.0053265165
183	0x3bf8fa3e	0.0075981906
184	0x3c5efab2	0.013609575
185	0xbca597de	-0.020214017
186	0xbca27ea1	-0.019835772
187	0xbcc031a3	-0.023461169
188	0x3d095b23	0.03353418
189	0x3c2ad6ff	0.010427236
190	0xbd0a7fb1	-0.033813182
191	0xbc2d6194	-0.0105823465
192	0xbca94f16	-0.020667594
193	0xbbba871c	-0.005692376
194	0xbb9c47d0	-0.004769303
195	0xbce82f0e	-0.02834275
196	0xbc6a737e	-0.014309762
197	0xbad81149	-0.0016484644
198	0x3b15f049	0.0022878817
199	0x3bccf4aa	0.006254752
200	0x3b19ece3	0.0023487143
201	0x3ac4525b	0.0014978157
202	0x3cfb938f	0.03071001
203	0xbb66019b	-0.0035096172
204	0x3c809f82	0.01570106
205	0x3cd63795	0.02614955
206	0x3cbfd225	0.023415634
207	0x3bd6de1f	0.0065572406
208	0x3b8aa06d	0.00423055
209	0xbaeb1aaf	-0.001793703
210	0x3abc99d1	0.0014389103
211	0x3ba2d6f1	0.0049694707
212	0xb98244ea	-0.00024846877
213	0x3bf8ecac	0.007596573
214	0xbb0145d8	-0.0019725468
215	0xbb1eb084	-0.0024214098
216	0x3bbf6f38	0.0058421157
217	0x3c654802	0.013994219
218	0xbca2538d	-0.01981523
219	0x3c72991d	0.014807013
220	0x3baecf01	0.0053347354
221	0xbd130ae6	-0.035899065
222	0xbca417ab	-0.020030817
223	0x3cab40ed	0.020904982
224	0xbc5c348f	-0.013440265
225	0xbcdb81df	-0.026795326
226	0x3ca47585	0.020075569
227	0xbc4b0905	-0.012392287
228	0xbc93e9b2	-0.01805577
229	0x3cb45f77	0.022018177
230	0x3bf09ad9	0.007342678
231	0x3bc634a9	0.006048758
232	0xbbfce0b6	-0.0077172173
233	0x3a98d0de	0.0011658927
234	0xbd05bdf1	-0.032651845
235	0xbca7e711	-0.020495923
236	0x3c85c40a	0.01632883
237	0xbc656c81	-0.01400292
238	0xbc8a7168	-0.01689978
239	0xbceb865c	-0.028750591
240	0xbc17e3d2	-0.009270625
241	0x3c1bcd2c	0.009509366
242	0x3d049117	0.03236493
243	0x3bfcdd90	0.007716842
244	0x3c98b15e	0.018639263
245	0x3c390f36	0.0112951305
246	0xbcbcf0e2	-0.02306408
247	0xbc9517d0	-0.018199831
248	0x3ba1c0b6	0.004936303
249	0x3b5d5717	0.0033773833
250	0x3c637cf5	0.013884773
251	0xbcbd2985	-0.023091087
252	0x3c448d0a	0.011996517
253	0xbc84770b	-0.016170045
254	0x3b5a9fbb	0.0033359367
255	0xbb872692	-0.004124471

network_body.linear_encoder.seq_layers.0.bias f4 [128]
0	0x3c31869f	0.010835319
1	0x3c3ec017	0.0116424775
2	0x3c8d9945	0.017284999
3	0x3bc20e9a	0.005922151
4	0xbbb0d026	-0.005395907
5	0x3c53c8c6	0.012926286
6	0x3c2109cb	0.009828995
7	0x3b4e4425	0.0031473723
8	0x3bf1210b	0.0073586754
9	0x3bb22e78	0.0054376684
10	0xbb70de36	-0.0036753542
11	0x3a18956c	0.00058206054
12	0x3c6e1281	0.014530779
13	0x3b5511f1	0.0032511915
14	0xbb22ca85	-0.002483995
15	0x3c571719	0.0131280655
16	0x3c696cc0	0.014247119
17	0x3a8ba39f	0.0010653621
18	0x3c578b59	0.013155782
19	0x3c1785b6	0.009248188
20	0x3c443d2d	0.011977476
21	0xbc4b4b39	-0.012408071
22	0x3bd0459d	0.006355955
23	0x3c7500a1	0.014953763
24	0x3b8e8c30	0.0043502077
25	0x3b58e1b7	0.003309352
26	0x3c1eaac8	0.009684272
27	0x3b3db3e4	0.0028946334
28	0x3a38a287	0.00070432614
29	0xbc8055b0	-0.015665859
30	0xb93e4e94	-0.00018149085
31	0x3b539fc1	0.0032291266
32	0xbb9988b0	-0.004685484
33	0xba50f998	-0.00079717627
34	0x3c2a0a94	0.010378499
35	0x3ba5d8eb	0.005061259
36	0x3be712fc	0.0070518237
37	0x3c06f23f	0.008236467
38	0x3b0b6f3a	0.0021276013
39	0x3a700af1	0.0009156904
40	0x3c9fdfbf	0.01951587
41	0x3c062d9b	0.008189584
42	0xbbcbd6f2	-0.006220692
43	0x3ba57fcd	0.0050506354
44	0x3c4f9c84	0.012671594
45	0xbb8d8063	-0.0043182834
46	0x3c2f9f74	0.010719169
47	0x3c8111d1	0.015755566
48	0x3bba835e	0.0056919297
49	0xbbff3d3c	-0.007789282
50	0x399e5919	0.0003020249
51	0xbc3a7922	-0.011381419
52	0x3c6038c5	0.01368541
53	0xbc33cada	-0.010973657
54	0x3badb308	0.005300883
55	0x3c5fa0b9	0.013649159
56	0xbc64ed89	-0.013972648
57	0x3b91e14f	0.0044519077
58	0x3c3f8473	0.011689293
59	0xbc29bc21	-0.010359795
60	0x3b9e19c8	0.0048248507
61	0x3bd7026c	0.006561568
62	0xbac2eb33	-0.001487112
63	0xbb183307	-0.0023223774
64	0x3ba0c823	0.0049066707
65	0x3b2e127f	0.0026561317
66	0x3b0b3049	0.0021238497
67	0xbb29fd46	-0.0025938316
68	0x3bc6085f	0.0060434784
69	0xba24b515	-0.0006283087
70	0xbc168c5a	-0.009188736
71	0x3c578abf	0.013155638
72	0x3c0ac115	0.008468886
73	0x3ae43952	0.0017412102
74	0xbc2ce14b	-0.010551761
75	0xbc0ac10c	-0.0084688775
76	0x3b82b7ac	0.0039891805
77	0xbbb92985	-0.0056507015
78	0x3c4eabdf	0.012614219
79	0xbc480796	-0.01220884
80	0x3c51acda	0.012797559
81	0x3b216e8d	0.0024632544
82	0xbb6eb7d1	-0.003642548
83	0xbbcd61fd	-0.0062677846
84	0xbc1c74b6	-0.00954931
85	0x3ab94f7a	0.0014138066
86	0x3c2dec1a	0.010615373
87	0xbc347741	-0.0110147605
88	0x3be003f8	0.0068364106
89	0x3b95fee5	0.004577505
90	0xbafe2a31	-0.0019391236
91	0x3bfa46cf	0.0076378356
92	0x3a6ef3cb	0.00091153075
93	0xbba8e298	-0.005153965
94	0xbbbd8e9f	-0.005784824
95	0x3c3489b2	0.011019157
96	0xbb24222a	-0.0025044777
97	0x3bbb06b5	0.0057075866
98	0x3c26c7eb	0.0101795
99	0xb8b5ada2	-8.663094e-05
100	0xbbb4456d	-0.0055014403
101	0x3c4887c1	0.0122393975
102	0x3c6ed857	0.014577947
103	0xbc38fa09	-0.011290082
104	0x3b304527	0.0026896687
105	0x3ca4779a	0.020076562
106	0x3c676196	0.014122387
107	0x3b526cb9	0.003210826
108	0x3bd081ad	0.006363115
109	0x3c5aa6cc	0.013345432
110	0x3c1ac361	0.009445996
111	0x3bc8cdfc	0.006128071
112	0xbaaa2a79	-0.0012982629
113	0xbb81b6e6	-0.003958571
114	0xbbbbb7ef	-0.0057287137
115	0x3c037874	0.008024324
116	0x3adb5c32	0.001673585
117	0x3b8ab4eb	0.004232993
118	0x3c3ca060	0.011512846
119	0x3bab8c4f	0.005235232
120	0x3c43f122	0.011959346
121	0x3bc7e755	0.006100575
122	0xbac56080	-0.0015058666
123	0x3b9e3da0	0.0048291236
124	0xbbb79cf8	-0.005603429
125	0x3aafa418	0.0013400344
126	0xbbfeab3b	-0.007771877
127	0xbafbba2c	-0.0019205264

network_body.linear_encoder.seq_layers.0.weight f4 [128, 410]
0	0xbc08d299	-0.008350992
1	0xbd814ee9	-0.06313879
2	0xbd87136f	-0.065955035
3	0xbc9d5441	-0.019205214
4	0xbc958b7e	-0.018254992
5	0xbd59db46	-0.05318763
6	0x3a8fa3f2	0.0010958894
7	0x3cbed319	0.023294019
8	0x3d697b83	0.057002556
9	0xbd1b4249	-0.03790501
10	0x3ca2bd6e	0.019865718
11	0x3d1a4c6a	0.03767053
12	0xbdcf0767	-0.10108834
13	0x3d11920e	0.03553968
14	0x3cbdc16d	0.023163522
15	0x3d1fe803	0.039039623
16	0x3d8e4ae1	0.06947876
17	0xbc3d9b12	-0.011572616
18	0xbd0da30f	-0.034579333
19	0xbd652011	-0.055938784
20	0x3c229ad8	0.009924613
21	0x3d230b9c	0.039805993
22	0xbd7900df	-0.060791846
23	0x3d3633be	0.04448294
24	0xbceb6559	-0.02873485
25	0x3dfa284d	0.12214718
26	0xbb66cc13	-0.0035216853
27	0x3d8ff5ff	0.07029342
28	0xbab1a362	-0.001355272
29	0x39ea9490	0.00044742646
30	0xbca325c2	-0.019915465
31	0xbcbb4660	-0.022860706
32	0xbc0126b3	-0.007882762
33	0x3bfe1578	0.007754024
34	0x3dab1d71	0.08355225
35	0xbc481639	-0.01221233
36	0xbc9ac66d	-0.018893445
37	0x3ae1c735	0.0017225506
38	0xbd3a925c	-0.045549735
39	0x3d3c075b	0.045905452
40	0xbb0671eb	-0.0020514678
41	0x3cdc83bf	0.02691829
42	0x3c673233	0.0141110895
43	0x3ceb4f44	0.02872432
44	0xbcc89f59	-0.024490045
45	0xbda61b0c	-0.081106275
46	0x3cf8f9ef	0.030392615
47	0xbc47d711	-0.012197272
48	0xbdaa25fd	-0.08308027
49	0xbcd12317	-0.025529427
50	0x3d62c2a3	0.0553614
51	0xbbba3c29	-0.005683441
52	0xbcae10f3	-0.021248316
53	0xbbeac048	-0.007164035
54	0xbbaecbb3	-0.0053343414
55	0x3e126513	0.14296369
56	0x3c931a42	0.017956857
57	0xbdffd7bd	-0.12492321
58	0xbd98b381	-0.07456113
59	0x3d1a0846	0.037605546
60	0x3d16c766	0.036811255
61	0xbd480b6e	-0.048839025
62	0xbd9150ad	-0.07095466
63	0x3d130390	0.03589207
64	0xbd858196	-0.06518857
65	0xbca8c631	-0.020602318
66	0xbd4c022e	-0.049806766
67	0x3d437d85	0.047727127
68	0x3be3b2a9	0.006948788
69	0x3dac7170	0.08420074
70	0x3bec8abb	0.0072186864
71	0x3dc31898	0.09526175
72	0xbdb03118	-0.08603114
73	0xbd8ddf72	-0.069273844
74	0x3da5b2d2	0.08090748
75	0x3d8c4239	0.068485685
76	0x3dd79b74	0.10527697
77	0xbd3663f2	-0.04452891
78	0x3d40363b	0.04692672
79	0x3c535e6b	0.012900929
80	0xbd57c5c9	-0.052678857
81	0x3d6fb00a	0.058517493
82	0xbd838ba0	-0.06423116
83	0xbdc98971	-0.09840668
84	0x3c6c3e67	0.014419175
85	0xbc9394c8	-0.01801528
86	0x3c4584bf	0.012055575
87	0x3d47aacf	0.04874688
88	0x3d3e18ef	0.046410497
89	0x3c8b9625	0.017039368
90	0xbc0057c2	-0.007833423
91	0xbdbbb38a	-0.09165104
92	0x3d92d503	0.07169535
93	0xbc8c0bed	-0.01709553
94	0xbde76d9a	-0.11300202
95	0x3d158f92	0.036513872
96	0xbd4fe7fa	-0.05075834
97	0x3d9e17bc	0.07719371
98	0xbd503063	-0.050827395
99	0xbcb5d57c	-0.022196524
100	0xbdc2d566	-0.09513359
101	0x3cd096e5	0.025462577
102	0x3cdbd706	0.02683593
103	0xbcd34ebe	-0.025794383
104	0xbb8650bc	-0.0040989798
105	0x3d544ac5	0.05182912
106	0x3d3993d4	0.045306996
107	0x3da6f8b8	0.08152908
108	0xbc73c5fd	-0.014878747
109	0x3d22b20a	0.039720573
110	0x3bc21eaf	0.005924068
111	0xbc93d98e	-0.018048074
112	0x3cee55de	0.029093679
113	0x3d45daae	0.048304252
114	0x3a847b74	0.0010107593
115	0xbd25796f	-0.04039901
116	0xbd61d742	-0.055136926
117	0xbc9fe2d8	-0.019517347
118	0x3c7b5471	0.015339957
119	0x3de423b7	0.111396246
120	0xbdee9bc0	-0.11650801
121	0xbc993d95	-0.018706122
122	0xbd83c64f	-0.06434309
123	0x3ce19349	0.027536051
124	0x3d94ad5e	0.0725963
125	0xbc5ea30f	-0.013588681
126	0x3cf9c8ce	0.030491259
127	0xbba2d1b7	-0.0049688476
128	0x3d45f9b7	0.04833385
129	0x3c99769e	0.018733319
130	0x3d2bf04d	0.041977216
131	0xbcf3917f	-0.029732464
132	0xbc017079	-0.007900351
133	0x3d33271d	0.043738473
134	0xbd397bce	-0.045284085
135	0x3d9e2dce	0.0772358
136	0xbbe3f818	-0.0069570653
137	0x3e019f42	0.12658408
138	0x3d7d2550	0.061803162
139	0x3cc42eda	0.023948122
140	0xbc80d2f7	-0.015725596
141	0x3c6f6b51	0.014612989
142	0xbe06d174	-0.13165838
143	0xbc6f599a	-0.014608765
144	0xbd6b9aad	-0.057520557
145	0xbd3fdab1	-0.04683942
146	0x3b1a3af8	0.0023533683
147	0x3d637b7f	0.055537697
148	0xbd662a06	-0.05619242
149	0x3b2992c2	0.0025874828
150	0x3c44068a	0.01196445
151	0xbd0291a2	-0.031877168
152	0x3bb45c12	0.0055041397
153	0x3c9e4e8b	0.019324562
154	0x3cea6ecf	0.02861729
155	0x39e88e70	0.00044356612
156	0xbd80a529	-0.06281502
157	0xbd6a91ec	-0.05726807
158	0x3ca7ba7f	0.02047467
159	0xbd56b4da	-0.052418567
160	0xbb64baa8	-0.0034901295
161	0x3c80d48e	0.015726354
162	0x3cd68ba5	0.026189635
163	0xbd74549f	-0.059651013
164	0xbd0c5fa2	-0.03427089
165	0x3d92d289	0.07169063
166	0xbd8ea8c4	-0.06965783
167	0x3d7b9a8b	0.06142668
168	0xbd0b5a4e	-0.034021668
169	0xbb7170f8	-0.0036841016
170	0xba2d3c76	-0.00066084357
171	0x3d850e56	0.06496875
172	0xbd47a95e	-0.048745506
173	0x3d60124a	0.05470494
174	0xbc5f6775	-0.013635506
175	0x3d06ea73	0.032938432
176	0xbd4ad529	-0.04951969
177	0x3c7cfe76	0.015441528
178	0xbb7bc55e	-0.00384172
179	0xbd80e9fb	-0.06294628
180	0xbd23c060	-0.039978385
181	0xbc871b78	-0.01649259
182	0xbd9a3234	-0.07529107
183	0x3dc7dab6	0.09758513
184	0xbd3762fd	-0.044772137
185	0xbd305c63	-0.043056857
186	0xbdb05772	-0.08610429
187	0xbbcda6c4	-0.0062759835
188	0xbd9ed04d	-0.07754574
189	0xbdf27654	-0.118389755
190	0xbd0f08a0	-0.034920335
191	0xbc79a81a	-0.015237832
192	0x3cef3710	0.02920106
193	0x3d4ec7e9	0.050483618
194	0xbd5768dc	-0.052590236
195	0xbd0ff782	-0.03514815
196	0xbc7915f1	-0.015202985
197	0x3a7fbcf2	0.0009755633
198	0x3d218c48	0.039440423
199	0x3cbdf77d	0.0231893
200	0xbdb04796	-0.08607404
201	0x3cffe783	0.031238323
202	0x3c7e88a4	0.015535507
203	0x3d680b2b	0.056651276
204	0x3d2d57f4	0.042320207
205	0x3ce5c40d	0.028047586
206	0x3c40487b	0.011736031
207	0x3d0e9c97	0.034817304
208	0x3d45e63c	0.04831527
209	0xbd233916	-0.039849363
210	0x3d77f6df	0.06053817
211	0x3e26a9c9	0.16275705
212	0xbd8e4b31	-0.069479354
213	0xbd4751fe	-0.04866218
214	0x3c0453f9	0.008076661
215	0x3d57f5fc	0.052724823
216	0xbcc15f16	-0.02360491
217	0x3aaaeb1c	0.0013040039
218	0x3cd5b786	0.026088487
219	0xbc918ff5	-0.01776884
220	0xbcd0edd9	-0.02550404
221	0xbd943c5f	-0.07238077
222	0x3c2087dc	0.009798016
223	0x3cfd2e89	0.030905979
224	0xbd25119c	-0.040299997
225	0xbc8411be	-0.016121741
226	0xbdb96fa7	-0.09054499
227	0x3d8cf3e4	0.06882456
228	0xbcc75912	-0.024334464
229	0x3c8adf1c	0.01695209
230	0x3c937f6e	0.0180051
231	0x3c1f73f9	0.00973224
232	0x3ca45024	0.020057745
233	0x3b064977	0.0020490566
234	0x3d45c465	0.048283
235	0x3c1197ee	0.0088863205
236	0x3be93632	0.0071170563
237	0xbcdc7924	-0.026913233
238	0x3d215e72	0.03939671
239	0x3cdf8941	0.027287127
240	0x3cf9cdea	0.030493695
241	0xbd5f6d73	-0.05454774
242	0xbcd15601	-0.025553705
243	0xbd78a0e2	-0.060700305
244	0xbcb485a1	-0.022036375
245	0xbd9bf280	-0.076146126
246	0x3d9b03a5	0.075690545
247	0x3e07b9f6	0.13254532
248	0x3dd0996c	0.10185513
249	0x3ae4335a	0.0017410323
250	0xbcd1bf71	-0.025603982
251	0x3d810f8c	0.063017935
252	0xbcb45b96	-0.022016328
253	0xbc6dcbba	-0.014513904
254	0xbc94e013	-0.018173253
255	0xbd85e091	-0.06536973

network_body.linear_encoder.seq_layers.2.bias f4 [128]
0	0x3c090681	0.008363367
1	0xbba7e32c	-0.0051235165
2	0xbad1f20f	-0.0016017574
3	0xbbb57a0d	-0.005538231
4	0x3c0b4e87	0.008502609
5	0x3c5a0d9d	0.01330891
6	0x3c817f36	0.01580773
7	0x3b38ed3c	0.0028217575
8	0x3b9a5165	0.00470941
9	0xbc2547b9	-0.010087901
10	0xbbe159b0	-0.0068771467
11	0xbc37a346	-0.011208361
12	0xba7215ef	-0.0009234836
13	0xbbbd7b38	-0.005782511
14	0x3be4df06	0.0069845943
15	0xbc0fd762	-0.008779379
16	0x3c0e75c4	0.00869507
17	0x3bc03295	0.005865405
18	0x3c37e222	0.011223348
19	0x3c4400de	0.011963097
20	0x3c82bf18	0.015960261
21	0xbba5c18d	-0.0050584734
22	0xbc1bad21	-0.009501726
23	0x3c0650cb	0.0081979735
24	0x3b36b015	0.002787595
25	0x3b22fba0	0.0024869218
26	0x3ba03907	0.0048896107
27	0x3b131ebf	0.0022448746
28	0xbc230208	-0.009949215
29	0xbaced18d	-0.0015779004
30	0xbba48427	-0.0050206366
31	0xbc2a59b1	-0.010397361
32	0xbbdc4410	-0.006721981
33	0x3abe79f4	0.0014532194
34	0xbc2ff841	-0.010740341
35	0xbc35d68d	-0.011098516
36	0xbb79d1fc	-0.0038119545
37	0x3b4bcd49	0.0031097701
38	0xbb7ed6ab	-0.0038885276
39	0x3991e3a8	0.00027826172
40	0x3c74883e	0.014925061
41	0x3c53bdea	0.012923697
42	0x3c549b32	0.012976455
43	0xba910643	-0.0011064488
44	0xbbbf827e	-0.0058444133
45	0x3bcad275	0.006189639
46	0x3c02f950	0.007994011
47	0x3bdb5aad	0.006694159
48	0x3bbbe6b4	0.005734289
49	0xbc1c20f6	-0.009529343
50	0xbb221f34	-0.0024737837
51	0xbbfb19ad	-0.007662973
52	0xbaa07d87	-0.0012244441
53	0x3c567f8b	0.013091932
54	0xbc41e2ae	-0.01183383
55	0xbbdda857	-0.0067644524
56	0x3c0ca589	0.0085843885
57	0x3bc0d5a6	0.005884844
58	0x3ba75c4b	0.0051074377
59	0x3bbbb6c7	0.005728576
60	0xbbb56582	-0.0055357823
61	0xb9deb182	-0.00042475393
62	0x3c71310d	0.014721167
63	0xbaf310cc	-0.0018544435
64	0x3c3688c7	0.011141009
65	0xbb8b6455	-0.004253904
66	0x3bbda043	0.005786927
67	0x3b852b93	0.0040640323
68	0x3a5d8705	0.00084506004
69	0xbc192d5f	-0.009349196
70	0xbc460c0b	-0.012087832
71	0x3c409c46	0.0117560085
72	0xbc1b99bb	-0.009497101
73	0xb9fb8bae	-0.0004797852
74	0x3c1c4f9f	0.0095404675
75	0xbc089a3e	-0.008337555
76	0xbc0d4f4c	-0.008624863
77	0xb9ba8e92	-0.00035582908
78	0xba32371c	-0.0006798373
79	0xbc28d5e9	-0.010304906
80	0x3b7dabd3	0.0038707152
81	0x3be5c6dc	0.0070122313
82	0x3c445589	0.011983284
83	0xbb44d255	-0.0030032594
84	0xbb56b886	-0.0032763793
85	0x3c350ae6	0.011049962
86	0xbbeaebdb	-0.0071692294
87	0x3b5594b7	0.0032589862
88	0xbc4564aa	-0.012047926
89	0xba3c53a4	-0.0007184094
90	0x3c3f7b66	0.011687135
91	0xbc2ff328	-0.010739125
92	0xbbea2dd3	-0.007146576
93	0x3bb3cea1	0.0054872786
94	0x3c4a4e48	0.012347765
95	0xbc0fe9db	-0.008783783
96	0x3c677524	0.01412705
97	0x3c0bdfc5	0.0085372375
98	0xbb37b43a	-0.0028031007
99	0xbbfe62e1	-0.007763252
100	0x3b78336d	0.003787245
101	0xbbb288ed	-0.0054484517
102	0x3c2a785f	0.010404675
103	0xbc5e3661	-0.01356277
104	0xbaf5ad7b	-0.0018743718
105	0xb9efa9f3	-0.00045712254
106	0x3c02ca27	0.007982767
107	0x3c541236	0.012943795
108	0x3b6da24e	0.0036260071
109	0x3bf45279	0.0074561206
110	0xbb6552f7	-0.0034992078
111	0x3c58967f	0.013219475
112	0x3bb0c9d3	0.005395153
113	0x3c292a22	0.010324987
114	0x3b88c921	0.004174367
115	0x3c42258b	0.011849771
116	0x3c09765e	0.008390037
117	0x3bc93e6f	0.006141476
118	0xba602876	-0.0008550951
119	0x3c31e4f0	0.010857806
120	0x3bfe0b86	0.0077528385
121	0xbb1a9015	-0.0023584415
122	0xbba61eaf	-0.0050695757
123	0x381450ec	3.5361314e-05
124	0xba8492c7	-0.0010114544
125	0x3c3c1740	0.011480153
126	0xbb9c0d1f	-0.0047623063
127	0x3a96c5ae	0.0011503005

network_body.linear_encoder.seq_layers.2.weight f4 [128, 128]
0	0x3b813841	0.0039434736
1	0x3cd4acff	0.025961397
2	0xbd115263	-0.03547896
3	0x3d850115	0.06494347
4	0xbcf1fdf0	-0.029540032
5	0x3d70bb06	0.05877211
6	0x3dbbd7fa	0.09172054
7	0xbd9f3a4a	-0.0777479
8	0x3e003960	0.12521887
9	0xbdd05b70	-0.1017369
10	0xbca5fb36	-0.020261388
11	0xbe0889fc	-0.13333887
12	0x3d81b33a	0.06333013
13	0xbca404b1	-0.020021768
14	0x3d8cf2ad	0.06882224
15	0x3cb02e8a	0.021506567
16	0xbd801f1e	-0.06255935
17	0x3d6bbbca	0.057552136
18	0xb9ec36b8	-0.00045054196
19	0x3e4f23c0	0.20228481
20	0xbce64223	-0.028107708
21	0xbdcdb8f0	-0.1004504
22	0xbd6a13ed	-0.05714791
23	0x3d413b9a	0.04717598
24	0x3d24ad7a	0.040204503
25	0x3d58e877	0.05295607
26	0xbdf51605	-0.119670905
27	0xbdc68f87	-0.096953444
28	0x3caddd53	0.0212237
29	0xbbafc0e6	-0.0053635715
30	0xbd64e57b	-0.055882912
31	0xbdc28e0d	-0.0949975
32	0xbe30e01e	-0.17272994
33	0xbbbd57ee	-0.0057783043
34	0x3c9a0343	0.018800383
35	0xbc4145a1	-0.011796386
36	0xbc756727	-0.014978207
37	0xbe0510aa	-0.12994638
38	0x3e1b59e9	0.15171017
39	0xbdd9c263	-0.106327794
40	0x3cf828ec	0.03029295
41	0x3d115fb5	0.035491664
42	0xbba02900	-0.0048877
43	0xbdcb0831	-0.09913672
44	0x3e24734b	0.16059606
45	0xbcbd8d05	-0.023138532
46	0xbcfac74a	-0.030612607
47	0xbdbe34b8	-0.09287399
48	0xbe529e8f	-0.20568298
49	0x3d86a6ae	0.065747604
50	0x3dd1e3ae	0.102485046
51	0xbe1019ce	-0.14072344
52	0x3dd23d9a	0.10265656
53	0x3cb9ed2f	0.022696106
54	0x3c0f168c	0.008733403
55	0xbbbc02a8	-0.0057376213
56	0x3d29575b	0.041343074
57	0x3d25bb9d	0.040462125
58	0x3e06dd15	0.13170274
59	0xbd16308a	-0.036667384
60	0x3c3ee153	0.011650401
61	0xbad32ac4	-0.0016110768
62	0xbd8ec7ea	-0.06971724
63	0x3d763766	0.060111426
64	0xbdbeaed7	-0.09310692
65	0xbdab0fa2	-0.08352591
66	0x3d71c40b	0.05902485
67	0x3d9591f2	0.073032275
68	0x3e1035ff	0.14083098
69	0xbd2b0daf	-0.041761097
70	0xbd287200	-0.041124344
71	0xbd436422	-0.047702916
72	0xbe19331a	-0.149609
73	0x3e3a65cc	0.18202895
74	0x3b5db429	0.0033829308
75	0x3dc525c1	0.096263416
76	0x3d9e843e	0.07740067
77	0x3e25887e	0.16165349
78	0xbcc5484d	-0.024082327
79	0x3dfe0d91	0.12404931
80	0x3c34b798	0.0110301
81	0xbd3fa631	-0.04678935
82	0xbe36d683	-0.17855267
83	0x3c9f299b	0.019429019
84	0xbc8395da	-0.016062666
85	0x3df83eb7	0.12121337
86	0xbd80c06b	-0.06286701
87	0x3dd47043	0.10372975
88	0xbd224de4	-0.039625064
89	0xbda4401c	-0.080200404
90	0xbc6b955f	-0.014378875
91	0x3da9ada6	0.08285074
92	0x3d097732	0.03356094
93	0xbd017ecb	-0.03161506
94	0x3dd76648	0.105175555
95	0x3e39b38a	0.18134895
96	0xbdb47884	-0.08812049
97	0xbe1f8c2b	-0.15580814
98	0xbd76de3b	-0.06027053
99	0x3d610d25	0.054944176
100	0xbce38944	-0.027775414
101	0xbd3df3b7	-0.046375003
102	0xbd2b1b8a	-0.04177431
103	0xbe07ee88	-0.13274586
104	0x3dba0eb5	0.090848364
105	0x3df32c8c	0.11873731
106	0xbca0450b	-0.019564172
107	0xbdc26068	-0.09491044
108	0x3d7fbd12	0.06243617
109	0xbda18d48	-0.078882754
110	0x3c5f86d7	0.013642988
111	0x3cb849da	0.022496153
112	0x3cc6c395	0.024263183
113	0xbe043da3	-0.12914138
114	0x3ce197fa	0.027538288
115	0xbd80b478	-0.06284422
116	0xbdc291e9	-0.095004864
117	0xbcdb49ee	-0.02676865
118	0x3df45c2b	0.11931642
119	0xbcdd5490	-0.027017862
120	0xbc5961ad	-0.013267917
121	0x3d80043e	0.06250809
122	0xbd8884d3	-0.06665959
123	0x3d15fc64	0.03661765
124	0xbd85089a	-0.06495781
125	0x3d8d96ed	0.069135524
126	0xbd738bee	-0.05945962
127	0xbc9f8216	-0.01947121
128	0xbdb4161e	-0.08793281
129	0x3dc8ebc9	0.098105974
130	0x3d101beb	0.035182875
131	0x3cdec800	0.027194977
132	0xbd8c7506	-0.06858258
133	0x3b14b936	0.0022693402
134	0x3c8f9c67	0.017530633
135	0x3dd08e25	0.10183362
136	0x3b922533	0.004460001
137	0x3d20b74a	0.039237298
138	0x3ca4001e	0.020019587
139	0xbd9ae556	-0.075632736
140	0x3c61e959	0.013788545
141	0x3d024d1d	0.031811822
142	0x3ddf44a8	0.10901767
143	0xbd886630	-0.06660116
144	0x3e0ed007	0.13946544
145	0x3da2f11d	0.07956145
146	0x3b60c448	0.003429668
147	0xbd0698e0	-0.032860637
148	0xbc7d6a61	-0.015467257
149	0xbd1d6f6c	-0.03843634
150	0x3b6681e0	0.0035172626
151	0xbdf0f09d	-0.11764643
152	0x3d7eb010	0.062179625
153	0x3de4bed1	0.11169208
154	0xbdaf9adb	-0.08574458
155	0x3dcd4a7e	0.10023974
156	0x3c258656	0.010102829
157	0x3d8b3ae9	0.067983456
158	0x3afd9bcd	0.00193488
159	0xbc64fd54	-0.013976414
160	0x3e477f2f	0.1948211
161	0x3ce9d5a7	0.02854426
162	0x3d66e594	0.056371287
163	0x3d9e0ba2	0.077170625
164	0xbdac9d9f	-0.08428501
165	0xbe208863	-0.15677027
166	0xbccc92d3	-0.024972355
167	0x3d216330	0.039401233
168	0xbca653e5	-0.020303676
169	0xbc89f72f	-0.0168415
170	0xbd1bd0d3	-0.038040947
171	0xbd5a7c8b	-0.05334143
172	0x3e0e1bfb	0.13877861
173	0xbbb0ad5f	-0.005391761
174	0x3d5ac76f	0.05341285
175	0x3d914c51	0.07094634
176	0x3cad123d	0.02112686
177	0xbd266c5c	-0.040630683
178	0x3da0e177	0.07855504
179	0x3db80161	0.08984638
180	0x3d981ced	0.07427392
181	0x3c532c61	0.012888999
182	0xbdf10cee	-0.11770044
183	0xbcc56866	-0.024097633
184	0xbc1221fd	-0.008919236
185	0x3dbf6b6c	0.09346661
186	0xbc2beb66	-0.010493135
187	0x3db111c1	0.086459644
188	0xbcb60cdd	-0.02222293
189	0x3d8aaf3f	0.06771707
190	0x3dd427ae	0.10359131
191	0x3dcbb74c	0.099470705
192	0x3d691263	0.0569023
193	0x3e94608a	0.28979903
194	0xbdd379d1	-0.10325969
195	0x3c392c25	0.011302029
196	0xbdb9ad0f	-0.090662114
197	0x3d8c2bb4	0.06844273
198	0xbd53fc76	-0.051754437
199	0xbb6c2896	-0.0036034933
200	0xbbfeb3a8	-0.0077728815
201	0xbd99b196	-0.07504575
202	0xbd6ff685	-0.05858471
203	0x3c0e9993	0.008703607
204	0xbe0b431d	-0.1359982
205	0xbe05a437	-0.13050924
206	0x3d641b93	0.05569036
207	0x3db362aa	0.08759053
208	0xbd71d73b	-0.05904315
209	0x3d55cae2	0.052195437
210	0xbca93aaf	-0.020657865
211	0x3cdf704a	0.027275223
212	0xbd844ad9	-0.064595886
213	0x3d4fb59d	0.05071031
214	0x3bed8cd8	0.007249456
215	0x3c482f07	0.012218243
216	0x3e06f690	0.13179994
217	0xbcff1da4	-0.031142063
218	0x3dc28745	0.09498457
219	0xbdb40f97	-0.08792036
220	0x3d4d3603	0.050100338
221	0x3d6e6171	0.058198396
222	0x3e07c40d	0.13258381
223	0x3e06ba9f	0.13157128
224	0x3d657c94	0.05602701
225	0x3cf29e11	0.029616388
226	0xbe3ac00f	-0.18237327
227	0x3d9e9856	0.077438995
228	0xbda7b21e	-0.0818827
229	0x3dfdb95e	0.123888716
230	0x3d366ea4	0.04453911
231	0x3da39605	0.07987598
232	0xbd1f8dc9	-0.038953576
233	0xbbf30dc3	-0.007417412
234	0xbdcf4c39	-0.1012196
235	0x3d7f9e67	0.062406924
236	0x3d79c276	0.060976468
237	0x3d68ebe8	0.056865603
238	0x3d7adf27	0.06124797
239	0xbdf100ed	-0.11767755
240	0x3e5cb5a9	0.21553673
241	0xbe173718	-0.1476711
242	0xbd156820	-0.036476254
243	0x3d7720eb	0.060334127
244	0x3d8854cd	0.066567995
245	0xbc5eb222	-0.013592275
246	0xbd7dded0	-0.06198007
247	0xbd738d70	-0.059461057
248	0xbd12641f	-0.035740014
249	0xbe080b87	-0.13285647
250	0x3db513f6	0.08841698
251	0xbd8ca5ba	-0.06867547
252	0xbe4a18fd	-0.19736095
253	0xbd931f95	-0.07183758
254	0xbc85232e	-0.016252127
255	0xbc4511db	-0.012028183
