Assets/results/Run08/Robot Path Finder/Robot Path Finder-100532.onnx (onnx, 280587 bytes, 6 tensors)

distribution.branches.0.bias f4 [4]
000000 63 ff 4e 3c 11 83 5a 3b 1d d4 97 3b 9b b3 96 bc
       0.012634131 0.0033342282 0.00463344 -0.01839619

distribution.branches.0.weight f4 [4, 128]
000000 78 78 d1 bc 1e b3 1a bc 54 b7 b4 3c 63 8c 3a 3a
       -0.02557014 -0.009442119 0.022060074 0.0007116256
000010 34 e2 52 ba 72 b2 7c 3b fc a3 53 bc 57 c4 b6 bc
       -0.0008044571 0.003855851 -0.012917515 -0.022310419
000020 37 91 aa bc 28 59 05 3d 4c 3b 14 bc 1e 80 9b 3c
       -0.020821197 0.03255573 -0.009047341 0.01898199
000030 d1 ca c6 3b 86 cb 4a bc b6 a2 ea bc 8a 80 a7 bb
       0.006066658 -0.012377625 -0.02864204 -0.0051117586
000040 3c ce ca 3c ec 41 97 3c e7 f6 05 bc 7e 4a 1a bb
       0.024756543 0.018464051 -0.008176542 -0.0023542936
000050 d6 00 35 3c 26 83 07 3d 7f 28 ac bb 60 19 ff bc
       0.011047563 0.033084057 -0.005253851 -0.03114003
000060 ae bb 25 bc e4 11 43 bc 7a f1 41 bc a3 19 14 3c
       -0.010115547 -0.011906121 -0.011837358 0.009039315
000070 60 d7 74 3c a5 a9 c1 bb c9 b0 e2 bc 87 d4 0f 3d
       0.0149439275 -0.005910116 -0.027672188 0.03511479
000080 ba 72 7f 3a 11 40 18 bb da 7d 03 bc 65 a9 47 3c
       0.00097445736 -0.0023231546 -0.008025611 0.012186383
000090 4a 18 86 bc 87 3b 98 bb b8 98 79 38 fe a4 9f bc
       -0.016369004 -0.004645768 5.9508457e-05 -0.019487854
0000a0 93 13 ad bc a9 7e 39 3c 39 87 6c 3c 6e 6b bc bc
       -0.021127498 0.011321702 0.0144365365 -0.023000445
0000b0 d4 87 9d bb 19 34 e9 3c 9c 76 d7 bc 71 c6 1c 3c
       -0.0048074517 0.028467225 -0.026301675 0.0095687965
0000c0 f0 37 c2 bb fb 39 6d bc 92 1a 95 3c 4d a5 93 bc
       -0.0059270784 -0.014479156 0.018201146 -0.018023157
0000d0 3e 19 46 bb 75 bd b5 3c 4c 3d e1 bc bd 98 b5 bc
       -0.0030227448 0.022185067 -0.027495049 -0.022167558
0000e0 87 dc ce bc a7 c6 91 3c 97 3c b2 bc 9d 0f 58 3c
       -0.02525164 0.01779492 -0.021757407 0.013187316
0000f0 b3 73 54 ba 41 0b b8 bc 7d ff fe bb 9a fc 96 3c
       -0.0008104399 -0.022466304 -0.0077819214 0.018430997
000100 c7 4a 64 bc 5d 21 1f bc 1d dd c8 3c bd cd ab 3c
       -0.013933844 -0.009712544 0.024519498 0.020972127
000110 13 5b bc 3c e9 fd 21 3c 0a 9a 7d 3c ee e8 8b bc
       0.022992646 0.009887197 0.01547862 -0.017078843
000120 34 fd 82 bc 76 17 c6 3c 7d 40 95 bc 41 29 1e 3d
       -0.015989877 0.024181109 -0.018219227 0.03861356
000130 83 c8 38 ba 07 7c 00 3a cb 1c d2 bb c3 c9 39 bc
       -0.00070489215 0.0004901294 -0.006412124 -0.011339608
000140 d7 79 88 3c 66 c9 1e bc 54 1b aa 3b a3 e6 91 bc
       0.01665966 -0.009691572 0.005191246 -0.017810171
000150 c0 b3 1b 3a 84 d7 e0 3b fa 68 c9 bb ba e3 f3 3b
       0.00059395656 0.006861629 -0.0061465474 0.0074429186
000160 d6 67 bb bc 4e c5 db 3c 60 1a 48 3c 68 17 26 bc
       -0.022876661 0.02682748 0.01221332 -0.010137416
000170 02 30 b1 bc 76 94 8f bc a6 9a ac bc 03 8f 8e bc
       -0.021629337 -0.017526846 -0.021069836 -0.017402178
000180 dd 4e f6 3c 33 66 6b bc 9a cc 94 bc 1a 7d dc 3b
       0.030066902 -0.014367628 -0.018163968 0.0067287805
000190 f2 a9 b0 3a 2a d4 a2 b9 ee 12 1b 3c 40 c3 f9 3c
       0.0013478382 -0.00031057122 0.009464962 0.03048861
0001a0 fc 6b a0 bb 92 37 8d bb a3 3e 07 3d d6 37 8f bc
       -0.0048956852 -0.004309603 0.03301872 -0.01748268
0001b0 9c 5d dc 3b 12 60 4d bc 10 c9 ad ba 42 cb 80 bc
       0.0067250263 -0.012535112 -0.0013258774 -0.01572192
0001c0 03 cb 06 3d 6a d6 9b ba f7 79 2c 3d a4 b7 ac 3a
       0.03290845 -0.0011889462 0.042108502 0.0013177288
0001d0 13 32 03 3d 17 bc b0 bc 77 d1 dc bc 49 b8 a0 bb
       0.032030176 -0.021574063 -0.02695535 -0.004904781
0001e0 ac 00 74 bb 51 02 b1 3b ad 68 be 3b 2e e6 d9 3b
       -0.0037231846 0.0054018875 0.005810818 0.006649754
0001f0 b4 b0 05 3d 64 49 e6 3c 88 48 80 3c 7f bf 71 bc
       0.03263922 0.028111167 0.015659586 -0.014755129
000200 f8 ea 6e 3c 52 bd 4b bc bc 1a ee 3c 3d 11 bf bc
       0.014582388 -0.012435274 0.029065482 -0.02332365
000210 0c 38 0a bc d5 93 5b bb 0c b6 d8 3a 5e 4a 1b bc
       -0.008436214 -0.0033504863 0.0016533746 -0.00947818
000220 9c af 47 b9 a9 b9 1f 3b dc 99 ce bc 7e 69 a5 bb
       -0.00019043538 0.0024372137 -0.02521985 -0.005047976
000230 3f 59 96 bc 95 ae f2 3b 94 04 48 bb 5b 25 12 3c
       -0.018353103 0.0074060657 -0.0030520307 0.008920039
000240 c7 86 87 bc d4 15 91 bc 56 ea 20 bb 0e db 02 3d
       -0.016543759 -0.017710604 -0.0024553738 0.031947188
000250 33 94 7d bc f1 e0 11 bc d3 f5 19 39 65 6e ac 3c
       -0.015477228 -0.008903728 0.00014682794 0.021048734
000260 6e 92 83 3a 88 cf 82 bc a4 bf 82 bb 76 f6 73 3b
       0.0010038146 -0.0159681 -0.0039901305 0.003722576
000270 24 92 df 3b de 1b c0 bb 04 ae 18 bc df 0e e9 3b
       0.0068228412 -0.005862697 -0.009318832 0.0071123685
000280 13 d9 85 3c 46 ff f4 3b dd 76 cb 3c 81 bd 2b bc
       0.01633886 0.00747672 0.024836952 -0.010482193
000290 ca ad 24 bc 84 2a b4 3c 7b 92 15 bb cf b9 8c bc
       -0.0100512 0.02199293 -0.0022822905 -0.017178444
0002a0 19 8c 99 bb 2d d5 72 bc 36 35 a8 3a e6 20 6d 3b
       -0.0046858904 -0.014821333 0.0012833241 0.003618294
0002b0 39 02 03 bd 84 40 fd 3b 90 73 09 3b e1 19 c2 3c
       -0.03198454 0.007728638 0.0020973422 0.02369398
0002c0 f1 d5 81 3c bd 19 7c bb 1f b7 5c bb 95 b8 95 bb
       0.015849086 -0.003846749 -0.0033678485 -0.004569123
0002d0 4b e6 44 3c b8 eb f3 bc 0e f3 87 bc 46 ae 8f bb
       0.012017797 -0.029775485 -0.01659539 -0.0043847887
0002e0 39 1e 14 bc 44 e6 1b bb 2e bc c9 3a 6f fd fb bb
       -0.009040409 -0.0023788372 0.0015391165 -0.0076901237
0002f0 81 65 e9 3a c3 6e 84 3b 4b ad f3 3a 70 5d c8 3c
       0.001780674 0.004041524 0.0018591074 0.024458617
000300 b3 31 0c bb b1 07 09 bc d9 95 27 3c cc ce a8 3b
       -0.0021391928 -0.00836365 0.010228598 0.0051516052
000310 5d 27 2c 3b 0e 42 16 bc 9c 05 ab 3c 8a ee cb 3c
       0.002626858 -0.009171022 0.020876698 0.024894018
000320 d7 67 f1 bb 8f bf 55 3c 1f ea f2 3b 42 9a a6 3c
       -0.007367115 0.013046159 0.0074131633 0.020337228
000330 a2 66 92 bc 74 b3 89 3b d4 1a 66 3b e2 10 36 bc
       -0.017871205 0.0042023007 0.0035111206 -0.011112424
000340 12 37 d6 3b 07 f7 94 bc 6e 50 87 3c 24 93 91 3b
       0.0065373266 -0.018184198 0.016517844 0.0044425894
000350 d8 0d 23 bc c4 c4 ca bc b3 b8 1f 3a fc 23 3d 3c
       -0.009952031 -0.024752028 0.0006092891 0.011544224
000360 9a fb 1a 3b 91 80 f0 bb 2a ba 8b ba e1 85 8a bc
       0.0023648501 -0.007339545 -0.001066034 -0.016909542
000370 3e 54 e9 ba f4 94 cb 3a 35 45 17 bc 10 26 ad bc
       -0.0017801595 0.0015532062 -0.009232809 -0.021136314
000380 f8 f5 a6 3b e0 66 96 3c 07 29 db bc 2b 03 97 bc
       0.0050952397 0.018359601 -0.026752962 -0.018434128
000390 fb 7e f5 3c ba 73 a7 bc 0f 3b 1a bb b3 2d e7 3b
       0.029967776 -0.020440925 -0.0023533737 0.0070550083
0003a0 1a 43 35 3c 67 a6 c0 bc 6f ed f7 3b 1b 8f 9c bc
       0.011063362 -0.023516847 0.007566146 -0.019111207
0003b0 4c 45 fa 3b 56 ad 34 bc d6 7d 0b 3d 85 ae 0c 3c
       0.0076376554 -0.011027655 0.034055553 0.008586531
0003c0 a7 f7 58 3b bc 85 ee ba ce fc 1e bb b8 98 59 3c
       0.0033106597 -0.0018197815 -0.002425957 0.01328104
0003d0 d5 f4 3f 3c 05 3c 8e bc 67 a8 73 bc 69 9e a8 bc
       0.011716087 -0.017362604 -0.014871693 -0.020583348
0003e0 b4 4a 05 3c e9 95 b8 3c 92 6b 4c bc e6 0a 87 bc
       0.008135486 0.02253242 -0.012476819 -0.016484689
0003f0 4e 8f 16 3c fc bb 3f 3c fb 31 63 bc e8 64 9b 3a
       0.00918944 0.011702534 -0.013866897 0.0011855634

network_body.linear_encoder.seq_layers.0.bias f4 [128]
000000 f0 d0 99 bc 83 96 1e 3c e5 cc b5 3c cd 26 6f bc
       -0.018776387 0.0096794395 0.022192428 -0.014596653
000010 12 89 9d 3c 8c 37 25 3c 04 d2 6d 3c 19 a2 0c bc
       0.0192304 0.010084044 0.014515404 -0.008583569
000020 7a 04 5a bb 68 55 d5 3a ef f9 4b 3c 5d 14 80 bc
       -0.0033266828 0.0016276063 0.0124497255 -0.01563471
000030 ac fd 9f bc af f8 91 3b a2 30 37 bc 27 ac 1a bc
       -0.01953014 0.004454694 -0.011181029 -0.009440458
000040 4a 85 00 bc 1d fb b9 3a 81 6d b1 3c c6 e9 19 3c
       -0.007844279 0.0014189217 0.02165866 0.009394115
000050 cb f4 be ba dc 4b c2 bc 78 3f bc bb 68 b7 50 3c
       -0.0014568804 -0.023717813 -0.0057448708 0.01273904
000060 20 97 3a 3c d6 90 01 bc af 03 95 3a 3a 92 a0 3c
       0.01138857 -0.007908067 0.0011368896 0.019600976
000070 0d 33 4d bc 86 e9 6d ba b4 60 4d 3c 26 a8 c3 3c
       -0.0125243785 -0.000907563 0.012535263 0.02388389
000080 80 c0 5f 3c 74 10 b3 ba e7 26 96 3c a2 51 35 3c
       0.013656735 -0.001366152 0.018329097 0.011066826
000090 42 6f 5c bc 32 b3 90 3c b8 fb 3f 3b e2 3f 51 bc
       -0.01345426 0.017663572 0.0029294323 -0.0127715785
0000a0 90 69 9f b9 7b 42 b1 3c f0 e2 0f 3c 60 f6 a1 3c
       -0.00030405493 0.021638146 0.008782133 0.019770801
0000b0 5a 70 95 3b 83 4d 20 bb 03 42 ca bb 37 2c 13 3b
       0.0045605125 -0.0024460263 -0.00617242 0.0022456774
0000c0 eb bc 5d 3c f6 45 42 bc 2b a6 93 3b 3f 1a 45 3c
       0.013533811 -0.0118575 0.0045058927 0.012030183
0000d0 33 20 b3 bb eb 97 99 3c c9 f0 85 bc 53 fa 95 3c
       -0.005466485 0.018749198 -0.016350167 0.01830784
0000e0 df 1d c3 3c bf 69 a4 3c 87 10 34 bc af 3b 95 bc
       0.023817955 0.020069955 -0.010990269 -0.018216936
0000f0 34 00 b3 3c 47 0f 9d 3c 2b ca ca bc f1 ef 86 bc
       0.021850683 0.019172324 -0.024754604 -0.016471835
000100 db 03 3b bc c1 b7 ab bc 6e 60 18 bc f2 44 85 3c
       -0.011414493 -0.020961644 -0.009300334 0.016268227
000110 46 81 55 3c e7 42 19 3b 71 a7 cc 39 e3 22 b7 bb
       0.0130313095 0.0023385824 0.00039034666 -0.0055888756
000120 4b a4 9b bc 8b cf 14 bc 54 f8 d0 3c 24 db 96 3c
       -0.01899924 -0.009082685 0.025509037 0.018415041
000130 eb dc 74 bc 5d d3 74 ba 57 f2 51 3c a0 3a 16 3a
       -0.014945249 -0.0009339357 0.012814126 0.00057307817
000140 18 47 8a 3b 34 36 9f bc 8b 78 1d bc 98 ae 7e 3b
       0.004219901 -0.019435026 -0.009611259 0.003886139
000150 7d 43 d2 3c 2d 6a 67 3c 13 37 1c bc 61 d5 73 3c
       0.025666947 0.014124435 -0.009534615 0.014882416
000160 25 04 8d 3c 81 7d b4 3c fb 3b b5 3c a8 11 91 3c
       0.01721389 0.022032501 0.022123327 0.017708614
000170 d8 f9 da 3a f5 14 52 bc 12 7e 94 3c a0 ed 2d 3c
       0.0016706539 -0.012822379 0.018126521 0.010615736
000180 de 9e 3b bc 15 17 b7 3c 17 f0 6b 3c e0 c8 3c 3b
       -0.011451451 0.022349874 0.014400504 0.0028806254
000190 98 3d a0 3c 9d f2 3e bc 4f f2 9c bc 78 0a b1 bb
       0.01956062 -0.011654523 -0.01915851 -0.0054028593
0001a0 7f 38 8f 3b 96 2b 48 3c 9d 6a ba 3c 07 d9 18 3c
       0.0043707485 0.012217423 0.022755915 0.009329087
0001b0 9e b9 6d 3c 72 ef c4 3c d7 19 81 bb 4b 21 c1 3c
       0.014509587 0.024039958 -0.003939848 0.023575446
0001c0 af 8d a3 3b 4d 9e 96 3c ac 9e 97 3c 01 fb 76 bc
       0.0049912552 0.01838603 0.018508278 -0.015074492
0001d0 f7 70 83 bc 32 79 67 3b 92 d4 cb 3c 6a 3f 7b bc
       -0.016045077 0.003532004 0.024881635 -0.015334943
0001e0 15 f5 99 3c f5 f6 9f 3c df d3 8c bb 38 29 a5 3b
       0.018793622 0.019526938 -0.004297718 0.005040314
0001f0 c4 a8 31 3c 15 92 0e bb 16 e1 aa 3b 86 40 74 3c
       0.0108434595 -0.0021754552 0.0052148206 0.014907962

network_body.linear_encoder.seq_layers.0.weight f4 [128, 410]
000000 2f 67 66 3d fe 97 bc bd 4c 66 1b 3d 9e 95 ed 3b
       0.056250747 -0.09208678 0.037939355 0.007250502
000010 a0 3b ca 3c 3e a9 03 3d ab 3f 5f bc 71 6a d9 3a
       0.024686635 0.032143824 -0.0136260195 0.0016587508
000020 54 e7 c7 bd de 99 ad 3d 0b 03 99 3d 41 34 01 bc
       -0.09760919 0.084766135 0.074712835 -0.007885993
000030 b8 5b e8 3c ec 0b 76 bd dc 7d f2 bc be 5d f3 bb
       0.028364047 -0.060069963 -0.02960103 -0.0074269464
000040 3e 22 f2 3c 6d ca 84 3c 19 d8 d6 3c cc 90 b0 bc
       0.029557344 0.016209805 0.02622609 -0.02155342
000050 2e 4b 4c bd fa e0 dd bb e4 9e d5 bb d8 bc 92 bd
       -0.049876384 -0.006771204 -0.0065191854 -0.07164925
000060 ad 1b 2c 3d 33 ae 3b bd ba 65 4c bd b0 a6 e4 3b
       0.04201858 -0.045820426 -0.0499017 0.0069778785
000070 18 90 9a 3c b4 a5 bc bc f5 ca 1f bc 55 4a 2b bc
       0.018867537 -0.023028232 -0.009752979 -0.010454734
000080 9c a0 7d 3d 14 46 67 3d 8c 87 89 bc 88 dc 94 bc
       0.061920747 0.056463316 -0.016788267 -0.018171564
000090 42 ff 45 3d d4 f7 6d 3c 22 76 73 bd f0 cb 32 bd
       0.048339136 0.014524419 -0.059438832 -0.04365152
0000a0 bf 8c 0d bd 6e 1b 08 3d 69 3d 86 ba 7e 0d a8 bd
       -0.034558054 0.033229284 -0.001024169 -0.082056984
0000b0 82 0b 35 3d a0 10 eb bc a4 bf 5a bd 40 5f 51 bd
       0.044200428 -0.02869445 -0.05340542 -0.051116228
0000c0 d1 93 8e 3d 69 4d 2e bd d1 0d 95 3c 06 08 c6 bc
       0.069617875 -0.042554293 0.018195065 -0.024173748
0000d0 bf 46 ad 3c cc 12 88 3c 8a 8c 86 3d 74 50 d0 3b
       0.021151898 0.016610526 0.065697744 0.006357247
0000e0 18 73 2e bd 66 8f 9d 3c 53 0f b9 bc 3b 59 49 bd
       -0.04259023 0.019233417 -0.022590315 -0.049157362
0000f0 a6 80 46 bd f2 ae 0b be d6 1f f3 bc 57 51 17 bd
       -0.048462532 -0.13640955 -0.029678266 -0.036942806
000100 49 de f0 bd b4 fb 83 bd 05 dd d8 bb 6e 4c 11 3c
       -0.117611475 -0.06444493 -0.0066181445 0.00886832
000110 6e f0 7c 3d 5e 56 93 3c c7 9d 2e bd a7 ba ae bd
       0.06175273 0.017985519 -0.042630937 -0.08531695
000120 9e 86 8a 3d b6 41 87 bd 2e 49 2f 3d e5 fb 85 bd
       0.067639574 -0.0660433 0.0427944 -0.06542186
000130 78 dd b3 3d cc 62 ce bc 88 b4 a8 3d 61 32 5c bd
       0.08782476 -0.025193594 0.082375586 -0.053758983
000140 7e 81 03 bd 46 b9 52 3d 49 92 a6 bc b7 fe fd bd
       -0.032105915 0.05144622 -0.020333426 -0.124020986
000150 dc e8 d7 3b 6d ae 27 bd 9c fc 7a bd de 6a 50 bd
       0.0065890383 -0.04093783 -0.061276063 -0.050883166
000160 96 be a0 bd 53 39 2b 3d bc c2 b4 bc c1 90 84 ba
       -0.078488514 0.041802716 -0.022065513 -0.0010113941
000170 b6 52 00 bd 36 27 6d bc ee e6 94 3d 8f cc 69 bb
       -0.03132888 -0.014474681 0.07270609 -0.0035674905
000180 da 7e 2f 3d df 18 fe bd 75 78 4e bd 1b b9 26 bd
       0.042845584 -0.124070875 -0.050407846 -0.040703874
000190 4f 09 c8 3c a1 c8 43 bd af 83 a5 bd 29 07 ad bd
       0.024418501 -0.047798757 -0.08081757 -0.08448631
0001a0 62 a3 75 bd 60 68 0a bc 85 0d 44 bd 17 c2 b6 bd
       -0.059970267 -0.0084477365 -0.047864456 -0.089237384
0001b0 68 0e 42 bc 37 c1 0f bd 34 e4 89 3d 85 26 2e bb
       -0.011844255 -0.035096373 0.067329794 -0.0026573252
0001c0 ad 71 68 3c 60 ba b5 bc dd 2a c3 3c e5 7c 8e bc
       0.014187259 -0.022183597 0.02382415 -0.017393539
0001d0 b5 73 bb 3b ea a4 1e bc 43 49 0c bd 07 c4 1d be
       0.0057205805 -0.009682873 -0.034249555 -0.1540681
0001e0 4b 13 71 3d 7a 8b 55 bd 15 bf d7 3c 1f 42 52 3a
       0.05885629 -0.05213497 0.026336232 0.0008020717
0001f0 bd 7c 41 bd 06 ac 00 bd 9e 68 c8 bd 90 41 c9 3c
       -0.0472381 -0.031414054 -0.09785579 0.024567395
000200 44 b5 9e 3d a5 e3 a0 bd cf 7b 7f ba de e1 84 3d
       0.077494174 -0.0785592 -0.0009745927 0.06488393
000210 67 58 94 bd 90 96 23 3c b1 18 31 bc 1a c4 ce 3b
       -0.07243424 0.009984627 -0.01080911 0.006309998
000220 53 f3 a3 bd e8 02 87 bd 71 14 2f 3d 54 04 94 bd
       -0.08005395 -0.06592351 0.042744104 -0.07227388
000230 9d bc 89 bd e5 2f 20 3c 5d 4b 98 bb 9d 95 a4 bd
       -0.06725428 0.009777044 -0.004647656 -0.08036349
000240 4d 20 98 3c 60 02 b2 bc f8 3c 5e bd aa 6d 53 3c
       0.01857009 -0.021729648 -0.054257363 0.012904564
000250 24 5d 33 bc 58 d0 4c bc f3 3a ed bc 9c 4c 50 bc
       -0.010947499 -0.012500845 -0.028958773 -0.012713578
000260 8d f7 8f bc d1 5f 8a 3d bd 53 13 bd e9 55 e3 bd
       -0.017574096 0.06756557 -0.03596853 -0.111003704
000270 16 07 5a bd 5c 40 33 3d 4a 15 90 3d a0 46 1d 3d
       -0.053229414 0.04376255 0.070353106 0.03839743
000280 fd 9e 44 bd 2f d3 da bc 87 2b 18 bd 76 82 3e bd
       -0.048003186 -0.026712028 -0.037150886 -0.046511136
000290 05 fc eb bc f0 ec 9d 3d 32 16 a1 bc 5e 3b 55 3d
       -0.028806696 0.07711208 -0.019663904 0.05205857
0002a0 93 e8 f2 bc ce 00 bb 3d eb 56 4e 3d 6c 5f 46 3c
       -0.029651916 0.09131013 0.05037586 0.012107711
0002b0 f5 1a 32 bc db 85 75 bc d9 d5 14 3c c6 3d fa 3c
       -0.010870685 -0.014985527 0.009084188 0.030547034
0002c0 d1 dc 10 bd 3b 04 14 bd ce d4 8a 3d 8f ca a1 3d
       -0.035366837 -0.036136847 0.067788705 0.07899963
0002d0 02 09 db 3c bd c5 a7 3d 0c e6 38 bd a7 3d 09 bd
       0.026737694 0.081920125 -0.045141265 -0.033506062
0002e0 eb 08 11 bd 46 9d 8f 3c c9 96 61 3b 04 72 d4 bc
       -0.035408895 0.017531049 0.003442215 -0.025933273
0002f0 8f ae 01 3d 6b 62 64 3d f8 b9 50 3d 32 e8 8b 3d
       0.031660613 0.05575792 0.050958604 0.06831397
000300 d6 ec 82 bd 06 ee 08 bd ea d9 7f bd e5 b1 19 bc
       -0.06392829 -0.03343012 -0.06246368 -0.009380792
000310 82 13 df 3c 8d 8d 25 bd 29 b1 5c bc 08 f0 fa bd
       0.027230982 -0.040418196 -0.013469973 -0.122528136
000320 27 24 78 3b 4c 50 92 3a ec 23 a2 bd d9 77 8e bd
       0.0037863345 0.0011162846 -0.07917008 -0.06956453
000330 bf 88 9d bd 45 ee 5c bc 7c 06 48 3c 21 97 14 bb
       -0.07692098 -0.013484542 0.012208577 -0.0022673088
000340 7b b1 b7 bd 7e 62 b1 bd 9c e6 88 3c 88 8a aa bd
       -0.089693986 -0.08661364 0.016711526 -0.08327204
000350 66 ca 0f bd fb d3 01 bd 89 bf 90 3c db 7f 67 bd
       -0.03510513 -0.0316963 0.017669456 -0.056518417
000360 cb 85 80 3c 96 16 25 3c 48 71 77 bd f3 a9 9b bd
       0.015688797 0.010076186 -0.060410768 -0.076007746
000370 fb 81 39 bc 14 fb 26 3d d3 6f 99 bd d1 1b c1 3c
       -0.011322494 0.04076679 -0.07492032 0.023572834
000380 1c 9e ff bb c7 ab 85 bd 4a e2 19 3d 22 5d b6 3b
       -0.0078008305 -0.065269046 0.03756932 0.0055653015
000390 a3 0b 1a bc 11 55 2b bd 0f 62 bc 3c d7 19 8f 3b
       -0.0094021885 -0.041829173 0.022995977 0.004367094
0003a0 b5 24 11 bd ea 91 42 bd 8e ec de bc 19 46 3d 3c
       -0.035435397 -0.047502436 -0.027212407 0.011552357
0003b0 1e 25 4e bd 81 61 26 3d 6c 9a 24 3d 38 f0 89 bd
       -0.050328366 0.04062033 0.04018633 -0.06735271
0003c0 3d 17 1c bd 72 c2 0d 3d b9 09 f5 3c 3a c2 99 bd
       -0.0381081 0.034609266 0.029911863 -0.07507749
0003d0 0e d9 db bc 21 89 37 3d 09 9a a3 bc d8 c5 4f 3b
       -0.026836898 0.04480851 -0.01997091 0.0031703617
0003e0 6e 71 6c bb 26 db 61 bd 22 78 a5 bc f8 49 f4 bd
       -0.0036078352 -0.055140637 -0.020198885 -0.11928171
0003f0 1b 0e 4d bd 95 44 b4 bc 02 af 1f bd 72 e5 a1 bc
       -0.05006228 -0.022005359 -0.03898526 -0.019762728

network_body.linear_encoder.seq_layers.2.bias f4 [128]
000000 e9 b7 31 bc 17 ff 1f bc 20 94 19 3c 8c e5 04 bc
       -0.01084707 -0.009765408 0.009373695 -0.008111369
000010 bf 8b 68 bb 1c 82 6b 38 25 cb 16 bc a1 07 64 bc
       -0.0035483686 5.614954e-05 -0.009203707 -0.0139178345
000020 35 86 50 bc 9e 7e c5 3c e2 60 b4 3b b1 b2 b3 3c
       -0.01272731 0.024108227 0.0055047134 0.021935793
000030 c6 47 bd bb 24 b9 51 bc cc f7 11 bc b6 10 b3 ba
       -0.0057763783 -0.012800489 -0.008909177 -0.0013661596
000040 f5 fd a4 3c f1 5b cc 3c 65 6f 88 bc eb f9 3b 3c
       0.020140627 0.024946185 -0.01665468 0.011473159
000050 69 12 ae 3c 7d 7e 93 3c 61 f7 2f bc 42 de d8 bb
       0.021249013 0.01800465 -0.010740132 -0.006618292
000060 12 39 8e bc d9 80 00 bb 29 21 6a bc 17 9e 30 3b
       -0.017361198 -0.001960805 -0.014290133 0.0026949698
000070 d0 2c 57 3c 95 e7 f0 bb 26 af a1 bc ff f9 be 3c
       0.013133243 -0.0073518255 -0.019736838 0.023312567
000080 9a 37 1d 3c 06 ea a2 3a 23 f6 ee 3a f8 54 52 3c
       0.009595776 0.0012429364 0.0018231313 0.012837641
000090 27 62 9f bc aa eb 4b bb 03 ef 1f bc 76 eb 3d 3c
       -0.019455982 -0.0031115809 -0.009761575 0.011591783
0000a0 34 03 2b bc 42 ce b3 3c 05 b9 86 3c 8f f1 89 bc
       -0.010437775 0.021948937 0.016445646 -0.016838817
0000b0 01 2d 65 3c ce ae 32 3b 91 97 03 bc 90 51 04 3c
       0.013987781 0.0027264836 -0.008031742 0.008076087
0000c0 1b a8 0f 3b fe a0 c0 bb 98 30 aa 3c d2 a8 89 bc
       0.0021920267 -0.0058785668 0.020775124 -0.016804133
0000d0 31 8d 9c 3b 3a b9 0b 3c f2 51 09 bc 8f 53 98 bc
       0.0047775735 0.008528048 -0.008381354 -0.018594531
0000e0 ab 49 70 bc 82 25 8c 3c 6c d2 76 bc 67 13 a2 3c
       -0.014666001 0.017107729 -0.015064817 0.019784642
0000f0 a7 76 51 bc 70 13 6e bc d4 f3 30 bc 4b bf 79 3c
       -0.012784637 -0.014531001 -0.010800321 0.015243362
000100 c1 38 28 bc da 37 50 bc 82 43 a6 3c 2f 61 93 3c
       -0.010267437 -0.012708629 0.020295862 0.017990677
000110 65 33 b0 3c 58 7d b1 3c 96 67 93 3c a3 04 7a bb
       0.021508882 0.021666214 0.01799373 -0.0038149736
000120 8d 3a 2a bc 58 22 1a 3c 34 ce 6a bc 6c 78 b4 3c
       -0.010389936 0.009407602 -0.014331389 0.022030078
000130 89 fa 03 3c 3c 95 11 bc e4 02 44 bc 9a 65 97 bc
       0.008055338 -0.008885678 -0.01196358 -0.018481065
000140 b0 5e 3d 3c c0 f0 98 bb c8 78 5e 3c 97 23 8b bb
       0.01155822 -0.0046673715 0.013578601 -0.004246186
000150 ac a2 58 3c 13 0f 09 3c bd c9 56 bc 41 52 74 3c
       0.013222378 0.00836541 -0.013109622 0.014912189
000160 7f cb b3 bc 05 01 6d 3c 08 13 8b 3c 88 dd 48 bc
       -0.02194762 0.014465575 0.016976848 -0.012259848
000170 1c 21 52 bc ee 5b 52 bc 2b db 76 bc 7f ca 4a 3b
       -0.012825277 -0.012839301 -0.015066902 0.003094345
000180 a9 b8 81 3c 57 d6 0e bc 91 cf 30 bc 46 ad 51 bb
       0.015835123 -0.008718095 -0.010791675 -0.0031994148
000190 c5 a2 7d 3c 20 1c 0e 3c 8f b4 58 3c 77 e8 b9 3c
       0.015480702 0.008673698 0.013226642 0.022693856
0001a0 fa ef 9b 3b 6c d3 cf 3b 8c ec b3 3c 52 65 28 bc
       0.004758832 0.006342342 0.02196338 -0.010278063
0001b0 75 7f 15 3c f6 45 01 bc 9e 62 d8 3a 56 c4 58 bc
       0.009124626 -0.007890215 0.0016508882 -0.013230404
0001c0 4c 00 98 3c 01 f0 69 3c 2e 8a 97 3c 5b 88 1a bc
       0.018554829 0.014278413 0.018498506 -0.009431924
0001d0 2c d6 84 3c 33 0b 47 bc e7 da 42 bc c4 57 84 3c
       0.016215406 -0.012148666 -0.011893011 0.016155131
0001e0 b1 01 51 3c 95 08 6c 3c 6d 59 4a 3c a0 52 94 b9
       0.012756751 0.014406343 0.012350422 -0.0002829032
0001f0 2f 8a ab 3c d1 6d b2 3c de f3 48 3c ca 9e 76 bc
       0.020939915 0.02178088 0.012265174 -0.015052507

network_body.linear_encoder.seq_layers.2.weight f4 [128, 128]
000000 29 2d 11 be 7d 7c 56 3d ad df 1a be 6c 5b c0 bc
       -0.14177383 0.052364815 -0.15124388 -0.023481093
000010 1b bb e2 bd b2 5e c8 bd fd b6 3c be 90 a3 51 bd
       -0.11070844 -0.09783687 -0.1842918 -0.051181376
000020 50 63 7d 3d 79 14 88 3c 25 e2 34 bd 52 a2 6a 3c
       0.06186229 0.016611325 -0.04416098 0.014320927
000030 28 33 8b bd 29 b4 61 bd 39 4c 5b 3d b4 47 9f 3d
       -0.06796867 -0.055103455 0.05353949 0.07777348
000040 4f a8 07 bd ee 8a 37 3d 85 bc 9c 3d 44 61 0c bd
       -0.033119496 0.044810228 0.07653145 -0.034272447
000050 59 b5 51 bd aa cc 97 bd c6 1e 12 be 75 c1 83 3c
       -0.051198337 -0.074120834 -0.14269552 0.016083458
000060 a5 dc f1 bd b7 3e af bd 0e f0 26 bd 46 ba a5 bd
       -0.11809663 -0.08556884 -0.040756278 -0.080921695
000070 6b 3b fd bd dd 97 de 3d 12 1f 8f bd f4 1c e6 3d
       -0.12364849 0.10868809 -0.06988348 0.11235991
000080 3f 54 cd 3c 15 38 81 3d 8e a4 5b be 2a 62 16 bd
       0.025064586 0.06309525 -0.21449491 -0.03671471
000090 28 6b de bc fc 05 95 bb c3 58 4e 3d c2 c5 a5 3d
       -0.027150705 -0.0045478325 0.05037762 0.0809436
0000a0 32 d4 96 bc a7 f7 0a be 3a 03 93 bd 19 37 14 3d
       -0.01841173 -0.13571034 -0.0717835 0.036185358
0000b0 d6 28 b5 3d dc b4 69 3d de b5 93 bd 6e fd bf 3d
       0.088456795 0.057057247 -0.07212423 0.0937451
0000c0 ae c1 b8 bc ac a2 34 bd a0 d7 10 bd 12 21 8f 3d
       -0.022553291 -0.04410045 -0.035361886 0.069887295
0000d0 49 9b 5e bd 2f e1 33 bd ef be 19 bc bb c0 37 be
       -0.05434731 -0.043915924 -0.009383901 -0.17944615
0000e0 a4 18 b8 bd b2 25 50 bd 66 3b ab 3a 7b d1 e5 bc
       -0.08989075 -0.0508172 0.0013063967 -0.02805399
0000f0 67 91 db 3d da 02 20 3d e3 f2 1a bd 8d 81 a6 3d
       0.10721093 0.03906522 -0.03782929 0.081301786
000100 b5 52 11 3e 4a fe f1 bd 04 e1 96 3d 97 37 01 bd
       0.14191706 -0.1181608 0.07367137 -0.031547155
000110 c2 e4 af bc 7d 65 a1 bd ae c8 ba bc 99 54 1e be
       -0.021471385 -0.078806855 -0.02280077 -0.15461959
000120 da 4a ec bd 04 fe 34 bd 1c ad 32 be 25 07 51 bd
       -0.11537714 -0.04418756 -0.17448848 -0.051032204
000130 db ac 0c bb 8c 89 70 be 23 3a 02 3e 42 ea 98 3c
       -0.0021465335 -0.2348997 0.1271749 0.01866639
000140 14 c9 b4 bd 9d 7b 04 bd 1f 0d 31 3e cb 5a e7 3c
       -0.08827415 -0.03234445 0.17290162 0.028241536
000150 79 05 66 3b ff 97 68 bc 0c cd 1d 3e 39 dd b9 bd
       0.0035098477 -0.014196395 0.1541025 -0.09075398
000160 ec fb ed bc b6 f2 c5 bb 59 12 7b bd be cb 89 bd
       -0.02905079 -0.0060408963 -0.061296795 -0.06728314
000170 b6 b6 51 3d 39 3a 4d 3d 1e fc b9 bd b7 b6 3a 3d
       0.051199637 0.050104354 -0.09081291 0.045584407
000180 a0 57 7f bc 49 52 99 bd 24 8f f6 bd fc 1b aa bc
       -0.015584856 -0.07486398 -0.12039021 -0.020765297
000190 b6 73 4a 3c f8 2e 98 3d 4b eb a2 3d 0b 6c bd bd
       0.012356689 0.074308336 0.07955035 -0.09249123
0001a0 c3 2c 12 bc f0 eb 18 be 7c 56 45 be 61 64 08 3e
       -0.008921805 -0.14933753 -0.19271272 0.13319542
0001b0 b3 10 09 be cf 0d e6 3d c9 63 9f bb c5 4e b5 3c
       -0.13385276 0.112331025 -0.0048641902 0.022132287
0001c0 e5 d6 7e bc 99 4f c0 bd 8d da 8e 3d 28 20 e2 3d
       -0.015554165 -0.09390182 0.06975279 0.110412896
0001d0 af 50 18 bd 83 65 1b 3d 5d 09 de ba 3e 97 23 be
       -0.03718632 0.037938606 -0.0016940046 -0.15975663
0001e0 04 22 15 bd 2b 27 4e bd 92 20 eb 3d f1 23 d5 3c
       -0.036409393 -0.050330322 0.11480822 0.026018115
0001f0 90 98 f0 3d 95 14 c8 bd 2c b0 4a 3c 4f b2 17 3d
       0.11747849 -0.09769551 0.012371104 0.037035283
000200 71 bd f0 3c 3a 72 cc bd a4 02 af 3d 57 fc b1 bd
       0.029387208 -0.099827245 0.085454255 -0.08690708
000210 22 1e 8a bc a0 79 ee bc 59 62 4b bd 01 2d eb bd
       -0.016860072 -0.02911073 -0.04965434 -0.11483193
000220 07 51 1c be 71 21 71 bd 38 21 38 3e b6 22 2a 3e
       -0.15265284 -0.058869783 0.17981422 0.16614804
000230 73 aa 14 3e 0a 03 05 be 32 cf 50 3d 55 24 84 3d
       0.14518146 -0.1298944 0.050978847 0.06452242
000240 11 5e ec bd f4 c7 f7 bd 0a 20 20 be 52 e9 a5 bd
       -0.11541379 -0.12098685 -0.15637222 -0.08101143
000250 9a d2 c3 bb 42 64 3d bd 82 cf 5b 3d e4 3d a6 bd
       -0.0059760334 -0.04623819 0.05366469 -0.081172734
000260 3d df 2e 3d 40 7c dc 3d 9f 14 4b bd f6 8d 35 be
       0.042693365 0.10765886 -0.049580213 -0.17729935
000270 6c e1 ba bd 6c 9f b6 3d cc 22 ad 3d f0 c6 62 3d
       -0.09125027 0.08917126 0.084539026 0.055365503
000280 87 42 08 3d 57 fa 80 3c 90 bc 72 3d 1f 03 93 bc
       0.03326657 0.015744371 0.05926186 -0.017945824
000290 f8 39 b7 3d 0c 3d cf 3d 57 9c f7 b8 10 6a 7e 3d
       0.089466035 0.10119066 -0.000118069984 0.062112868
0002a0 b1 e6 9f bc e7 26 a2 bd 12 0a 6c 3d 9d 7b e5 3c
       -0.019519182 -0.07917576 0.05762679 0.028013045
0002b0 64 01 82 bd 6b 44 01 3e 7c 42 7c 3d 69 74 a0 bd
       -0.063479215 0.12623756 0.061586842 -0.078347035
0002c0 6c d8 00 be ca 71 64 3c f0 06 5f 3e 43 d1 c2 3d
       -0.12582558 0.013943145 0.2177999 0.0951257
0002d0 7c 66 86 bd 54 68 ab ba 5e b3 a3 bd 32 f4 cc 3d
       -0.06562516 -0.0013077357 -0.07993196 0.10007514
0002e0 7e d1 03 3e d4 40 87 3b c9 6b e7 3d 52 9b 00 3b
       0.12872884 0.004127601 0.11299855 0.0019623828
0002f0 f1 69 1c 3d 30 a2 3b be ff ac 11 be 8f 71 31 3c
       0.03818697 -0.18323588 -0.14226149 0.010830297
000300 0d dc 72 3c 44 51 9f bd d6 19 c9 bd 42 54 bc 3d
       0.014822972 -0.07779172 -0.09819381 0.091957584
000310 ce 13 99 3d bf cb 0d bd 6a 04 b0 bd 9f 14 f6 3d
       0.074744806 -0.034618136 -0.08594592 0.12015652
000320 4b 2b f7 bd 8c 43 2b bc 73 24 df 3d 8e b3 b3 3d
       -0.12068804 -0.010453116 0.10895624 0.08774482
000330 89 2c 2d 3e f6 f9 29 be 7b e9 36 3d 54 34 43 bc
       0.1691152 -0.16599259 0.044656258 -0.0119143315
000340 82 df d9 3c 28 1b 01 3e b2 22 0a 3e d6 0b 13 be
       0.026595835 0.12608016 0.13489798 -0.14359984
000350 0a 88 8c 3c bc 85 83 bd 22 88 12 be cc e9 cf bd
       0.017154712 -0.06421992 -0.14309743 -0.10152015
000360 93 3e 15 3b e8 4f 04 3e bd d5 20 be 5a d3 0e be
       0.0022772893 0.12921107 -0.15706535 -0.13947812
000370 96 95 09 3e 7c 96 aa 3d 72 29 40 be d7 08 8a 3d
       0.13435969 0.08329484 -0.1876581 0.06739967
000380 ec 1b 90 bc 72 cb 9b bc d1 eb 98 bd 8b d2 05 3e
       -0.01759144 -0.019017909 -0.074668534 0.13068597
000390 c1 de 1e be 58 87 21 3d 3f ed 55 be fc 5d cf bd
       -0.15514661 0.039435714 -0.20891283 -0.10125348
0003a0 5b bc 06 bc e5 a1 51 3d f9 d7 8c 3c 92 54 8d 3d
       -0.008223618 0.051179785 0.017192828 0.06900896
0003b0 36 77 6d 3c b2 e3 66 bc c4 62 0e be b7 0d a1 3c
       0.014493754 -0.014092373 -0.13904864 0.01965986
0003c0 c6 40 b5 bc cc 54 03 3e 07 ab b1 bd 82 36 fa 3d
       -0.022125613 0.12825316 -0.08675199 0.12217428
0003d0 56 b2 c9 3d eb a2 ba 3d bd fa c3 bd 02 a6 0d 3e
       0.09848468 0.091131054 -0.09569309 0.13832858
0003e0 24 ea d5 3d 87 4a c9 3d 85 3d 92 3d df 98 d6 bc
       0.104450494 0.09828668 0.0714064 -0.026195941
0003f0 8a aa 82 bd 55 4b 72 3e 5c 50 d0 3d 0e 11 7b 3d
       -0.06380184 0.2366155 0.10171577 0.06129556
