Assets/results/Run05/RobotPathFinder/RobotPathFinder-499991.onnx (onnx, 280587 bytes, 6 tensors)

distribution.branches.0.bias f4 [4]
00000000: 2b5f bfbc 4f8c c33b 94e3 203b c9b0 a13c
-0.02336081 0.005967654 0.002454971 0.019737618

distribution.branches.0.weight f4 [4, 128]
00000000: f829 19bd f60c 0dbc 9d73 d3bc 1e76 1e3d
00000010: 02cc d1bc f1b2 cebc fa77 d63b f99d 07bd
00000020: 0621 d73b 7c10 38bd 425f 4a3c 22b1 c3bc
00000030: 0109 afbc 6afb 893c 1193 29bc 4710 13bd
00000040: 2db6 0fbd 1ad7 9f3c 33ca 22bb 3293 0abd
00000050: 5283 9ebc da58 00bc d27d 953c 95b6 ae3a
00000060: a685 89bc d1cb 8f3c 0ad3 1fbc 30b1 b23c
00000070: d771 2abd 415c d9bb cb48 3f3c 64c8 11bc
00000080: 09ce 07bd 8a9b debc e6a8 2cbd 88f3 5f3c
00000090: 9793 85bc cdd6 a03b 2ec8 59bb 42dc d2bc
000000a0: 2cdb 8ebc d30a eebc 5b6c 21bd 4441 2ebd
000000b0: b8d8 16bd b501 2dbc 49af fdbc c4d2 cabc
000000c0: 915a e9bc 56d8 753c d664 313c b2d7 003c
000000d0: 3edb 8f39 3f8b c1bc b1ab 38bd 891d 963c
000000e0: a4d7 92bc 2085 fc3c 4ebe cdbc f0e0 803c
000000f0: 6e10 0dbd 0ed3 27bd 4424 bdbc 1725 41bc
00000100: b9a6 a3bb d9bd 213d 59c5 1ebd b167 88bc
00000110: 2fe6 223d ffbe 24bd 7408 9abc 2a43 f2bc
00000120: a85a a2bb dc4f d7bc c9b7 99bc 0a41 afbc
00000130: ae58 0fbd 2dd2 843c d611 34bc 031c 02bd
00000140: 115c 533c a38e 12bd 4d65 0fbd 185e a43c
00000150: c790 a1bb 269b 143d 1c22 173c cae7 03bc
00000160: c31c 76bc 1f9d 88bc 4b5a f5bc ed8b e3bc
00000170: effb ee3c 8fc9 c4bc f54e 4b3c e003 dfbc
00000180: fba3 033d 330b d4bc 6eeb 20bd 4215 36bc
00000190: 82b2 37bc 3a08 0fbd a2f8 3b3c 85aa 4c3c
000001a0: fd6c 1fbc 6ca7 d7bc 8111 f73c fc07 12bd
000001b0: 170d 20bd a3e8 85bc fe69 69bb 48f2 0fbd
000001c0: 0c82 043d 1f4e b4bc c4a2 14bd 9887 05bd
000001d0: 0802 af3b c4bb 24bd c8a2 07bd 8e96 34bd
000001e0: 5710 1bbd 8dc1 26bc 3040 c9bc 589d e1bc
000001f0: d303 823c 94ef 76bc be13 16bc eba5 febb
00000200: ac56 84bc a7d4 873d 4130 3f3c d9fb d8bc
00000210: 41a6 58bd f4d0 06bc 34ba 933d 08aa 863a
00000220: 17c9 ba3d 729c 0abd 75a9 e1bc b6a7 493d
00000230: 5a7e a4bd 029a 843b 299c 94bd d1e0 323d
00000240: 5c88 473d 5d14 073d ce0c ad3d dc1e 873c
00000250: 1615 8cbc c38e a63d 9b8f 42bd 8881 af3d
00000260: a789 96bd ab5c e93b 8cb5 86bd c97c ac3b
00000270: 7d90 e1bc 2b26 d3bd cc2c 9f3d 826a 803d
00000280: abcf e9bc 1989 51bd 3b8b 27bd 524f 92bd
00000290: b142 c9bd 790d 973d 89a1 933d 467a 8e3c
000002a0: 3ef8 73bd 5414 0cbd e11d 423d ea4e 0cbd
000002b0: 6429 93bc ccd1 6b3d cf30 3ebd 34ee 80bc
000002c0: 4915 803c 6e4f 3fbc 3f7e 153c eaad 84bd
000002d0: b1ce ccbd 4423 3c3d 3742 3dbc d548 823d
000002e0: df74 523d 9d3e a0bc a650 603d b835 cebc
000002f0: 5d68 c93c 0dd1 6b3c a8d2 93bd cd17 86bd
00000300: 9780 19bd a699 513c f49d 133d d882 71bd
00000310: 1f28 553d 6184 c93c 7178 7f3b e3b8 673c
00000320: 9e5c 97bc 9f0d 8cbd 93e9 7b3d 0545 4d3d
00000330: 0d45 513d c826 83bd 64f7 12bd f27b 09bd
00000340: 1836 85bd 6c4f ab3d 61c6 72bd ed33 8f3d
00000350: fef9 a43d 880b 92bc 3979 953d de22 9d3d
00000360: b778 a03d ec7f 323d a541 cdbc f274 5d3d
00000370: 3d7a cbbb 85cc ca3c 6888 c9bc 258b d2bd
00000380: e272 39bd b40a 6dbd 66cd db3a cfa9 993d
00000390: 280e 5bbd e9e8 c03c 47ec 973d 6e58 943d
000003a0: 3e92 3a3c 552c cd3c c894 f23a 86c7 773d
000003b0: 4509 153b 7561 8dbc dd4f 903d 9c39 67bd
000003c0: bb07 1bbd 981e 253d 1075 48bd ea35 9c3c
000003d0: 286e 833d 6341 f1bc b533 38bd 02d9 14bc
000003e0: 00bc 1d3d dbc9 083d 9da5 69bd 72c4 6cbd
000003f0: d2f7 8d3d 3b89 22bd 5f01 3c3d 19df 813d
-0.03739354 -0.008609047 -0.025811965 0.038686864 -0.025609974 -0.02523181 0.006545064 -0.03310964
0.006565216 -0.044937596 0.012351813 -0.023888174 -0.021366598 0.016843516 -0.010350005 -0.035904195
-0.035085846 0.019511748 -0.0024839758 -0.033831783 -0.019349728 -0.007833684 0.018248472 0.001332956
-0.016787361 0.017553242 -0.0097549055 0.021813005 -0.041612472 -0.006633312 0.01167507 -0.0088978745
-0.033155475 -0.027173776 -0.04215326 0.013668902 -0.016305728 0.0049084187 -0.0033230889 -0.025739793
-0.017438494 -0.029057896 -0.039409976 -0.04254271 -0.036827773 -0.010559489 -0.030967372 -0.024758704
-0.028485568 0.015005192 0.010827264 0.007863926 0.00027438434 -0.023625968 -0.045085613 0.01832463
-0.017925091 0.030825198 -0.025115158 0.015732259 -0.034439497 -0.04097276 -0.023088582 -0.011788628
-0.00499424 0.039487693 -0.038762424 -0.016651006 0.0397703 -0.04022121 -0.018802859 -0.029573042
-0.0049546547 -0.026283197 -0.018764393 -0.021393318 -0.03499668 0.0162135 -0.010990581 -0.031764995
0.012900368 -0.03578056 -0.035008717 0.020064399 -0.004930589 0.036280774 0.009224441 -0.008050868
-0.015021506 -0.016676484 -0.029950282 -0.027776683 0.029172866 -0.024021892 0.012408962 -0.027223527
0.032138806 -0.025884246 -0.039287023 -0.011113467 -0.011211993 -0.034919955 0.011472853 0.012491827
-0.009730575 -0.02632495 0.030159714 -0.035652146 -0.039074983 -0.016346281 -0.0035616155 -0.035143167
0.032350585 -0.022009907 -0.036288038 -0.032600015 0.0053408183 -0.04021813 -0.033114225 -0.044088893
-0.03785738 -0.010177982 -0.02456674 -0.027540848 0.015870964 -0.015071768 -0.00915998 -0.007771244
-0.01615461 0.06632357 0.0116692195 -0.026487278 -0.052892927 -0.008228529 0.0721325 0.0010274062
0.09120386 -0.033840604 -0.027546624 0.049232207 -0.08031912 0.0040466795 -0.07256348 0.043671433
0.048714027 0.032978404 0.08449708 0.016494207 -0.017099898 0.081326984 -0.047500234 0.08569628
-0.07350474 0.0071216426 -0.06577596 0.005263899 -0.027534718 -0.10310014 0.07772216 0.06270315
-0.028541407 -0.051156137 -0.040904265 -0.071440354 -0.098271735 0.073756166 0.07208545 0.017392289
-0.059562914 -0.034199074 0.047391776 -0.034254946 -0.017964073 0.057573125 -0.046433266 -0.015738584
0.01563515 -0.011676652 0.009124338 -0.06478484 -0.10000361 0.04593207 -0.011551431 0.06361548
0.05138099 -0.019561106 0.054764412 -0.0251721 0.024585897 0.014393103 -0.07217914 -0.065475084
-0.03747615 0.01279298 0.036039308 -0.058962673 0.052040216 0.024599256 0.00389817 0.0141432015
-0.01847678 -0.068385355 0.06150205 0.05011465 0.051091243 -0.06403881 -0.03588046 -0.03356547
-0.06504458 0.08364758 -0.05927122 0.06992326 0.08055495 -0.017827764 0.07298512 0.07672666
0.078355245 0.043579027 -0.025055716 0.054066606 -0.0062096403 0.024755726 -0.024601176 -0.10280446
-0.045275576 -0.057871535 0.0016769588 0.075030915 -0.053480297 0.02354856 0.07418113 0.07243429
0.011387406 0.025045553 0.0018507475 0.060493015 0.002274112 -0.017258385 0.07046483 -0.056451425
-0.03784917 0.04031238 -0.048939764 0.019068677 0.06417495 -0.029450124 -0.044971187 -0.009084942
0.03850937 0.03339563 -0.057042707 -0.057804532 0.069320336 -0.039681654 0.045899745 0.063413806

network_body.linear_encoder.seq_layers.0.bias f4 [128]
00000000: 1514 3a3d 0ad2 d6bc d5b9 e33c 95f1 b3bc
00000010: 7773 d23c 3cf6 003d 4568 ea3c 512b 6b3c
00000020: dcda 1d3d e43e 8c3c 032a b23c ace2 873c
00000030: d109 2d3d ccbf 3abb dda3 e13c 9274 8e3c
00000040: ea20 223d 6171 a2bc a7fb ee3c 8bbd cf3c
00000050: 1f7f 6b3c e4e4 633b d91a 393b 58f4 f03b
00000060: 65db cc3c ba54 babc 8aa0 b93c a69b 3cbb
00000070: e85e 5b3c 680c 19bd c05c 6a3c 65b3 823c
00000080: d158 b53c 81ec 313d b543 173d fe5e ce3c
00000090: f1c6 003c d172 003d 21b5 02bd a9c8 1c3d
000000a0: 9b30 b23c c4a6 403d 0310 ac3c ac2f 683d
000000b0: d602 a63c 71e4 e33c a18c 0b3c d819 c03c
000000c0: 061a 1f3d 499b 38bb 67e1 743c 2b7c 6dbb
000000d0: 02bb 1d3d a3d6 243d fd15 0b3d 2e4b fb3c
000000e0: 116b a43c 0288 da3b 44d5 6f3c ea77 ad3c
000000f0: 1073 a63d 0c0d d13c 8427 273d aac7 0f3d
00000100: 3c8c b73c 57c5 043d 74de 653c da3f 4e3d
00000110: 3ef2 b5bc afcc f8b8 6058 1f3d d169 ac3c
00000120: 5f45 4e3c 02b1 ed3c 376b 1d3d 35ec 093d
00000130: 16fd c53c c8d2 1d3c a181 703c de82 c33c
00000140: 5c6b b13c c1a8 133d 1b6a b7bc e2c5 febc
00000150: 1c2b 8f3c 12f5 c2bc efc2 c13c 3362 be3c
00000160: 440b aa3c d34c 1b3c d9b9 f73c 3dd6 0a3c
00000170: 8dda bc3c 8281 463d 69c9 0d3d fa65 383d
00000180: c87f be3c 223b a83c b5f5 e83c 4051 ba3c
00000190: d2e0 88bb 45de d3bc 883c 173d fa69 933b
000001a0: ba40 083d daef c73c 2169 dcbc 3fd3 f13c
000001b0: 33ab 29bd 2625 27bc 43ba a43c 1162 803c
000001c0: 8f98 1c3c ee11 303c 8345 acbc b3ec 413c
000001d0: 4689 b83c 74ff 433c c831 0c3d 365c 263d
000001e0: a985 3c3d 1d29 123d a8c1 d4bc 9104 b5bb
000001f0: d323 073d e452 02bd 2998 e93c fb34 133d
0.045429308 -0.026223201 0.027798573 -0.021965781 0.025689824 0.031484827 0.028614173 0.014353589
0.0385388 0.017119832 0.021748548 0.016587578 0.04224569 -0.0028495668 0.027543956 0.01738957
0.03958217 -0.019829454 0.029172732 0.025358936 0.01437357 0.003477388 0.0028244762 0.007353347
0.02500696 -0.022745479 0.022659559 -0.0028779297 0.013389327 -0.037365347 0.01430434 0.015954683
0.022137078 0.04343844 0.036929805 0.02519178 0.007859931 0.031359497 -0.03191102 0.038277302
0.021751693 0.04703404 0.021003729 0.05668609 0.020265024 0.02781889 0.008517415 0.023449823
0.038843177 -0.002816873 0.014946318 -0.003623734 0.038508423 0.040243756 0.033956517 0.030675497
0.020070584 0.0066690454 0.014638249 0.021175344 0.08127415 0.025518917 0.04080917 0.035102524
0.022405736 0.03241476 0.014030088 0.050353862 -0.022210237 -0.00011863687 0.03890264 0.021046551
0.012589782 0.029015068 0.038432326 0.03367253 0.024168532 0.009632774 0.014679343 0.023866113
0.021657638 0.03604961 -0.022389462 -0.031100217 0.01747661 -0.0237985 0.023652522 0.023240184
0.020757325 0.009478766 0.030239986 0.00847393 0.023053432 0.048463352 0.034615908 0.045019127
0.02325429 0.02053601 0.028437475 0.022743821 -0.0041771913 -0.025862822 0.03692296 0.0044987174
0.033264853 0.024406362 -0.026905598 0.029519675 -0.041423034 -0.010201728 0.020108348 0.015671762
0.009557857 0.010746462 -0.02102924 0.011836219 0.022526395 0.01196276 0.034227163 0.040615283
0.046025906 0.03568374 -0.025971249 -0.005524226 0.03299315 -0.031817332 0.028514938 0.035939198

network_body.linear_encoder.seq_layers.0.weight f4 [128, 410]
00000000: 2c63 1ebd d163 3d3c 717e 7dbd 49cb 953c
00000010: 913c ad3c 3980 b5bc f5e4 26bd ebe4 9b3d
00000020: 3f08 1cbd 30d4 11bd 8d31 34bd dbf9 7d3d
00000030: 8285 76bc e246 a33b 0cc3 d0bd 744f 8b3d
00000040: 567a 93bd 8af1 683c bec8 843c 2f50 b13c
00000050: d2b0 3a3c 09aa acbd b051 d93c 068f cc3d
00000060: 66b9 57bd dfa0 a0bc 1d94 183d a615 243d
00000070: 465a 823a 1472 00bd a3dc 183d 0f40 ca3d
00000080: cc7d 393c 6910 5b3b b78c 15bd 851c e6bc
00000090: 7364 363d 218b 47bd f703 0cbc 3ba7 053c
000000a0: c03a 723d 30a9 83bd 0c72 723c 6c7b 1bbc
000000b0: 6292 f0bc bcf9 02bc 6a64 d1bd 0a9c bd3c
000000c0: fd5b 903d 5d6e 233c 6cf4 643d 5dce 823d
000000d0: ab74 10bd b99a 75bb 07f2 92bd de94 fbbc
000000e0: 8050 ea3d 0d64 cdbc eeb4 bb3b 727c 4ebd
000000f0: ee0a f83d 1526 11bd ab5f 87bd 6368 99bc
00000100: 63c8 e23b 10d0 93bd cc91 85bd e7b5 b43c
00000110: d467 703d 358f 61bc 0705 a8bc 176e d93c
00000120: a735 0a3d 162f 58bc b21a 30bc 703e 6c3d
00000130: 486e 83bc 122b d4bc cd17 28bd 4f9d a93c
00000140: 2259 543d 44b7 d3bd ce9d e2bc 370b 313d
00000150: b125 843d 2f33 bb3c f29a b7bd 3d09 5e3d
00000160: cc30 ecbc 92c0 da3c 6f7c 0d3d 5087 d53c
00000170: 2987 3f3d 1c86 99bd 0910 a0bc bb4a 0b3d
00000180: e4de 933d 82aa f5bb 865f 8d3c 234e 673c
00000190: d987 b0bc 89c6 8bbd 8eb8 5b3c 9de8 ac3c
000001a0: af55 0a3b 96ea 803d d1dd debc 8efc e9bc
000001b0: f7ae ca3d a9f7 b83c c5a0 93bd ae31 9c3c
000001c0: efc5 903d c385 323c 1bab 80bd c40a a13d
000001d0: e2d8 b6bb 398e e93d 7fd0 57bd 1a8a d53d
000001e0: 57e3 5d3d b126 003e 46b6 d5bd 7b81 36bc
000001f0: 2064 91bd 0ff1 10bd 3334 83bd 2205 f33a
00000200: ea65 58ba 97d3 093d b5cb 86bc 428b 0d3e
00000210: 9d5e 673d 110e 303d 87c5 d4bd 8689 c13d
00000220: 2a72 233d 1765 cbbb ebc4 093d a4c1 343d
00000230: fd93 643d f7ea 193d 117a 2c3d a398 5e3d
00000240: 2ca1 703d 3bba 21bd f873 15bd 9368 983d
00000250: 6339 a73c ab5c cdbc a2b7 6bbd d51f 553d
00000260: d3cd 4d3c 9602 39bd 0a47 683d f1ab 593d
00000270: 6021 4a3d 7109 1dbd de66 a43c e2f7 afbb
00000280: 3536 9fbb fe4f f73c 05e5 553d fe6c 1c3d
00000290: 92dc 7d3c 05fa 503d ebe3 1ebd 5ab2 143d
000002a0: 2121 81bc 3810 07bc 426d d2bd 250e 613b
000002b0: 39ac c73c 243e a1bd 93dd c0bd 60a4 143c
000002c0: 316d afbb c698 2c3d e0fe 25bc 9155 a83b
000002d0: 404d 583d 8211 1d3d 435f b4bd 1498 ba3b
000002e0: f65d 18bc 675a 7b3c db87 2ebd f42d 9d3d
000002f0: 686f 363c f0ba b03c e76b 41bd 6ce1 223d
00000300: 71a5 5f3d 2fb2 29bd d6c8 ecbb c998 d43d
00000310: 905e 3dbc 1a38 2dbc 95f7 013d ccb4 0f3e
00000320: a1d6 57bc e7e6 d83c a50d a6bc b144 ad3d
00000330: 9c69 07bd 592b 813d 678f e2bd 4120 84bd
00000340: 3cd3 8e3c c7d0 023c 9727 ae3d e1dc e2bb
00000350: fafc 4f39 a455 b73c 9cb8 98bd ec3e 523c
00000360: 3031 033c 8615 a13b 8e95 633d 0450 e13d
00000370: d11f 733c 6992 48bd f6e1 43bd 3822 083e
00000380: 8a13 9a3d 6df2 2a3c ba8f 21bc f9fe 933c
00000390: d399 f63d 2ffd 58bc 510b ccbd 0849 d23d
000003a0: 3e39 27bd ffc7 e0bc e55b 92bc 1c8a c43d
000003b0: 6434 38bd 6a10 1a3c 4206 24be 5a93 ea3d
000003c0: 9749 ca3d 315b 75bd 3090 bf3b 7ab5 efbc
000003d0: e3e7 703d 4895 103d 43c2 a13d 1014 92bd
000003e0: 8200 883d e735 60bd 067f 9bbd b440 d43c
000003f0: bd06 57bd 19d4 00bc cb90 f9bd ee82 0c3e
-0.038668796 0.011559443 -0.061888162 0.01828541 0.021147044 -0.022155868 -0.040745694 0.07612022
-0.0380938 -0.03560275 -0.043992568 0.06200586 -0.015046479 0.004982815 -0.10193452 0.06802264
-0.07201068 0.014217744 0.016209003 0.02164468 0.011394696 -0.08430869 0.02652821 0.09988217
-0.052667044 -0.01960796 0.037250627 0.040059708 0.0009945116 -0.031358793 0.03731979 0.098754995
0.011321496 0.003342653 -0.03651115 -0.028089771 0.04452939 -0.048716668 -0.008545867 0.008157547
0.05913806 -0.06428754 0.014797699 -0.009489875 -0.029366676 -0.007994112 -0.102242306 0.023145694
0.07048795 0.009975043 0.05589716 0.06387017 -0.035267513 -0.0037476255 -0.07175069 -0.030710634
0.114411354 -0.025072122 0.0057283556 -0.05041165 0.1211146 -0.03543671 -0.06610044 -0.018726533
0.0069208606 -0.07217419 -0.06521949 0.022059394 0.05869277 -0.013767053 -0.02051021 0.026541753
0.033742573 -0.01319482 -0.010748552 0.057676733 -0.016043797 -0.025899444 -0.041038323 0.020704893
0.051842816 -0.103376895 -0.027663138 0.043223586 0.064525016 0.022851555 -0.089651 0.05420803
-0.028831862 0.026703153 0.034542497 0.026065499 0.04675976 -0.074962825 -0.019538896 0.034006815
0.072202474 -0.0074971328 0.017257463 0.01411775 -0.021549152 -0.06824977 0.0134107005 0.021107012
0.00211082 0.06294744 -0.02720538 -0.02856281 0.09896653 0.022579031 -0.07208399 0.019066658
0.07069003 0.010896149 -0.06282636 0.078633815 -0.0055800537 0.1140408 -0.05268907 0.104267314
0.054171886 0.1251476 -0.104351565 -0.011139269 -0.070991755 -0.03538614 -0.064064406 0.0018540958
-0.00082549325 0.033649053 -0.016454557 0.13822654 0.056486715 0.042982165 -0.10389238 0.09450059
0.039903797 -0.006207119 0.03363506 0.044129983 0.055805195 0.037577596 0.0421086 0.054344784
0.058747455 -0.039484244 -0.03648755 0.07441821 0.020413106 -0.025068602 -0.057548173 0.05203231
0.012561279 -0.04516848 0.056708373 0.05314249 0.049348235 -0.038339082 0.020068582 -0.005370126
-0.004858757 0.03018951 0.052220363 0.03818988 0.015494483 0.051019687 -0.03879158 0.0363029
-0.015762867 -0.008243613 -0.102747455 0.0034340706 0.024374114 -0.078731805 -0.09417262 0.009072393
-0.005353593 0.042137884 -0.010131568 0.0051371534 0.052808046 0.038346775 -0.08807232 0.0056943987
-0.009299746 0.015341378 -0.04261003 0.076747805 0.01113496 0.021573514 -0.047222044 0.03976576
0.054601137 -0.041429695 -0.00722609 0.10380704 -0.01155819 -0.010572458 0.031730253 0.14033812
-0.01317373 0.02647729 -0.020270178 0.084603675 -0.0330597 0.06307096 -0.11062508 -0.064514644
0.017434709 0.007984347 0.08503645 -0.0069233035 0.000198353 0.022379704 -0.074570864 0.012832385
0.008007333 0.004915896 0.05556255 0.1100159 0.014839129 -0.048967753 -0.047822915 0.13294303
0.07523258 0.010433775 -0.009860927 0.018065916 0.120410584 -0.013243957 -0.09963096 0.10267836
-0.040826075 -0.027439116 -0.017866084 0.09596655 -0.04497184 0.0094033275 -0.16018012 0.11453886
0.098773174 -0.05990142 0.005846046 -0.02926134 0.058814894 0.035298616 0.078983806 -0.07132733
0.06640722 -0.054738905 -0.07592587 0.02590976 -0.05249666 -0.007863068 -0.1218582 0.1372182

network_body.linear_encoder.seq_layers.2.bias f4 [128]
00000000: 498d 543c fbd6 613c 5230 063d 7e1b 913b
00000010: ff85 0b3d 44fb ff3c 231c df3b a51f 073d
00000020: 9596 6e3c 8a2d e13c 48e3 2bbb 08b6 183d
00000030: 1286 083d c838 9ebb dc5b 243c 1a7c 0f3d
00000040: 9604 dd3c 665e 023d 4686 f43b 55d6 063c
00000050: 83c4 ba3c 74da c13c 4875 3d3c fb96 d83c
00000060: 2e26 043d 9c6b 803c bd4a a93c cd00 863b
00000070: 9cd6 003d c890 ed3c 318f cb3c 9850 c23b
00000080: ec6a e03c a79e 193d 0696 743c 6338 a73c
00000090: d3e1 083d a125 933c 68bf 86bb 4735 59bc
000000a0: d261 1c3d 7395 1e3c 457d 033d b988 d03c
000000b0: 924d c33c 0ac8 8f3c 4abb c83c d3d1 0a3d
000000c0: 98d8 fc3c b916 fd3a 827e 803c d04d 273c
000000d0: 0a3f 953c c280 f33c e9e1 063d 727e be3b
000000e0: a0c9 c4ba 4fb5 03bb 171b e03c 72b8 0f3b
000000f0: 9f12 ff3c 5095 fb3c bf0c 013d 481b 403c
00000100: e65c ef3b a53a b7bb 3637 f83c ef0b d73c
00000110: 09ad cabb 91c9 c33c 2585 af3c 9b0e 023d
00000120: ad99 b1ba ee3a 223d 452f a83c 7d20 bd3c
00000130: f707 c23c d0c4 b83c 0b4d 5d3c 3360 fc3c
00000140: 80d1 843b e038 0b3d 93f1 ac3c 00d1 7bbb
00000150: 3881 df3c af2a 27bc 2ac5 5b3b a438 983c
00000160: 1565 cf3b 9c15 fb3b 1cba 243d 15c7 ad3c
00000170: 36eb c73c 577b 2e3d a1bc a238 3f2a 293d
00000180: 3dfe 3cbb f937 133d fa95 d03c 9544 b33c
00000190: 9e6b 5f3c 2354 db3c 39b6 c03b 59ab c83b
000001a0: dee1 ef3c 43d6 f53c 27bd 02bc c32c 043d
000001b0: 770f 063d b010 c23c 23e6 6f3c d368 0f3d
000001c0: 0929 433b 43e2 453c 6d24 ec3c 4214 073d
000001d0: 5a59 e1bb 0d7e c63c bf0f 283c 661d fd3c
000001e0: e80a 073d cbc9 38bc cf53 923c 672b fc3c
000001f0: f819 463c 94b3 683c 404c 1a3d 6e00 043d
0.012973138 0.0137841655 0.032760926 0.004428326 0.034063336 0.031247742 0.006808774 0.032989163
0.014562269 0.027487535 -0.0026228 0.037282974 0.033330984 -0.004828546 0.010031667 0.03503046
0.026979726 0.031828307 0.0074622957 0.008229812 0.022798782 0.023663737 0.011563607 0.02643918
0.032262973 0.015676312 0.02066552 0.004089451 0.031454667 0.028999701 0.024848552 0.0059300177
0.027394734 0.03750482 0.0149283465 0.02041263 0.033418488 0.017962279 -0.004112173 -0.013257331
0.038179226 0.009679186 0.03210189 0.02545582 0.0238407 0.01755144 0.024503369 0.03389151
0.030864999 0.001930914 0.015685324 0.010211423 0.018218536 0.029724482 0.03293029 0.0058134133
-0.0015013702 -0.0020097082 0.027356667 0.0021930006 0.031136809 0.030710846 0.031506296 0.011725254
0.0073047755 -0.005591708 0.030299764 0.026250808 -0.006185178 0.023899825 0.021425793 0.03175221
-0.0013549827 0.03960698 0.020530352 0.02308678 0.023685439 0.022554785 0.013507138 0.03080759
0.0040532947 0.033989787 0.021111285 -0.0038424134 0.027283296 -0.010203048 0.0033534267 0.018581696
0.0063291886 0.007662488 0.04021655 0.021213094 0.02440415 0.042598095 7.759897e-05 0.041300055
-0.0028838061 0.03594205 0.02546214 0.021883288 0.013636498 0.026773518 0.0058810976 0.006123942
0.029282507 0.030009395 -0.007979668 0.03226925 0.032729592 0.023689598 0.014642271 0.035012078
0.0029779098 0.012077871 0.028825963 0.032978304 -0.0068771066 0.024230028 0.01025766 0.030897807
0.032969385 -0.01127858 0.017862229 0.030782415 0.012091152 0.014202971 0.037670374 0.032226972

network_body.linear_encoder.seq_layers.2.weight f4 [128, 128]
00000000: 0b23 05be 233b 79bd 11a1 f53c 1aee f3bd
00000010: fb4f 31bd 43c4 cfbd 2ab2 f13d 76c3 4b3d
00000020: f2ae 2fbd 0791 b83d 051f 913d 92f5 93bd
00000030: 4175 273e b5ab fd39 f316 a5bc 83d5 043e
00000040: 16ba e03d 5048 1abe 53e5 c73d 39e0 cdbd
00000050: 815e 253e b4fe 403d 5dbd 523d 9e25 8e3c
00000060: 91de cfbd b7c6 2e3e 3df0 063c b9f1 d1bb
00000070: be42 b6bd b5f0 d5bc 00f4 7dbe 3ebd cdbc
00000080: 52e5 023e 6790 163d 9251 82be ddb5 ca3c
00000090: 704a 343d 9944 223d 28ee 603c cfa8 fbbb
000000a0: 257e 0f3d e23c d2bd 93e9 04be cdce d1bd
000000b0: 7c5a 60bc bd86 c13d e793 18be c029 3b3d
000000c0: 5016 61bd 47db 06be 23b0 e13d 0127 f53b
000000d0: bbc9 a3bc 3fae 8bbd 2e37 b5bd 2a3a 38be
000000e0: eba9 95bc 19f5 6ebd 527d dbbd 217c 84bc
000000f0: 5efc 3fbd e858 3fbb f74e 17bd 14dd 013e
00000100: 596a c93b 8445 96bc d91d 5f3d 3f2d f73d
00000110: a981 023d e8a1 183e 4b5d 4abc 7532 f43d
00000120: a00a a03c 2348 ac3d ce87 adbd 5090 d53c
00000130: 39d1 91bd 8bdd 2dbd 2e6a ce3c 019d abbd
00000140: 2184 023d 5f96 b43d 2cbb a33d fac8 25be
00000150: 4b66 14be ac2d cb3d f97b 063e 8270 f63c
00000160: ca1e efbc c12c 2d3e 7063 81bd 75b1 02be
00000170: 922f 643d a811 fb3d 628c ca3d 2358 3e3e
00000180: 5c2d 2e3d 143e 263c e730 bb3d 5341 2ebd
00000190: 6c06 113d 9ac6 d6bc ddf0 c23c 6e0a 36be
000001a0: 5479 43bc 8624 50be 99c6 4abd 072b 133e
000001b0: 1f24 b73d fcb7 353d 6ec0 21be 0d38 07be
000001c0: 8ff0 0b3d 0eed b03d a332 ef3c 6d86 cd3d
000001d0: 4789 233e bd46 d9bc 5e14 7fbd 48b3 f0bc
000001e0: fb87 1abd e157 9bbd 979b fd3d 14db dfbd
000001f0: 07e5 d9bd 7959 533d 53b4 983c a6cc b83c
00000200: 3e3a 393d a6f1 563d b69f e7bd f522 22be
00000210: 27f7 863d 651b fd3d f7da fcbc d0a4 043e
00000220: 1d37 3c3d e9d3 fd3d c159 b3bc 600a 573d
00000230: 7c99 fcbc 2de4 283d 0e41 01be df28 f4bc
00000240: 7be7 753c 506b fb3d eda6 9f3e 36fb 1ebc
00000250: d52c 173e 0092 893d 046b e93c b757 303c
00000260: 6b4c 13be b465 edbc 9dad eabd 2f7f acbd
00000270: a12d 9dbd 6198 b33d 94cc 9b3d 8842 26bd
00000280: aa11 133c 3990 553d bd7d f3bd acb9 6a3c
00000290: 6817 69bd eb6b 353d a83a c5bc d3cb 91bd
000002a0: edd2 863d 854c a23b 3fe1 98bd 95df 7dbe
000002b0: 2c3a 84bd 7fc2 893e b127 a8bd 98c0 5a3d
000002c0: 770d ad3d 9278 1b3e bf95 1d3d e4cf aa3c
000002d0: 4e13 df3d d351 553d 7feb eb3d 52ae 97be
000002e0: 2a9a 1f3d b650 edbd 8837 473d 54f1 943d
000002f0: 5ed0 6a3e 8949 6cbe 8f97 413d 0e0b c33d
00000300: 2a0b d9bc 8a7f c93b 775b 333e 8abb a8bb
00000310: 025b 593e dbf0 a3bc c4fb 1d3e eea2 f73c
00000320: 63a2 93bd f9f3 eabc 9e30 9f3d b134 8dbd
00000330: 8244 d9bc 9e59 db3d e202 553d 9c5d 073e
00000340: bafa 10bd 4a28 eb3c 9b86 893d 4023 b9bd
00000350: 7cf4 90bd 14d5 0cbe c5d0 36bd 3cdd 23bd
00000360: 69f7 223c 6b5e 9bbd 1842 67bd f1b1 55bd
00000370: 0598 77be 86ac 07bd f770 30bd a9cc 49be
00000380: d014 45ba 3ca7 49be 2bd4 bbbc 3dba 2b3e
00000390: f44e 783d 3bcc 4dbd 673e 5f3c 9c2b 10be
000003a0: ee4c 81bc cc20 a3bd 9bdf 16be 718a 16be
000003b0: c5f9 d2bc 58c4 253c 49a9 1a3d 847e ffbd
000003c0: 883c 873d 8ae6 0f3e ea0c a73d c029 9fbc
000003d0: 35f0 8bbd d6f5 873d 9e1c 183d 8c23 603d
000003e0: 24da 3ebe cc56 603e bcb6 95bc 084b f53d
000003f0: e44e 04bd 8b08 9ebd 4805 d53c 3f2d 05bd
-0.13001649 -0.060847413 0.029984029 -0.11910649 -0.043289166 -0.10144856 0.1180156 0.049746953
-0.04289145 0.09012037 0.07085995 -0.07224573 0.16353323 0.00048383852 -0.020152545 0.12972073
0.10972993 -0.15066648 0.09760537 -0.10052533 0.16149332 0.047117904 0.051450122 0.017351922
-0.10149873 0.17067991 0.008235988 -0.0064069894 -0.08899449 -0.026115755 -0.2480011 -0.025114652
0.12782791 0.036758807 -0.25452858 0.024744922 0.0440163 0.0396162 0.013728656 -0.0076800357
0.03503241 -0.10265519 -0.12979726 -0.10244522 -0.013693448 0.094495274 -0.1490017 0.045694113
-0.05495292 -0.13169585 0.110199235 0.0074814563 -0.019993654 -0.06820344 -0.08848415 -0.17990938
-0.0182695 -0.058339212 -0.10717262 -0.01617247 -0.046871535 -0.002919728 -0.03694054 0.12681991
0.006146711 -0.018343695 0.054471824 0.12069177 0.031861935 0.14905512 -0.012351344 0.119236864
0.019536316 0.084121965 -0.08473168 0.02606979 -0.07119984 -0.042447608 0.025197115 -0.083795555
0.03186429 0.088177435 0.079946846 -0.16189948 -0.14492147 0.099208206 0.1313323 0.030082945
-0.029189486 0.16911604 -0.06317794 -0.12763007 0.05570943 0.12259227 0.09890057 0.18588309
0.042523727 0.0101466365 0.09140187 -0.042542767 0.035406515 -0.026217747 0.023796493 -0.17777416
-0.011930782 -0.20326433 -0.049505804 0.14371882 0.089424364 0.044364914 -0.15796062 -0.13204975
0.03416496 0.086389646 0.02919895 0.10035405 0.15970336 -0.026522988 -0.062275283 -0.029382363
-0.037727337 -0.07585121 0.12383192 -0.10930458 -0.106393866 0.051599 0.018640673 0.022558521
0.04522156 0.052476548 -0.11309759 -0.15833648 0.06590109 0.12358741 -0.03086613 0.12953496
0.045950998 0.12393934 -0.021893384 0.05250013 -0.030834906 0.04123323 -0.12622473 -0.029804645
0.0150088025 0.122763276 0.31182042 -0.009703448 0.14763196 0.067173004 0.028493412 0.0107631
-0.1438462 -0.02897916 -0.11458895 -0.08422696 -0.07674719 0.08769298 0.076073796 -0.040590793
0.008976379 0.052139495 -0.11889217 0.014326494 -0.056907088 0.04429237 -0.024075821 -0.071189545
0.065832 0.0049529695 -0.07464837 -0.24792321 -0.06456408 0.269062 -0.082106955 0.053406328
0.08449834 0.15182713 0.038472887 0.020851083 0.10892354 0.052079987 0.11519527 -0.29625183
0.03896538 -0.1158766 0.048636943 0.07272592 0.22931048 -0.23074926 0.04726368 0.09523593
-0.026494581 0.006149237 0.1751536 -0.0051493095 0.21226123 -0.02001231 0.15428072 0.030229058
-0.07208707 -0.028680788 0.07772945 -0.06894816 -0.026521925 0.107104525 0.052004702 0.13219303
-0.03539536 0.028705735 0.06715127 -0.090399265 -0.07077882 -0.13753158 -0.044632692 -0.040005907
0.0099466825 -0.07586368 -0.056459516 -0.05217165 -0.24179085 -0.033123516 -0.04307648 -0.19706978
-0.0007518055 -0.19692701 -0.022928318 0.16770263 0.06062217 -0.050243597 0.013625718 -0.14079136
-0.015783753 -0.0796524 -0.14733736 -0.14701249 -0.025753865 0.010117613 0.0377591 -0.12475303
0.06603342 0.14052787 0.0815676 -0.019429088 -0.06832925 0.06638686 0.037136666 0.0547214
-0.18637902 0.2190811 -0.018275611 0.11977202 -0.0323018 -0.07716473 0.026003495 -0.032513853
