Assets/results/Run05/RobotPathFinder/RobotPathFinder-143570.onnx (onnx, 280587 bytes, 6 tensors)

distribution.branches.0.bias f4 [4]
-0.0208718 0.008198779 0.003514842 0.015397065
00000000: 56fb aabc 2c54 063c 4359 663b f943 7c3c

distribution.branches.0.weight f4 [4, 128]
-0.03468912 -0.0064730574 -0.017979871 0.03820424 -0.01731779 -0.014564791 0.0069001964 -0.026666835
0.009969197 -0.036338884 0.014563021 -0.016422462 -0.013454987 0.018344264 -0.0014011819 -0.02817282
-0.03034125 0.019322956 0.0003338007 -0.031305198 -0.011246017 -0.0049712867 0.020760495 0.0025736173
-0.005826554 0.018253146 -0.0010074313 0.020449964 -0.034941003 0.00023917294 0.013209195 -0.0072093485
-0.025135947 -0.021569647 -0.03542442 0.017169748 -0.006777369 0.005603661 -0.0010991954 -0.022676678
-0.007584832 -0.024667086 -0.029562602 -0.034578074 -0.031034151 -0.008594948 -0.023098545 -0.017854035
-0.019546155 0.014589915 0.011990248 0.012556956 0.0070134867 -0.01776671 -0.037826803 0.018589413
-0.01652713 0.027094493 -0.020541115 0.017079333 -0.02839366 -0.032954935 -0.013397261 0.00025389594
-0.000995883 0.037681006 -0.033016775 -0.0076597207 0.035514373 -0.032831423 -0.011999354 -0.022507511
-0.0019248904 -0.018078694 -0.017566828 -0.01281083 -0.027857054 0.018476667 -0.0032020316 -0.025148934
0.01729759 -0.03335056 -0.025360588 0.019948548 -0.002910422 0.033618625 0.010995081 -0.0031182207
-0.01296484 -0.011056698 -0.022520889 -0.023908578 0.02904416 -0.01643862 0.012563338 -0.017489815
0.030175176 -0.01877678 -0.031314913 -0.008455696 -0.0066131796 -0.02839722 0.013102847 0.01403174
-0.0038774172 -0.0202266 0.027050084 -0.03072649 -0.030252185 -0.010232829 -0.001601562 -0.02757313
0.028965201 -0.017452441 -0.028971417 -0.026357414 0.0073181153 -0.035344243 -0.028889887 -0.03777569
-0.029829705 -0.008317344 -0.019442508 -0.020188825 0.017715983 -0.007869383 0.00040045197 -0.0014647373
-0.007253089 0.05392159 0.0108698895 -0.021698823 -0.03679355 -0.008079722 0.041593447 0.00084648066
0.07893138 -0.02640374 -0.02335822 0.0441914 -0.060508803 -0.0028344935 -0.05757625 0.03969285
0.045654044 0.006973755 0.06325836 0.014591092 -0.010274572 0.070554174 -0.034009866 0.05691759
-0.05338728 0.0013186244 -0.043325927 -0.008995078 -0.02471936 -0.077903785 0.043467302 0.04652847
-0.019869367 -0.041166164 -0.026658688 -0.053943407 -0.07098875 0.041570205 0.056043997 0.014609869
-0.04421866 -0.024366217 0.039107207 -0.024788534 -0.006079214 0.037687775 -0.03536588 -0.0068380246
0.014352544 -0.011124984 -0.0064680567 -0.03947146 -0.07635533 0.038998965 -0.011476134 0.03750431
0.04313604 -0.019010061 0.047515642 -0.024943527 0.023118896 0.0105606215 -0.04901689 -0.035222232
-0.025426732 -0.0032315857 0.031861857 -0.037427265 0.02871656 0.019425953 0.006667019 0.01110164
-0.013292219 -0.046256736 0.041106015 0.044220503 0.04825227 -0.04140657 -0.02920957 -0.018422386
-0.050147645 0.07056281 -0.038021456 0.043168224 0.05499908 -0.02036587 0.05611218 0.065587245
0.060357608 0.040009126 -0.025918806 0.049006455 -0.010677393 0.019113231 -0.016218686 -0.072818965
-0.035799157 -0.04385992 0.00288 0.053141106 -0.037972484 0.021305567 0.045532692 0.04283554
0.008704592 0.022669163 -0.0012339778 0.055650756 0.004060933 -0.021673303 0.041303538 -0.044693172
-0.039009925 0.03452619 -0.033590376 0.01582315 0.04944348 -0.017288873 -0.033147957 -0.006773755
0.033570517 0.019964894 -0.037847374 -0.04000218 0.041054416 -0.03268155 0.04038605 0.05519277
00000000: 2e16 0ebd f11b d4bb 864a 93bc 0d7c 1c3d
00000010: 0ade 8dbc 29a1 6ebc 0b1b e23b 6874 dabc
00000020: d855 233c 15d8 14bd bd99 6e3c 6688 86bc
00000030: 4e72 5cbc b646 963c dda7 b7ba b0ca e6bc
00000040: 378e f8bc 2d4b 9e3c f901 af39 e139 00bd
00000050: 3741 38bc 2de6 a2bb ea11 aa3c 22aa 283b
00000060: adec bebb 9f87 953c c90b 84ba af86 a73c
00000070: 4c1e 0fbd 7fca 7a39 616b 583c 663c ecbb
00000080: e7e9 cdbc d4b2 b0bc 3219 11bd 92a7 8c3c
00000090: b114 debb ea9e b73b e112 90ba 71c4 b9bc
000000a0: 2f8a f8bb a112 cabc 452d f2bc bda1 0dbd
000000b0: 553b febc d3d1 0cbc 2939 bdbc a042 92bc
000000c0: 421f a0bc 8a0a 6f3c bf72 443c b1bb 4d3c
000000d0: 64d1 e53b 7e8b 91bc 47f0 1abd d348 983c
000000e0: e763 87bc 45f5 dd3c d745 a8bc f5e9 8b3c
000000f0: d299 e8bc c1fb 06bd 2f80 5bbc 561d 8539
00000100: 4a88 82ba 6657 1a3d 993c 07bd 65fe fabb
00000110: 8577 113d 3e7a 06bd f098 44bc ac61 b8bc
00000120: 9b4c fcba c519 94bc 4fe8 8fbc 84e4 51bc
00000130: 7a34 e4bc 615c 973c 2dd9 51bb 2305 cebc
00000140: adb3 8d3c 999a 08bd 02c1 cfbc 236b a33c
00000150: c7bc 3ebb afb3 093d b624 343c 105b 4cbb
00000160: 7b6a 54bc 2727 35bc ba7d b8bc ecdb c3bc
00000170: 05ee ed3c 49aa 86bc 75d6 4d3c cd46 8fbc
00000180: ee31 f73c c3d1 99bc 1144 00bd c289 0abc
00000190: 5fb3 d8bb 49a1 e8bc 53ad 563c 62e5 653c
000001a0: 441c 7ebb 41b2 a5bc 2398 dd3c 1fb6 fbbc
000001b0: 6ed3 f7bc 98a7 27bc 81eb d1ba 0be1 e1bc
000001c0: 6e48 ed3c 6cf8 8ebc 7755 edbc 81eb d7bc
000001d0: cdcc ef3b 20c5 10bd 7caa ecbc afba 1abd
000001e0: 6d5d f4bc 7845 08bc e545 9fbc 0963 a5bc
000001f0: 1c21 913c 96ee 00bc c1f3 d139 6efc bfba
00000200: 52ab edbb e3dc 5c3d 9f17 323c bbc1 b1bc
00000210: d5b4 16bd cf60 04bc e45d 2a3d 5be6 5d3a
00000220: c6a6 a13d a84c d8bc bd59 bfbc 0b02 353d
00000230: 14d8 77bd e9c2 39bb 13d5 6bbd f894 223d
00000240: bcff 3a3d 1984 e43b 998d 813d 7a0f 6f3c
00000250: ae56 28bc b57e 903d ee4d 0bbd 6b22 693d
00000260: 9fac 5abd b1d5 ac3a 8776 31bd 1760 13bc
00000270: 4180 cabc 058c 9fbd c50a 323d a394 3e3d
00000280: 15c5 a2bc da9d 28bd 5263 dabc c3f3 5cbd
00000290: 8d62 91bd 8545 2a3d 648e 653d 3b5e 6f3c
000002a0: a01e 35bd a99b c7bc e12e 203d 5311 cbbc
000002b0: 2534 c7bb 7f5e 1a3d d0db 10bd 8211 e0bb
000002c0: ef26 6b3c 9145 36bc fef1 d3bb d3ac 21bd
000002d0: 2f60 9cbd 61bd 1f3d 6506 3cbc 1f9e 193d
000002e0: 6baf 303d fdba 9bbc c39f 423d 5e56 ccbc
000002f0: d763 bd3c 7506 2d3c efc5 48bd 3045 10bd
00000300: b94b d0bc 03c9 53bb 9481 023d 554d 19bd
00000310: fe3e eb3c 2d23 9f3c 0277 da3b a7e3 353c
00000320: 9bc7 59bc b477 3dbd c85e 283d 8f20 353d
00000330: 2ca4 453d ef99 29bd e848 efbc 8bea 96bc
00000340: 9e67 4dbd 3c83 903d 63bc 1bbd 2ad1 303d
00000350: b746 613d 53d6 a6bc e3d5 653d 9b52 863d
00000360: 8a39 773d 9ce0 233d ad53 d4bc feba 483d
00000370: 3bf0 2ebc 5a93 9c3c 0ddd 84bc 1c22 95bd
00000380: 23a2 12bd 76a6 33bd 62be 3c3b 7daa 593d
00000390: 0989 1bbd 0389 ae3c 7d80 3a3d 5274 2f3d
000003a0: b49d 0e3c aeb4 b93c 6dbd a1ba 0cf2 633d
000003b0: 9311 853b 368c b1bc e62d 293d 3010 37bd
000003c0: dfc8 1fbd 566b 0d3d 1096 09bd 8d9f 813c
000003d0: 3f85 4a3d 65a1 8dbc 27c6 07bd 60f6 ddbb
000003e0: 3d81 093d 6b8d a33c d905 1bbd 53d9 23bd
000003f0: ad28 283d 17dd 05bd d86b 253d d011 623d

network_body.linear_encoder.seq_layers.0.bias f4 [128]
0.035375908 -0.023950381 0.02602467 -0.024377314 0.022637134 0.024954345 0.023756055 0.008591134
0.028733386 0.012542422 0.015274082 0.013033121 0.034784053 -0.006159702 0.019090176 0.017980205
0.031878963 -0.013625037 0.025522461 0.021545086 0.014150747 0.00089562 -0.0024575277 -0.0028473914
0.011715512 -0.02293019 0.018461915 -0.005814577 0.008444843 -0.035913795 0.0108976085 0.012437299
0.017345963 0.03944203 0.028294703 0.021186583 0.0047602486 0.022049738 -0.02429514 0.029687654
0.011042898 0.03531604 0.0071286466 0.043876983 0.015527692 0.026899245 0.004965601 0.017975328
0.02832873 -0.007229505 0.008889423 -0.007888468 0.031683132 0.029543445 0.028236324 0.023092765
0.014800113 0.006324785 0.0112397 0.017254451 0.055186793 0.012845488 0.035989944 0.027718764
0.017645253 0.023730353 0.008750382 0.042565916 -0.034084566 -0.0056193527 0.029449148 0.022084238
0.009501055 0.025597215 0.030828496 0.026921857 0.02018529 0.006071607 0.010430284 0.02035435
0.018159399 0.025435723 -0.02619784 -0.034289982 0.013082325 -0.019981617 0.01788011 0.017318042
0.014663215 0.006927278 0.027347667 0.00014155208 0.015974302 0.037807845 0.028840499 0.037365243
0.017784636 0.015680375 0.019157358 0.017573582 -0.008786349 -0.016532687 0.028802944 0.0025442964
0.025152974 0.018365445 -0.02776754 0.023120986 -0.036726125 -0.015215252 0.018321214 0.00925282
0.009325146 0.010371074 -0.021404075 0.0053890306 0.017120272 0.0048490535 0.028690172 0.033373993
0.033521853 0.028123757 -0.020813964 -0.0027324888 0.028215885 -0.031399235 0.020209812 0.030358985
00000000: 54e6 103d 9733 c4bc b031 d53c efb2 c7bc
00000010: 8371 b93c 0e6d cc3c 0f9c c23c d4c1 0c3c
00000020: 4762 eb3c bb7e 4d3c 2540 7a3c df88 553c
00000030: b979 0e3d 53d7 c9bb 0063 9c3c 394b 933c
00000040: 8493 023d 8c3b 5fbc 7b14 d13c 527f b03c
00000050: 89d8 673c 0ac8 6a3a 790e 21bb 4d9b 3abb
00000060: 6bf2 3f3c 18d8 bbbc 713d 973c 3588 bebb
00000070: 3d5c 0a3c 581a 13bd e28b 323c d0c5 4b3c
00000080: 1f19 8e3c f78d 213d 4bca e73c 7c8f ad3c
00000090: dcfb 9b3b a7a1 b43c 9a06 c7bc 8633 f33c
000000a0: 45ed 343c 8da7 103d 6c97 e93b 5ab8 333d
000000b0: dc67 7e3c ce5b dc3c 7bb6 a23b ff40 933c
000000c0: a711 e83c 7ce5 ecbb f1a4 113c a23e 01bc
000000d0: 2cc6 013d 1805 f23c dd4f e73c 0a2d bd3c
000000e0: 2c7c 723c 2440 cf3b b826 383c 3559 8d3c
000000f0: 8c0b 623d e275 523c 316a 133d 7612 e33c
00000100: c78c 903c 2866 c23c c35d 0f3c 9959 2e3d
00000110: 429c 0bbd 8c22 b8bb 573f f13c 01ea b43c
00000120: 50aa 1b3c 40b1 d13c 0b8c fc3c 3a8b dc3c
00000130: 9f5b a53c 55f4 c63b c8e3 2a3c 2abe a63c
00000140: 05c3 943c 945e d03c da9c d6bc a773 0cbd
00000150: 4057 563c 7db0 a3bc 4f79 923c 91de 8d3c
00000160: fb3d 703c 38fe e23b 3708 e03c 996d 1439
00000170: 8adc 823c 66dc 1a3d e942 ec3c 4c0c 193d
00000180: 16b1 913c 2174 803c e4ef 9c3c 79f6 8f3c
00000190: 9ef4 0fbc 8f6f 87bc 27f4 eb3c 36be 263b
000001a0: 9c0d ce3c 2173 963c c178 e3bc 3968 bd3c
000001b0: 226e 16bd 6449 79bc 5f16 963c 2499 173c
000001c0: 7fc8 183c 70eb 293c 9957 afbc 7796 b03b
000001d0: d03f 8c3c cfe4 9e3b a707 eb3c 2bb3 083d
000001e0: 364e 093d cb63 e63c 0c82 aabc 8e13 33bb
000001f0: 0025 e73c 7c9c 00bd 0c8f a53c 68b3 f83c

network_body.linear_encoder.seq_layers.0.weight f4 [128, 410]
-0.048495263 0.011559443 -0.061620593 0.010837981 0.008606541 -0.022155868 -0.03985128 0.06897699
-0.047538403 -0.03560275 -0.042702444 0.053844936 -0.01791871 0.004982815 -0.10144847 0.058551043
-0.07799962 0.014217744 0.016701069 0.012080403 0.00879954 -0.08430869 0.027030619 0.090330996
-0.057571165 -0.01960796 0.035406746 0.025858518 -0.0055457824 -0.031358793 0.038106836 0.09083481
0.0148530025 0.003342653 -0.03835503 -0.04543521 0.034163453 -0.048716668 -0.0077587557 0.0021356412
0.059835497 -0.06428754 0.012954305 -0.025945554 -0.03368048 -0.007994112 -0.10145521 0.020127762
0.076461956 0.009975043 0.057609707 0.043707304 -0.042392164 -0.0037476255 -0.07096392 -0.031857133
0.115474224 -0.025072122 0.008504944 -0.059601326 0.1188 -0.03543671 -0.06531364 -0.024632722
0.0032685986 -0.07217419 -0.062442485 0.014467942 0.061203428 -0.013767053 -0.019731956 0.017494252
0.034119334 -0.01319482 -0.007971576 0.049663946 -0.018063199 -0.025899444 -0.04025965 0.012946917
0.06141388 -0.103376895 -0.024886344 0.027065542 0.06259474 0.022851555 -0.088872254 0.046997476
-0.029639622 0.026703153 0.037315775 0.01682299 0.05091011 -0.074962825 -0.018760245 0.024090674
0.06720881 -0.0074971328 0.02003141 0.0031757092 -0.020891065 -0.06824977 0.014189419 0.010425569
0.0070095574 0.06294744 -0.024431227 -0.042926814 0.09446723 0.022579031 -0.07130517 0.011105162
0.07411842 0.010896149 -0.060051817 0.06467734 -0.014694414 0.1140408 -0.05191048 0.099229775
0.047225468 0.1251476 -0.10157755 -0.022728158 -0.06761877 -0.03538614 -0.06328576 -0.011114133
-0.0049377303 0.033649053 -0.013680557 0.1301728 0.05086512 0.042982165 -0.103113726 0.08774523
0.037392743 -0.006207119 0.036409393 0.031608135 0.049886484 0.037577596 0.04283855 0.046135083
0.06420573 -0.039484244 -0.03371427 0.058028497 0.018232046 -0.025068602 -0.056859445 0.03637886
0.020484602 -0.04516848 0.059482787 0.037624966 0.04946151 -0.038339082 0.02048352 -0.023677869
0.00639976 0.03018951 0.05499483 0.024397379 0.01420263 0.051019687 -0.038833126 0.020091096
-0.017497081 -0.008243613 -0.10056974 -0.007607357 0.011927953 -0.078731805 -0.09421209 -0.0035341685
-0.0037876763 0.042137884 -0.00787609 -0.0071616187 0.040684942 0.038346775 -0.08820755 -0.00435475
0.0002528563 0.015341378 -0.04086869 0.06368337 -0.0018610095 0.021573514 -0.044140425 0.0350149
0.05925472 -0.041429695 -0.0052978657 0.09205801 -0.016188053 -0.010572458 0.03373896 0.13105272
-0.009773508 0.02647729 -0.012958283 0.072166026 -0.03225966 0.06307096 -0.09633207 -0.07789362
0.017006038 0.007984347 0.09568749 -0.018376563 -0.0070693046 0.022379704 -0.06106544 -0.00038750752
0.0065105394 0.004915896 0.06592248 0.10185281 0.008597817 -0.048967753 -0.03427295 0.12007512
0.072404906 0.010433775 0.0012934892 0.007913173 0.10987409 -0.013243957 -0.08573925 0.09288294
-0.040989 -0.027439116 -0.003183888 0.08412418 -0.05741948 0.0094033275 -0.1450825 0.103812106
0.09496151 -0.05990142 0.021701025 -0.041156437 0.04494202 0.035298616 0.09482228 -0.083340526
0.062497467 -0.054738905 -0.05920878 0.012851303 -0.0632258 -0.007863068 -0.10493863 0.12503402
00000000: f8a2 46bd d163 3d3c e065 7cbd c991 313c
00000010: 7302 0d3c 3980 b5bc 193b 23bd cf43 8d3d
00000020: a1b7 42bd 30d4 11bd c2e8 2ebd 828c 5c3d
00000030: 42ca 92bc e246 a33b 37c4 cfbd 38d3 6f3d
00000040: 44be 9fbd 8af1 683c aed0 883c e2ec 453c
00000050: f22b 103c 09aa acbd 516f dd3c 75ff b83d
00000060: becf 6bbd dfa0 a0bc aa06 113d 3ed5 d33c
00000070: 65b9 b5bb 1472 00bd ea15 1c3d 9a07 ba3d
00000080: 025a 733c 6910 5b3b 2a1a 1dbd 451a 3abd
00000090: faee 0b3d 218b 47bd 293d febb 1df6 0b3b
000000a0: 1116 753d 30a9 83bd 4b3e 543c c58b d4bc
000000b0: 8bf4 09bd bcf9 02bc c0c7 cfbd fae2 a43c
000000c0: 1698 9c3d 5d6e 233c 28f8 6b3d 6e06 333d
000000d0: 68a3 2dbd b99a 75bb 8855 91bd a07c 02bd
000000e0: c07d ec3d 0d64 cdbc 5258 0b3c 8520 74bd
000000f0: 6a4d f33d 1526 11bd 28c3 85bd 90ca c9bc
00000100: fc35 563b 10d0 93bd b1c3 7fbd f20a 6d3c
00000110: 72b0 7a3d 358f 61bc e9a4 a1bc 1b50 8f3c
00000120: b7c0 0b3d 162f 58bc 379b 02bc 6c6c 4b3d
00000130: 46f9 93bc 122b d4bc 4ee7 24bd 4e1f 543c
00000140: 1f8d 7b3d 44b7 d3bd 72de cbbc 8eb8 dd3c
00000150: ac31 803d 2f33 bb3c a802 b6bd 6d80 403d
00000160: cbce f2bc 92c0 da3c 6dd8 183d 5ed0 893c
00000170: 1f87 503d 1c86 99bd 16af 99bc ce59 c53c
00000180: c6a4 893d 82aa f5bb e918 a43c 8f1f 503b
00000190: bd23 abbc 89c6 8bbd bd7a 683c 01d0 2a3c
000001a0: 6eb0 e53b 96ea 803d ff23 c8bc 07d4 2fbd
000001b0: 0978 c13d a9f7 b83c 7208 92bd 6df2 353c
000001c0: 66cb 973d c385 323c e5f8 75bd 8e75 843d
000001d0: d7c0 70bc 398e e93d 15a0 54bd fb38 cb3d
000001e0: 7e6f 413d b126 003e e407 d0bd 6730 babc
000001f0: b67b 8abd 0ff1 10bd f79b 81bd 0d18 36bc
00000200: afcc a1bb 97d3 093d 6a24 60bc 054c 053e
00000210: f257 503d 110e 303d 4a2d d3bd c5b3 b33d
00000220: 2229 193d 1765 cbbb 0422 153d 8877 013d
00000230: c555 4c3d f7ea 193d 7a77 2f3d 24f8 3c3d
00000240: 4b7e 833d 3bba 21bd f917 0abd 4aaf 6d3d
00000250: 5f5b 953c ab5c cdbc 73e5 68bd 0002 153d
00000260: 53cf a73c 9602 39bd 39a4 733d a31c 1a3d
00000270: 2798 4a3d 7109 1dbd 0ecd a73c 17f8 c1bc
00000280: 14b5 d13b fe4f f73c 4242 613d 03dd c73c
00000290: 26b2 683c 05fa 503d 7c0f 1fbd 1596 a43c
000002a0: 0a56 8fbc 3810 07bc 82f7 cdbd 2347 f9bb
000002b0: 766d 433c 243e a1bd 45f2 c0bd 829d 67bb
000002c0: aa3a 78bb c698 2c3d b70a 01bc 03ac eabb
000002d0: 41a5 263d 8211 1d3d 29a6 b4bd 4ab2 8ebb
000002e0: cc91 8439 675a 7b3c ed65 27bd 6d6c 823d
000002f0: 1eed f3ba f0ba b03c 97cc 34bd c96b 0f3d
00000300: 14b5 723d 2fb2 29bd b899 adbb e988 bc3d
00000310: cf9c 84bc 1a38 2dbc dd31 0a3d af32 063e
00000320: 1021 20bc e7e6 d83c fa4e 54bc c8cb 933d
00000330: b522 04bd 592b 813d c049 c5bd b186 9fbd
00000340: 3f50 8b3c c7d0 023c cef7 c33d 728a 96bc
00000350: a0a5 e7bb a455 b73c c11f 7abd 612a cbb9
00000360: 5d56 d53b 8615 a13b 5d02 873d 3598 d03d
00000370: dcdd 0c3c 6992 48bd cb61 0cbd f2e9 f53d
00000380: 0649 943d 6df2 2a3c 4c8a a93a 41a6 013c
00000390: ab05 e13d 2ffd 58bc 0f98 afbd 6939 be3d
000003a0: 15e4 27bd ffc7 e0bc c7a8 50bb 4c49 ac3d
000003b0: b030 6bbd 6a10 1a3c 8290 14be 719b d43d
000003c0: 2e7b c23d 315b 75bd 59c6 b13c a793 28bd
000003d0: 2015 383d 4895 103d 2f32 c23d 70ae aabd
000003e0: 58fd 7f3d e735 60bd e884 72bd 468e 523c
000003f0: 877c 81bd 19d4 00bc 10ea d6bd eb08 003e

network_body.linear_encoder.seq_layers.2.bias f4 [128]
0.012713686 0.012969405 0.025158875 -0.002265172 0.026012048 0.022842636 0.0050229942 0.026010467
0.015504774 0.020522969 -0.0021326132 0.03305958 0.0264972 -0.003533841 0.0039283754 0.02997455
0.025544498 0.021545373 0.010728995 0.018317427 0.014779568 0.025515225 0.007823037 0.025767084
0.02192317 0.012644588 0.0098360125 -0.004643393 0.024287833 0.021946378 0.021253396 0.009276135
0.018939272 0.028291559 0.011418506 0.0058207973 0.02359635 0.012929338 0.0011866065 -0.0027432847
0.028840467 0.00997487 0.026300414 0.019864425 0.020688785 0.015759857 0.017244022 0.023715451
0.024221687 0.0014676938 0.009240672 0.0017421965 0.013569845 0.02562651 0.024908422 0.004349906
0.0019374798 -0.010354487 0.026410667 0.00012091339 0.024836818 0.024393229 0.024112403 0.003777274
0.0071181958 -0.010656569 0.024080275 0.0185757 -0.010635666 0.019479213 0.014642989 0.024114033
0.0012869089 0.030236794 0.020427989 0.018273152 0.021355698 0.014072559 0.0056260945 0.023711111
0.0019853667 0.034276206 0.014306648 -0.004302344 0.02460474 -0.01091312 0.008011443 0.017498394
0.0077407444 0.0063648494 0.030997476 0.018670565 0.0169979 0.0349418 -0.0012964896 0.029907018
-0.011458133 0.0266518 0.018356752 0.022484967 0.013452474 0.022974094 0.0063655116 0.00542656
0.021846 0.024656361 -0.011284797 0.031057544 0.025452944 0.019790417 0.012194118 0.02717057
-0.0049913637 0.008656935 0.023133473 0.025352648 -0.001237928 0.021359257 0.010158011 0.023701575
0.028333925 -0.007797356 0.01400394 0.023726871 0.010910073 0.0073602903 0.031218167 0.028467067
00000000: 104d 503c a17d 543c fc19 ce3c 4873 14bb
00000010: 3817 d53c 7b20 bb3c ee97 a43b e713 d53c
00000020: bc07 7e3c c91f a83c 50c3 0bbb 7b69 073d
00000030: a810 d93c 0498 67bb 9ab9 803b 308d f53c
00000040: b242 d13c ec7f b03c abc8 2f3c 6e0e 963c
00000050: 0026 723c 4e05 d13c 322c 003c 7e15 d33c
00000060: 3898 b33c 3f2b 4f3c 3a27 213c 9b27 98bb
00000070: 47f7 c63c e4c8 b33c 9a1b ae3c eefa 173c
00000080: 8826 9b3c b3c3 e73c af14 3b3c 63bc be3b
00000090: 224d c13c 93d5 533c e887 9b3a aec8 33bb
000000a0: d842 ec3c a36d 233c f773 d73c b8ba a23c
000000b0: 877b a93c d11a 813c 5643 8d3c e846 c23c
000000c0: 8f6c c63c a25f c03a 3066 173c 6a5a e43a
000000d0: 0e54 5e3c b0ee d13c bf0c cc3c a889 8e3b
000000e0: 09f3 fd3a dea5 29bc 2f5b d83c e292 fd38
000000f0: 9576 cb3c 4fd4 c73c 6087 c53c 248c 773b
00000100: c13f e93b e498 2ebc ff43 c53c 112c 983c
00000110: 3741 2ebc df92 9f3c 26e9 6f3c cb8a c53c
00000120: 7fad a83a 27b3 f73c 9958 a73c 94b1 953c
00000130: 25f2 ae3c 9790 663c 1a5b b83b ce3d c23c
00000140: ed1c 023b 3565 0c3d 6e66 6a3c adfa 8cbb
00000150: e18f c93c f1cc 32bc 6d42 033c cb58 8f3c
00000160: 12a6 fd3b 3a90 d03b 6bee fd3c 03f3 983c
00000170: 2e3f 8b3c 221f 0f3d f9ee a9ba 90ff f43c
00000180: e5ba 3bbc e054 da3c e660 963c 6532 b83c
00000190: c467 5c3c 2b34 bc3c c895 d03b 49d1 b13b
000001a0: 62f6 b23c 23fc c93c dfe3 38bc 646c fe3c
000001b0: b182 d03c 831f a23c d7c9 473c d194 de3c
000001c0: 988e a3bb d1d5 0d3c 6982 bd3c 5bb0 cf3c
000001d0: f941 a2ba 9cf9 ae3c c96d 263c ce29 c23c
000001e0: 8c1c e83c f780 ffbb c870 653c db5e c23c
000001f0: 2ac0 323c 972e f13b 3ebd ff3c c433 e93c

network_body.linear_encoder.seq_layers.2.weight f4 [128, 128]
-0.12702075 -0.059562244 0.039728697 -0.11887759 -0.038621858 -0.0948353 0.110684514 0.05451189
-0.04612112 0.11487032 0.065191254 -0.065949455 0.16117749 0.0028200024 -0.01800185 0.12785769
0.107177876 -0.15126984 0.098991774 -0.08764756 0.1601422 0.027163241 0.041884683 0.016463455
-0.10257775 0.16854472 -0.0032016083 -0.009823674 -0.0820699 -0.03384759 -0.23372394 -0.01647422
0.12859751 0.035305385 -0.24706702 0.024285331 0.025790662 0.036455173 0.013670911 -0.004381878
0.028811056 -0.10282322 -0.13827735 -0.10120947 -0.011440163 0.10013862 -0.13854551 0.027551454
-0.055946212 -0.13896838 0.08327404 0.00408179 -0.03660253 -0.06879873 -0.09093738 -0.16967367
-0.014930836 -0.045809057 -0.11658941 -0.009420903 -0.048129786 -0.0048083304 -0.024793679 0.12788074
-0.006714194 -0.021653958 0.061925877 0.116054595 0.029972002 0.12804343 -0.008268527 0.11703544
0.016963452 0.09409286 -0.0798276 0.03559784 -0.052353177 -0.038321197 0.04143062 -0.081220575
0.022573018 0.08675947 0.07883137 -0.16142066 -0.14298035 0.0993586 0.12158313 0.041242998
-0.014829903 0.15753973 -0.06440878 -0.13193378 0.05073468 0.11876782 0.09401645 0.18281844
0.03675847 -0.00029155577 0.08895365 -0.028909063 0.012760241 -0.026983783 0.01934864 -0.17892984
-0.008015831 -0.18193829 -0.04904868 0.1385013 0.09009528 0.04762373 -0.15716188 -0.13605236
0.03136851 0.084365726 0.028484095 0.09593811 0.16371839 -0.04907111 -0.051594935 -0.034419764
-0.03781468 -0.06885204 0.12365952 -0.10741621 -0.10451701 0.051143985 0.025328653 0.030627865
0.03627508 0.053378876 -0.10554286 -0.15894236 0.056057274 0.11791914 -0.025701372 0.1234334
0.0500938 0.10810106 -0.014386342 0.04220003 -0.030122293 0.020772746 -0.13018474 -0.038567126
0.017585242 0.12244704 0.30298662 -0.009554357 0.14157403 0.05647086 0.04284365 0.0030075598
-0.14777346 -0.034597844 -0.10894972 -0.10321937 -0.085060984 0.08777084 0.062272817 -0.050081737
0.016411772 0.050609753 -0.12718184 0.01164914 -0.05062335 0.047881335 -0.023614964 -0.073382795
0.063671075 0.003389553 -0.063557945 -0.25184634 -0.06132735 0.25933284 -0.076874286 0.053396065
0.08624062 0.13819268 0.03956307 0.020508869 0.10350212 0.051463973 0.1175001 -0.30186653
0.04254204 -0.12743206 0.050867893 0.06405362 0.22692865 -0.22648454 0.034592126 0.08989275
-0.030129522 0.014144026 0.16793899 0.0014668313 0.21186243 -0.0069322637 0.15134856 0.02478945
-0.08913868 -0.036455516 0.07221827 -0.0768005 -0.038930606 0.094998084 0.039258964 0.12653103
-0.026058448 0.030518556 0.06778757 -0.090424724 -0.06985667 -0.13676177 -0.036512706 -0.04737402
-0.008983934 -0.082617775 -0.07108235 -0.039382335 -0.23718335 -0.016808184 -0.03613636 -0.1959414
0.0002634456 -0.18937282 -0.017860249 0.16091119 0.0492857 -0.047701355 0.018903142 -0.15570104
-0.019848136 -0.09203208 -0.14799328 -0.14147396 -0.025569636 0.0100389235 0.028184192 -0.10906518
0.063829534 0.12822105 0.08233879 -0.009799046 -0.07139529 0.048069116 0.029143289 0.065795094
-0.18565956 0.2116941 -0.017739085 0.11073435 -0.03518562 -0.07734052 0.024453657 -0.042004477
00000000: ba11 02be 8af7 73bd 8fba 223d 1876 f3bd
00000010: f431 1ebd 0339 c2bd 90ae e23d dc47 5f3d
00000020: 80e9 3cbd 2141 eb3d fe82 853d 8210 87bd
00000030: b60b 253e cacf 383b 9e78 93bc 20ed 023e
00000040: 1380 db3d 7be6 1abe 33bc ca3d 9080 b3bd
00000050: 51fc 233e 7285 de3c 468f 2b3d 5ede 863c
00000060: 4914 d2bd fd96 2c3e 13d2 51bb 7af3 20bc
00000070: 4414 a8bd c5a3 0abd 5455 6fbe f2f4 86bc
00000080: 11af 033e 619c 103d 23ff 7cbe 08f2 c63c
00000090: f046 d33c 0552 153d f5fb 5f3c db95 8fbb
000000a0: 2a05 ec3c fb94 d2bd 9498 0dbe e946 cfbd
000000b0: 856f 3bbc 7a15 cd3d e0de 0dbe 96b3 e13c
000000c0: db27 65bd ba4d 0ebe 948b aa3d 89c0 853b
000000d0: 89ec 15bd 59e6 8cbd 613d babd efbe 2dbe
000000e0: 77a0 74bc 47a2 3bbd 6ec6 eebd 225a 1abc
000000f0: bd23 45bd 338f 9dbb 1d1c cbbc 2bf3 023e
00000100: be02 dcbb a463 b1bc fda5 7d3d 08ae ed3d
00000110: d887 f53c d11d 033e b778 07bc 47b0 ef3d
00000120: f0f6 8a3c c2b3 c03d a77c a3bd 0acf 113d
00000130: 4970 56bd b0f6 1cbd 27b3 293d f956 a6bd
00000140: 0deb b83c f3ae b13d 5772 a13d 754b 25be
00000150: 7169 12be 867c cb3d 9300 f93d 6bee 283d
00000160: 1ff9 72bc 1852 213e c0e8 83bd a619 07be
00000170: 2bcf 4f3d 8b3c f33d b28b c03d c234 3b3e
00000180: 0d90 163d f4db 98b9 552d b63d b3d2 ecbc
00000190: 5410 513c 180d ddbc 0a81 9e3c 6239 37be
000001a0: d554 03bc 084e 3abe 45e7 48bd 49d3 0d3e
000001b0: e083 b83d 1a11 433d 0bef 20be 4f51 0bbe
000001c0: 447c 003d f0c7 ac3d 7a57 e93c 337b c43d
000001d0: cba5 273e cafe 48bd 3655 53bd bdfb 0cbd
000001e0: 91e3 1abd 4c02 8dbd 3441 fd3d 08fd dbbd
000001f0: 040d d6bd 5b7c 513d 097e cf3c 4ae7 fa3c
00000200: 2e95 143d cfa3 5a3d db26 d8bd c9c1 22be
00000210: 509c 653d 977f f13d af8b d2bc a7ca fc3d
00000220: 282f 4d3d 1764 dd3d b1b4 6bbc f0d9 2c3d
00000230: 07c3 f6bc 9b2b aa3c 264f 05be 90f8 1dbd
00000240: ed0e 903c 84c5 fa3d 1021 9b3e e189 1cbc
00000250: c8f8 103e fd4d 673d d37c 2f3d 7b1a 453b
00000260: ed51 17be 78b6 0dbd 0821 dfbd ad64 d3bd
00000270: 7434 aebd 33c1 b33d c811 7f3d 8222 4dbd
00000280: fb71 863c 2c4c 4f3d f53b 02be 09dc 3e3c
00000290: 6e5a 4fbd 381f 443d 2b74 c1bc b849 96bd
000002a0: fb65 823d 4323 5e3b ab2a 82bd 01f2 80be
000002b0: 6332 7bbd 46c7 843e 4470 9dbd d5b5 5a3d
000002c0: ec9e b03d 6282 0d3e e30c 223d 3702 a83c
000002d0: ebf8 d33d e3cb 523d e4a3 f03d 408e 9abe
000002e0: 9040 2e3d 8d7d 02be da5a 503d 8b2e 833d
000002f0: fc5f 683e 90eb 67be 79b0 0d3d b119 b83d
00000300: 30d2 f6bc 58bc 673c 33f8 2b3e b142 c03a
00000310: 77f2 583e 0b28 e3bb 1efb 1a3e 3f13 cb3c
00000320: 578e b6bd 6152 15bd 2ce7 933d 9549 9dbd
00000330: b375 1fbd 5b8e c23d 02ce 203d 5a91 013e
00000340: 8778 d5bc 0d02 fa3c 36d4 8a3d 9930 b9bd
00000350: 0411 8fbd 470b 0cbe 598e 15bd 430b 42bd
00000360: 5a31 13bc 8233 a9bd a093 91bd 5f4f 21bd
00000370: 31e0 72be 51b1 89bc b803 14bd dda4 48be
00000380: 121f 8a39 f3ea 41be a84f 92bc e7c5 243e
00000390: cddf 493d 7f62 43bd c3da 9a3c 1870 1fbe
000003a0: 8f98 a2bc 517b bcbd 8d8b 17be 8dde 10be
000003b0: 6a77 d1bc 4c7a 243c 89e2 e63c 915d dfbd
000003c0: 0fb9 823d 614c 033e 3da1 a83d 2e8c 20bc
000003d0: b237 92bd 1fe4 443d e8bd ee3c 94bf 863d
000003e0: 8a1d 3ebe 57c6 583e 8f51 91bc b1c8 e23d
000003f0: cc1e 10bd b564 9ebd 0953 c83c e30c 2cbd
