Assets/results/Run02/RobotPathFinder/RobotPathFinder-62987.onnx (onnx, 280587 bytes, 6 tensors)

distribution.branches.0.bias f4 [4]
000000 7d ba 80 bc fc ab 88 3b 71 10 86 3b 25 8c 84 3c
       -0.015713925 0.0041708928 0.0040913154 0.016180107

distribution.branches.0.weight f4 [4, 128]
000000 23 82 56 bc 54 dc bb bb bb 66 13 bd 4d ca ab 3c
       -0.01309255 -0.0057330523 -0.035986643 0.020970488
000010 f1 ce bd bb 02 4c d7 3c bd 46 0e bd 4f 9f 00 bd
       -0.0057924916 0.02628136 -0.03473543 -0.03140193
000020 0b 42 08 3d 4c 51 97 3c c5 e5 74 3c ac f0 82 bc
       0.03326611 0.018471383 0.014947359 -0.015983902
000030 70 3e da 3c 9f d0 0b bb 8f 64 c8 bc e5 5b 9f 3c
       0.0266411 -0.0021334065 -0.024462013 0.019452998
000040 82 d0 a0 bc 30 7d a5 3c e8 b6 81 bc 20 b8 e9 3c
       -0.019630674 0.020201296 -0.015834287 0.02853018
000050 4f c7 77 3c 25 b0 8f bc 8a b8 8f 3c 7e 96 f2 3c
       0.015123202 -0.017540047 0.01754405 0.029612776
000060 5d 14 17 bc 5e 04 b8 3b 30 ac bb 3c fc b7 bd 3c
       -0.009221164 0.005615755 0.022909254 0.02315902
000070 18 af 81 3c c8 09 c9 bc 87 b0 86 3c 4f 50 8d bc
       0.015830562 -0.024540797 0.016441597 -0.017250208
000080 a5 c9 f1 bc 7b c5 bf bc 57 bd c4 bc 65 22 31 bc
       -0.029515097 -0.023409596 -0.024016066 -0.010811423
000090 e0 20 95 bc c2 42 4a 3a 70 7b f1 bc 64 a6 a3 bc
       -0.018204153 0.0007715636 -0.029477805 -0.019976802
0000a0 e7 66 07 3c 8e 9d 0f bd 4a 14 3a 3c c6 8a ae 39
       0.00826428 -0.035062365 0.011357376 0.0003329126
0000b0 27 6c 8d bc 4c e7 0d bd 1d 72 15 bd ae 5f bd bc
       -0.017263485 -0.03464441 -0.03648578 -0.023116913
0000c0 c4 1a 1a bd 20 a6 93 3c 62 99 41 bc da 16 31 3c
       -0.037623182 0.01802355 -0.0118163545 0.010808671
0000d0 14 b6 07 bd 54 e5 21 3d a0 c5 de bc 0c 77 32 ba
       -0.033132628 0.039525345 -0.027193844 -0.00068079005
0000e0 eb 1e 6a bc 94 74 91 3c f8 c7 24 3d 33 b9 96 3c
       -0.014289598 0.017755784 0.040229768 0.018398857
0000f0 c7 fe df bc f4 07 f9 3b a7 08 7b bc 02 83 02 bd
       -0.027343167 0.007599825 -0.015321887 -0.03186322
000100 16 fe 42 3c e6 9b 7e 3c db ea 9a 3c fd 03 01 bd
       0.011901399 0.015540099 0.018910816 -0.031497944
000110 52 c4 ef bb 36 c4 05 bc 73 c1 c3 3c 44 e6 cc bc
       -0.0073171044 -0.008164456 0.023895955 -0.025012143
000120 a0 cf 57 3c 47 67 64 bc a8 89 bd 3c bd 69 86 bc
       0.01317206 -0.013940639 0.023136929 -0.016407842
000130 24 2a 0e bd d9 64 d4 bc 98 5e 14 bc 93 57 e2 bc
       -0.034708157 -0.025926994 -0.009055756 -0.02762965
000140 49 ad 43 3c 3c b7 8d 3c a7 75 98 3c e4 15 db bc
       0.01194317 0.017299287 0.018610789 -0.026743837
000150 5c ec ba 3c c6 ca ec 3a 90 9c bd 3c 35 e9 53 3b
       0.022817783 0.0018065802 0.023145944 0.0032335047
000160 ef 96 be 3c 74 12 ff bc 62 3f 16 3d f8 79 75 bc
       0.02326533 -0.031136729 0.03668154 -0.014982693
000170 68 da 83 bb 90 23 f1 bc e8 3d ae bc 7c 01 66 3c
       -0.004023839 -0.029435903 -0.021269754 0.01403844
000180 52 b2 c8 bc b3 72 db 3c 89 39 ef bc c3 30 d2 bc
       -0.024499092 0.026788091 -0.02920224 -0.025658017
000190 ce 95 8c 3c 0d 9d 10 bd 8f 99 97 bc ea f6 85 bc
       0.017161276 -0.035306025 -0.01850584 -0.01635309
0001a0 54 0d 64 bc f5 34 a2 bb 19 ec 4e 3c 8c 6d c7 bc
       -0.013919193 -0.0049501606 0.012629532 -0.024344228
0001b0 dc 18 4b bc be eb 01 bd 4e 14 b9 3c 2a 6e fc bc
       -0.012396064 -0.031718962 0.02259269 -0.030814249
0001c0 86 03 98 bc ca 82 db 3c a5 25 ac bb 4a 36 cc 3c
       -0.018556368 0.026795764 -0.005253511 0.02492823
0001d0 c7 e2 dd bc 69 2d 15 bd 05 d3 b8 bc 47 9d 71 bc
       -0.027085675 -0.03642026 -0.02256156 -0.0147469705
0001e0 7d 85 14 bd 23 e9 12 bd d9 6c da 3c e0 a1 8c bb
       -0.036260117 -0.035866868 0.02666323 -0.004291758
0001f0 ba 0f bf bc 66 12 ff bc 0b 6b d3 bc c5 f2 a2 3b
       -0.023322929 -0.031136703 -0.025807878 0.004972788
000200 c1 40 35 3c 33 f0 42 3c 2d b9 b4 ba 9b 02 99 bb
       0.011062802 0.011898088 -0.0013788097 -0.0046695
000210 59 36 8e 3c f1 12 c4 bb 06 5e 11 ba 86 dd 00 bc
       0.0173599 -0.0059837033 -0.00055453216 -0.007865315
000220 c7 a0 4f 3c 85 d2 fc bb 20 4d b4 bb 20 bc 12 3b
       0.01267261 -0.0077155256 -0.005502358 0.0022389963
000230 47 7a ff bb e6 09 99 b9 de f4 6c bb 44 05 90 bb
       -0.007796559 -0.0002918981 -0.0036156694 -0.004395159
000240 86 d9 80 3a 8c 1f 0b 3c 96 48 dc 3c ac 79 29 bc
       0.0009830452 0.008491408 0.02689008 -0.01034395
000250 43 11 a6 3b 1c 5c 8d 3b 4d 44 79 bc 07 e1 a4 bc
       0.0050679757 0.004313959 -0.015214038 -0.020126833
000260 b4 94 c7 bc 08 6a 97 bb 66 8c 2e bc 6f 8c a2 bc
       -0.0243629 -0.004620794 -0.010653591 -0.019842355
000270 0b 53 31 bc 70 72 9f 3c a4 b9 81 3b 2d 7f 45 3c
       -0.010823022 0.019463748 0.0039588977 0.012054247
000280 9c 1a a6 3a cd 23 21 bc 51 46 0a bd 58 60 99 bc
       0.0012672725 -0.009835196 -0.033758465 -0.018722698
000290 43 5a 99 3c e8 bf f7 b9 a7 5e 0c bc 33 64 2c 3c
       0.018719798 -0.00047254493 -0.008567489 0.010521936
0002a0 4c b2 eb bb 07 92 c1 3b 66 de 3a bc 8d 81 84 ba
       -0.0071928855 0.0059073004 -0.011405563 -0.001010941
0002b0 f4 d1 64 3b b4 fe 86 39 cc 75 e3 3a 74 51 0e 3c
       0.003491518 0.0002574824 0.0017353832 0.008686412
0002c0 45 17 49 bc 7b af 14 bb 09 78 08 3c 15 67 e6 bb
       -0.012273614 -0.0022687602 0.0083294 -0.0070313313
0002d0 29 00 ed ba c3 cd 04 3b 74 e2 0c bc 57 9d 24 bc
       -0.0018081713 0.0020264245 -0.0085989125 -0.010047278
0002e0 e8 ce b1 bb d4 2f fe ba d0 a2 5d 3a 74 7e a9 ba
       -0.0054262765 -0.0019392916 0.0008454742 -0.0012931363
0002f0 9c b0 47 bc e2 37 0b bb 24 1f 97 3c 96 e9 94 3a
       -0.012188103 -0.0021243026 0.018447466 0.0011361118
000300 c7 b4 1a bc d6 22 f2 3b a2 8d a3 bc dc a7 87 3b
       -0.009442515 0.0073894067 -0.019964997 0.0041398834
000310 15 0e ca 3c bc ba 52 bc 37 b4 ca 3a eb ae 09 bc
       0.024664918 -0.012861904 0.0015465085 -0.00840352
000320 f1 f1 13 bc 96 b6 8b 3a 98 23 9e bc 3b a3 2c 3b
       -0.009029851 0.0010659273 -0.019304082 0.002634241
000330 fd 7e 95 3b f2 4c aa 39 67 ba 93 bc 84 01 f2 3b
       0.0045622573 0.00032482255 -0.01803322 0.0073854346
000340 7f ce fb bb aa b2 dd bb 6e b4 92 3b d6 0b 85 3c
       -0.0076845284 -0.006765683 0.0044770753 0.016240995
000350 8d 33 99 3b f3 26 ff 3b 59 30 57 bb d8 7f 74 3c
       0.004675335 0.0077866255 -0.0032835214 0.014923058
000360 ad 37 4f bc ac 5a 78 3c 37 7a 3e 3c ff 43 1a 3c
       -0.0126475515 0.015158337 0.011625818 0.009415626
000370 53 5e 69 3b 02 52 41 bc 8e 66 1c 3a 6e ce 01 3b
       0.00356092 -0.011799337 0.00059662096 0.001980688
000380 61 f8 c6 bb c9 7c 81 ba 16 2c 8b 3c f1 d2 b3 3b
       -0.0060720895 -0.0009879108 0.016988795 0.0054877927
000390 6e 7a 71 bc 80 1d 5e bc 07 e7 c1 bb 2a 86 14 ba
       -0.014738662 -0.013556838 -0.005917433 -0.0005665744
0003a0 28 99 ac bb a2 3f c2 bc 49 d2 54 bc b4 b4 66 3c
       -0.005267281 -0.023711983 -0.012989589 0.014081169
0003b0 db 0d a9 3c fc 1a be bb 27 fe 35 bc 2b 87 5d 3b
       0.02063649 -0.0058015566 -0.011107958 0.003380249
0003c0 54 00 45 3c e8 21 38 bb d0 db 89 bb 36 34 48 bc
       0.012024004 -0.0028096382 -0.004207112 -0.012219479
0003d0 d5 44 b0 bb d0 a5 8e 3c e0 05 a2 3c eb 8a 49 3a
       -0.005379299 0.01741305 0.019778192 0.0007688242
0003e0 d2 8c 31 bb 7f 72 1e 3c fa 3c c1 3c dc 60 b2 3b
       -0.0027091992 0.009670853 0.023588646 0.0054436754
0003f0 b8 b1 56 3c 79 f8 4a 3c 3d 21 04 3c bd db f5 bc
       0.013103895 0.012388342 0.008064565 -0.030012006

network_body.linear_encoder.seq_layers.0.bias f4 [128]
000000 71 49 70 3c 26 41 53 3c f4 d4 01 bc 2d 32 0c 3d
       0.014665947 0.012893951 -0.007924307 0.03422754
000010 2f 00 74 bc 0c e3 a0 3c 3a 62 5c bc 79 85 9f 3c
       -0.014892622 0.019639514 -0.013451153 0.019472824
000020 e1 4e 8a bc d6 2e 25 39 9c da 2d bc 05 7e 6d bc
       -0.016883316 0.00015753074 -0.010611203 -0.014495377
000030 d8 c7 91 b6 a9 34 39 3c 03 64 24 bc c7 47 6b bc
       -4.3446016e-06 0.011304059 -0.01003361 -0.014360375
000040 05 ce c2 3b fe 13 f5 3b d9 9c 39 3c be 2b 96 3c
       0.0059449696 0.00747919 0.011328899 0.018331405
000050 e3 92 9e 3c c8 1e 65 3c 6a a2 6d 3c 9a e5 85 3c
       0.01935715 0.01398439 0.014504055 0.016344834
000060 cc 1e a3 3c f8 08 53 bc 1f 4d 44 3c bd 1a 8c 3c
       0.019912146 -0.012880556 0.011981278 0.017102594
000070 c4 ba 0d bc c1 c2 98 3b 5a 59 82 bc 53 4e 0d bc
       -0.008650485 0.0046618883 -0.015911747 -0.008624631
000080 08 67 da bb c0 eb bc bb fd f9 60 3c 5b af 95 3c
       -0.0066651143 -0.0057654083 0.013731477 0.018272093
000090 a7 93 33 bc 34 92 97 3c 37 c7 9d 3c 26 5f f1 3b
       -0.010960496 0.018502332 0.019260032 0.007366079
0000a0 df 62 a9 3c ba d1 b2 3c b1 07 b4 3c 96 30 29 bc
       0.020677028 0.021828521 0.021976324 -0.010326525
0000b0 e8 37 9f 3c 21 40 c0 3c e5 52 8c bc 45 b0 fd 3a
       0.019435838 0.023468079 -0.017129371 0.00193549
0000c0 ba f3 9d 3c f6 64 e2 3b 37 8d 51 b9 13 29 f3 3b
       0.019281257 0.006909008 -0.000199844 0.007420668
0000d0 09 70 9f 3c 76 75 33 3c 05 f4 d9 bb f3 c2 59 3c
       0.019462602 0.010953298 -0.006651404 0.013291108
0000e0 b0 3f 94 bb 02 5b bd 3b 2e 2a 07 bc 62 1c b6 3c
       -0.0045241937 0.0057786712 -0.0082498025 0.02223033
0000f0 19 b2 f8 bb 36 02 5f 3b 0f 2c 41 3c 7d 4b 20 3c
       -0.0075895903 0.0034028417 0.01179029 0.009783623
000100 55 59 86 3c 09 18 38 3c d1 1e d5 3b ef 7a 37 bc
       0.016400019 0.011236199 0.0065039177 -0.011198743
000110 e6 f0 3f 3c 4b 93 15 3c d1 e6 0f 3c 55 e5 5a bc
       0.0117151495 0.009129356 0.008783058 -0.013360341
000120 55 b2 36 bc 67 be 90 bb a6 94 76 bc 70 bd b3 3c
       -0.011150916 -0.004417229 -0.015050089 0.021940917
000130 ca bf 9e 3c dd b9 88 bc 87 8a 84 bc b8 f4 f4 3b
       0.019378562 -0.016690189 -0.016179336 0.007475462
000140 cb 50 59 3c 70 cf 99 ba 2a bc 39 bb 51 fb dc 3a
       0.013263891 -0.0011734795 -0.0028340914 0.0016859566
000150 f3 27 6c 3c 5c 19 08 bc 55 bb 3e 3c 2d 2d 28 3c
       0.0144138215 -0.008306827 0.011641343 0.010264677
000160 15 6c a9 bb 14 c0 4e bc 0b d9 d8 ba ca 8d 2d bc
       -0.005170355 -0.012619037 -0.0016544176 -0.010592887
000170 51 92 48 3c e5 2b a1 3c 39 66 77 3c 93 3f 34 3c
       0.012241916 0.01967425 0.015100055 0.011001485
000180 b2 c9 89 bc 56 e9 8e 3c 07 4a 9a 3c 59 d7 24 bb
       -0.016819809 0.017445248 0.018834127 -0.0025152771
000190 4b 40 93 3c 62 0f 82 bc 48 6f 92 bc 9a 36 94 3b
       0.017974993 -0.015876476 -0.017875329 0.0045231106
0001a0 c2 c4 16 bc ae 29 09 3c 62 38 8b bc d7 e6 02 3c
       -0.009202184 0.008371754 -0.016994659 0.007989607
0001b0 c3 6f 29 bc 99 b5 f5 bb 3f 47 a8 3c 9e fb 8e bc
       -0.0103415875 -0.007498455 0.020541785 -0.017453965
0001c0 39 ea 55 3c 44 e3 55 bb b1 9a 96 3c 04 49 13 bc
       0.013056331 -0.0032636682 0.01838431 -0.008989576
0001d0 0c 00 ac 3c a2 3f 08 bc 05 1b c8 3c 1e 56 96 3c
       0.020996116 -0.0083159525 0.024426946 0.01835161
0001e0 a7 5d 6e 3c 39 79 9b 3c 1b f2 a5 bb 72 56 86 bc
       0.014548696 0.018978702 -0.0050642616 -0.016398642
0001f0 7d 10 f7 bb 4c 62 e9 3b 7a 2d a6 ba fd b5 65 bb
       -0.0075398074 0.0071223136 -0.0012678348 -0.00350511

network_body.linear_encoder.seq_layers.0.weight f4 [128, 410]
000000 d3 19 cc 3d 74 99 cd 3b 92 dc 54 bd 74 49 43 3d
       0.09965863 0.0062743966 -0.051968165 0.047677472
000010 ee 8d 00 bd f1 bc 93 3d 0b 35 ae bc a0 c1 0f bc
       -0.031385355 0.07213772 -0.021265527 -0.008774191
000020 44 59 bc bb 8e a2 27 bd c3 26 fb ba ef 73 3a 3d
       -0.005747946 -0.04092651 -0.0019161332 0.04552072
000030 78 5e f8 bc 84 7d c2 3b 25 94 2b 3c cd 4f 0f 3d
       -0.030318484 0.005935373 0.010472332 0.034988213
000040 b3 8d 50 3d 05 79 5f 3d 73 ec 42 bd 71 e9 73 bd
       0.050916385 0.054558773 -0.047588777 -0.0595488
000050 3e 31 59 3c ff d4 ed 3c 60 cf 83 bd 31 9a e2 bc
       0.013256369 0.029032229 -0.06436038 -0.027661415
000060 96 2f 9f 3b 4d 03 37 bc af 14 5c bd cb b4 5f bc
       0.0048579676 -0.011170221 -0.053730663 -0.013653944
000070 77 f5 98 3c d7 e1 b6 3d 9b 38 b9 3c 6c 05 23 3d
       0.018671734 0.08929794 0.02261 0.039800093
000080 fe e0 f8 3a 7c 3c 16 bd a8 29 2e bd 4d 3e 31 bd
       0.0018987951 -0.036678776 -0.042520195 -0.043272305
000090 f6 7b 57 bd 49 fa 8d bd 66 c4 15 bd d7 47 15 3d
       -0.052608453 -0.06932504 -0.036564253 0.036445465
0000a0 8a cd e9 3c 8e 3e c7 3c 1b eb fa 3b 10 85 1e 3d
       0.028540391 0.02432182 0.0076574213 0.038701117
0000b0 e7 b2 66 3d d6 23 da 3c 94 47 b3 3d 62 a0 76 3d
       0.05632296 0.026628416 0.08753887 0.060211547
0000c0 d2 5c 0e 3d ef 12 95 bc 13 99 22 bc 62 39 7f 3d
       0.03475649 -0.018197505 -0.009924191 0.062310584
0000d0 c4 84 2a 3c 44 0c 21 3b a9 df 2f bc 9f 8f 75 3d
       0.01040763 0.0024573961 -0.010734477 0.05995142
0000e0 bf 11 7e bc 2c 12 a8 3d 12 d0 86 3d d4 fd 04 3d
       -0.015507161 0.08206591 0.06582655 0.032468632
0000f0 97 1a 95 3d 07 77 46 3d 74 15 3c bc 16 25 67 bb
       0.07280462 0.048453357 -0.011479724 -0.0035269908
000100 92 27 51 bd f0 5b 60 3d 7b ee 93 bd 97 75 18 3e
       -0.051063128 0.05477518 -0.07223221 0.14888607
000110 74 57 d0 bc fd 9b be bd 85 e9 99 bd 2b 3b 50 3d
       -0.025432326 -0.09307096 -0.075152434 0.050837677
000120 c9 9d 10 bc 98 4f ee 3c d6 ec 8f 3c 6c e1 aa 3d
       -0.008826681 0.029090688 0.017568987 0.08343777
000130 74 b7 88 bb 77 24 ac 3b 96 d1 28 bd d3 7a 3e bd
       -0.00417226 0.0052533704 -0.0412155 -0.046503853
000140 e5 61 0d 3d b0 ac a1 3b f0 35 3b 3c d3 8c 36 3c
       0.034517188 0.004933916 0.011426434 0.011141974
000150 4a 55 48 bd dd ce a3 ba 15 bf 2a 3d ca 7a ce 3a
       -0.048909463 -0.0012497563 0.041686136 0.0015753147
000160 b9 2b 91 3d cb b4 e3 3c da ae 77 3d 82 d4 85 3d
       0.070884176 0.02779617 0.060469486 0.06534673
000170 d5 b3 3d 3d 3e 52 a4 bc 58 b6 69 bd f8 b2 10 3d
       0.04631408 -0.020058747 -0.057058662 0.035326928
000180 f7 0f 0c bd ca 8e 41 3d 6d 73 0b 3d cd f8 72 3c
       -0.034194913 0.047255315 0.034045625 0.014829827
000190 1a d5 d8 3c 98 15 27 3d 17 b1 81 bd c6 18 13 3d
       0.026468802 0.040792078 -0.06332605 0.035912298
0001a0 66 23 47 bc f5 95 62 bd 68 2c a3 3d db 04 83 bd
       -0.012154436 -0.05531879 0.07967454 -0.063974105
0001b0 3e 8c 23 3d 84 c7 5a 3c 3c eb 73 3d fe eb 5f 3d
       0.039928667 0.013353232 0.05955051 0.05466842
0001c0 36 0c 02 bc ef 8e a3 3d 5e b9 84 bc 3d 8e 42 3d
       -0.007937482 0.07986247 -0.016201671 0.04749893
0001d0 6e 94 1e bc 9f 0f ca bb f2 d0 4a 3d 6d 56 9e 3d
       -0.009678943 -0.006166413 0.049515672 0.07731328
0001e0 15 47 97 3c d6 f2 10 3e 7b 8e 96 3c 89 8a 8f 3a
       0.018466512 0.14155135 0.018378487 0.0010951321
0001f0 bb e6 11 3d 06 46 a5 bb 08 99 ba 3c b4 6b d0 3d
       0.035620432 -0.005043748 0.02277805 0.10176793
000200 d7 74 a1 bd 48 48 37 bc 20 52 5e bd b8 8a 39 bd
       -0.078836136 -0.011186667 -0.05427754 -0.045298308
000210 f8 88 43 3c 17 f8 77 bd a5 2f 17 3d d4 73 63 3d
       0.011934511 -0.06053933 0.03691067 0.055530384
000220 d8 ee 77 bc a0 38 01 3d 67 2e 00 bc 16 70 96 bd
       -0.015132628 0.031548142 -0.007823563 -0.073455974
000230 d5 80 c2 3c 7b 38 88 3b 0a cc 4c bc 9d fb a2 bd
       0.023743073 0.0041571236 -0.012499819 -0.07958148
000240 17 07 04 3d 3f 40 8a 3d 8a cd 9e bd b4 12 7c 3d
       0.032233324 0.06750535 -0.07754047 0.061541274
000250 c9 a0 77 3c a3 b7 ee bb 1c 6c f5 bd 56 29 9d bd
       0.015114018 -0.007285075 -0.11983511 -0.076739
000260 43 0f 37 bb 34 8e f6 3d 7a bc d9 3c 5f 25 34 bc
       -0.002793268 0.12038842 0.02657913 -0.010995238
000270 6d e6 bc bc 04 bf b4 3a 67 69 81 3c fb b2 56 bc
       -0.023059094 0.0013789837 0.01579733 -0.013104196
000280 2a 5d 9a bd 3a 31 2e 3d 19 e3 ec bc 4b bc 40 bd
       -0.07537301 0.042527415 -0.028916882 -0.04705457
000290 55 0b 54 3d c9 2c 5d 3c 69 a4 a9 3a 79 a8 4e 3d
       0.05176862 0.013499447 0.0012942675 0.050453637
0002a0 8d b9 6e 3d 37 c1 8d 3c 37 fd d4 bc 57 f7 22 3b
       0.058282424 0.017304046 -0.025999648 0.0024866664
0002b0 8f 93 07 3d db a4 27 3d 22 21 3d bd a4 ca 01 3d
       0.033099707 0.040928703 -0.046174176 0.031687394
0002c0 5a 24 ea bd 8e 17 5a 3b dc 58 c3 3c c3 07 84 3d
       -0.11432715 0.00332782 0.023846082 0.06446793
0002d0 2a ff 86 bd 3a 11 06 3d 8b 66 23 bd f5 71 1e 3c
       -0.065916374 0.032731272 -0.039892714 0.009670724
0002e0 f7 a3 b7 bb 59 9d d2 3c f2 c4 b4 bd bc 8c 99 3d
       -0.005604263 0.025709795 -0.08826627 0.07497546
0002f0 2c c3 11 3d c9 b3 56 bd b0 42 4d 3d a2 99 4a 3d
       0.03558652 -0.05241755 0.050112426 0.049462922
000300 28 ef e4 3c 28 ac 6e 3d 53 97 ce bd 86 61 d8 3d
       0.02794607 0.05826965 -0.100874566 0.10565476
000310 59 ef 57 3c 70 20 78 3c aa 06 19 3d d8 21 34 3d
       0.0131796235 0.015144452 0.03735987 0.04397759
000320 89 15 27 3b 62 f1 ce 3d 62 e8 1c 3b b4 b3 32 bd
       0.0025495014 0.10104634 0.0023942222 -0.04362841
000330 17 5c 90 bd d7 d5 49 bd 9b 13 19 bd e9 98 74 3c
       -0.07048815 -0.0492762 -0.037372213 0.014929035
000340 72 cf 54 3c 9d 10 dd 3d 10 7a 09 bd df 7e 6e bb
       0.012988912 0.10794184 -0.033563673 -0.003639154
000350 2a 63 01 3d 0c b6 f7 bc 8f 11 3f 3d 7e 1f 9b 3c
       0.03158871 -0.030238174 0.046647605 0.018935915
000360 0d 43 3a 3d d8 55 79 bd 7a aa d4 bb 4c c6 b3 3d
       0.0454741 -0.060872883 -0.006490049 0.087780565
000370 a3 62 54 bd bb 12 3b 3c dd 98 d4 bb 19 72 a5 3d
       -0.05185188 0.01141804 -0.0064879493 0.08078403
000380 c4 7a bf bb b2 29 44 bc 26 0c 2b bb 78 74 b9 3d
       -0.005843492 -0.011972832 -0.002609977 0.09055418
000390 ac 88 9e bc 0e 83 e4 3c 36 12 4f bd 74 b6 09 3c
       -0.01935228 0.027894523 -0.050554477 0.008405317
0003a0 91 9d bb bc 98 25 00 3d dc 18 78 3c 91 3e aa bb
       -0.022902282 0.031285852 0.015142646 -0.005195447
0003b0 d7 9e 3e bd 33 01 c2 bc d7 6a c6 bc 75 8e 00 bd
       -0.0465382 -0.023682212 -0.024220867 -0.031385858
0003c0 3a c3 5e 3d fe 1d 96 3d 8b 0b 3f bd bc c1 83 bd
       0.0543854 0.07329939 -0.046641868 -0.06433436
0003d0 74 6b 9a bd ea ec 80 bd 5a f3 6f 3c 9e 14 b7 bc
       -0.07540026 -0.06295188 0.014645422 -0.022348698
0003e0 f8 94 0c bd 24 54 89 3b 22 41 59 3c 3b b1 cb 3d
       -0.034321755 0.0041909385 0.013260158 0.099459134
0003f0 3e 12 c2 3b a5 01 0a bd e5 b3 8f 3d 35 90 1e 3e
       0.005922585 -0.033692975 0.07016734 0.15484698

network_body.linear_encoder.seq_layers.2.bias f4 [128]
000000 ab 2a 84 3c 44 b7 86 3c e9 0a a1 3c 07 66 81 39
       0.016133627 0.01644481 0.019658523 0.00024680814
000010 02 82 40 3c 74 15 38 bc 0d 5a 90 3c 8c 03 95 3c
       0.011749746 -0.011235584 0.017621065 0.018190168
000020 2b bf 1f bc 25 b0 1f bc 66 62 81 ba 8d c5 8e 3c
       -0.009750168 -0.009746586 -0.0009871244 0.017428184
000030 81 90 16 bc 43 1e 3c bb 79 8a 5a 3c 1a 3b 6f bc
       -0.009189726 -0.002870456 0.0133386785 -0.014601493
000040 3e 27 91 3c b6 99 3d 3c 02 2f 7d 3c bc f7 59 bc
       0.017718907 0.011572292 0.015453102 -0.013303693
000050 f0 97 0e bc 72 17 96 3c ea a9 3b bc 72 61 0b bc
       -0.008703217 0.018321726 -0.011454085 -0.0085071195
000060 75 52 0c 3c cc be 83 3a d2 e3 8f bb 97 fa 02 3a
       0.008564581 0.0010051369 -0.004391172 0.0004996447
000070 d1 47 60 3c 2a 38 68 3c 4e 13 4c 3a 70 e8 92 3c
       0.013688997 0.014173547 0.0007784859 0.0179331
000080 c1 92 87 3c d8 e6 94 3c e4 d4 8c 3c 96 ed 6e ba
       0.01654947 0.018176481 0.017191358 -0.00091143826
000090 35 00 95 3c cc 7c b7 3b d4 ee 83 3c b2 6d 91 3c
       0.018188575 0.0055995937 0.016105093 0.017752502
0000a0 f0 d9 0b 3c 43 28 8e 3c d3 fa de bb 01 fd e9 ba
       0.008535847 0.017353183 -0.006804803 -0.001785189
0000b0 78 91 8e 3c 18 89 97 3c 4a 98 95 3c a5 45 9d 3c
       0.01740335 0.018497989 0.018261094 0.019198248
0000c0 f0 24 91 3c 3c b8 e0 ba f8 3d 2e 3c dc 36 83 bc
       0.017717808 -0.001714475 0.010634892 -0.01601737
0000d0 76 f2 8d 3c 60 8c 68 bc 89 62 a2 3c 62 6a ca bb
       0.017327528 -0.014193624 0.019822376 -0.0061772326
0000e0 14 8d 73 3c b8 ae 3b bc 36 cc 3a bc 29 35 82 bc
       0.014865179 -0.01145523 -0.011401227 -0.01589449
0000f0 10 10 98 3c 8c b9 56 bc 99 64 85 3c 19 3a 9c 3c
       0.018562347 -0.013105761 0.01628332 0.019070672
000100 96 42 f5 bb 65 38 9b bb 30 df 7a bb 9c 49 ba 3c
       -0.0074847443 -0.0047369474 -0.0038280003 0.022740178
000110 31 b5 83 3c 3e 8c 3d bc 04 fe 0b bc 7c 25 89 3c
       0.01607761 -0.011569081 -0.008544449 0.016741507
000120 cf b8 56 bc fa 03 ec bb aa a0 32 bc 5a 5a 8c 3c
       -0.013105585 -0.0072026225 -0.010902563 0.017132927
000130 50 a2 82 3c 62 d7 6b 3a 51 14 1b 3c b8 b2 95 3c
       0.015946537 0.0008996633 0.009465293 0.018273696
000140 28 44 07 bb fb 18 28 bb 8c 93 f1 bb 9f 0e 8f 3c
       -0.002063999 -0.0025649655 -0.0073723253 0.017463027
000150 fc ca 26 b9 17 d7 b4 3b 75 d8 4f bc d6 80 3f 3c
       -0.00015906611 0.005518805 -0.012685885 0.011688432
000160 55 8e 0a bc 4e 19 8c 3c 8f ed 5c bc 04 87 64 3c
       -0.008456786 0.01710191 -0.013484373 0.013948206
000170 c1 4c dc 3a 82 27 a2 3c b7 f1 87 3c c2 7e f2 ba
       0.0016807542 0.01979423 0.01659475 -0.0018500912
000180 a0 4e 8c 3c 21 15 0d bc 71 c2 91 3c c0 1d 95 3c
       0.017127335 -0.008610995 0.017792912 0.018202662
000190 b2 ce 88 bc a5 47 a8 3c 26 d3 8c 3c 35 9c 3a 3c
       -0.016700123 0.020541975 0.017190527 0.011389782
0001a0 a1 e7 33 3c ed 1c 2d 3c c6 69 44 bc 08 b4 8d 3c
       0.010980518 0.0105659785 -0.011988109 0.01729776
0001b0 c6 91 97 3c e3 8e 9b 3c 19 56 97 3b 45 0e a4 3c
       0.018502127 0.018989032 0.004618418 0.020026335
0001c0 64 5c 4d 3c 6c fc 6c bc 60 4a 3d 3c a0 c6 38 bc
       0.012534235 -0.014464479 0.011553377 -0.011277825
0001d0 ab 96 98 3c 2f c7 91 3c ec 75 94 3c e8 8e 46 3b
       0.018626532 0.017795173 0.018122636 0.003029758
0001e0 39 7b 81 3c d4 d7 af 3c c4 4b 66 bc 20 61 71 3c
       0.015805827 0.02146522 -0.01405615 0.014732629
0001f0 10 7d 5f 3c b4 90 90 3c f5 e2 38 3c 7d 04 b0 3b
       0.013640657 0.017647125 0.0112845795 0.005371629

network_body.linear_encoder.seq_layers.2.weight f4 [128, 128]
000000 ed 53 26 3e e8 41 05 bd 25 bc e5 bb 89 0c 34 bd
       0.16242953 -0.032533556 -0.007010954 -0.043957267
000010 ab fb e8 bd 22 f3 39 3c 85 b0 02 3c e0 15 6d bb
       -0.11376127 0.011349471 0.007976656 -0.0036176369
000020 c3 14 dc 3c b1 2d 10 3d 32 e1 0b be ac c6 46 be
       0.026865369 0.035199825 -0.13660124 -0.19411725
000030 c9 b0 bc bd b4 79 d3 3c 19 a8 71 bd fd 44 b0 bd
       -0.092134066 0.025814869 -0.0589982 -0.086069085
000040 8e 5f d7 bd 3f 93 3f 3d 7d 54 c9 3d 2f 7a ca 3d
       -0.105162725 0.046771284 0.09830568 0.09886586
000050 ca 07 82 3b 82 3f 6b 3d 4b d3 bc bb 1e 4e 76 3d
       0.0039682137 0.057433613 -0.005762493 0.060133092
000060 cd d7 29 bc c8 cd d8 bd 01 e0 02 3d 17 b4 a0 3c
       -0.010366392 -0.10586125 0.031951908 0.019617124
000070 a2 05 7a 3d 10 a0 b0 3c 57 42 39 3d e6 c0 02 3d
       0.061040528 0.021560699 0.045229282 0.031922244
000080 2c b4 06 3e 30 a6 0e bd b1 4c ed 3c e0 0f cf 3d
       0.13154668 -0.034826458 0.028967233 0.1011045
000090 00 15 06 be 60 ed 0a be f2 95 3f 3d ce b7 ba 3d
       -0.13093948 -0.13567114 0.04677386 0.09117089
0000a0 05 10 90 bd 5b b2 a5 bd 54 53 8f bd 99 53 28 be
       -0.070343055 -0.08090659 -0.069983155 -0.1643814
0000b0 84 c3 35 3c 49 84 ab bc 4b d5 73 3c b1 6d af bd
       0.011093978 -0.020937102 0.014882396 -0.08565844
0000c0 27 c4 de 39 e2 ad 03 3d c9 c3 ec bd 5d 7d ca bd
       0.00042489285 0.03214825 -0.115607806 -0.098871924
0000d0 ea a8 7f 3c 48 dc 2d 3e 97 18 43 bd 8f 46 9f bd
       0.015604237 0.16978562 -0.047630873 -0.0777713
0000e0 37 0c ae 3d 37 3a a3 bd 30 fc a1 bb a5 1f 3f bb
       0.084984235 -0.07970088 -0.004943393 -0.0029163149
0000f0 46 45 18 3e 6f d4 1d bc 3e 18 aa bb b8 b5 01 be
       0.14870176 -0.009633168 -0.005190878 -0.12666976
000100 8b 8b 05 be 89 a0 a5 bd 17 7e d2 3d 46 88 ea 3c
       -0.13041513 -0.0808726 0.10277956 0.028629433
000110 77 81 db bc 66 5f 60 bc c8 0a a8 bc cb 1d ab bc
       -0.026795132 -0.01369462 -0.020512953 -0.02088823
000120 88 08 ba 3d 83 0c 6c bd be b9 b8 bd d1 c5 07 3c
       0.090836585 -0.05762912 -0.090198025 0.008286909
000130 f3 4f 8e 3c 09 d5 ca bd 53 a6 33 3e 49 de 90 3c
       0.017372107 -0.099039145 0.17543916 0.017684119
000140 41 1e fd bd 9d 2f 21 3e c2 93 8d bd eb 3d 81 3d
       -0.12359286 0.1574082 -0.06912948 0.06310638
000150 50 4b c4 bc 53 63 2a bd 33 a2 65 3e ae ab 2a 3d
       -0.023961693 -0.04159863 0.22425155 0.041667633
000160 08 aa 88 3d 9a 82 6c bc f6 b9 8e bd df a0 93 3d
       0.06673056 -0.014435435 -0.06969063 0.07208418
000170 61 44 2d 3d ec 01 21 be 3e 4c 5d 3d ef 52 3b 3e
       0.04230154 -0.1572339 0.05402779 0.18293355
000180 0a d9 bc 3d 7c 86 4d 3e 8a 90 0f 3e 56 3c 3c 3d
       0.092210844 0.20070833 0.14019981 0.04595598
000190 31 f5 ed 3d 07 af 00 be 56 21 10 bd 72 c7 d4 bd
       0.11619032 -0.12566768 -0.03518804 -0.10389604
0001a0 65 f5 59 3c a3 ab 4b 3d 93 85 81 bd 89 ee 5f bd
       0.0133031355 0.049724232 -0.063243054 -0.054670844
0001b0 98 84 3e bd 89 16 e1 3d 16 e5 93 3c 59 d7 a1 3d
       -0.04651317 0.10990626 0.018053573 0.079024024
0001c0 02 fa 98 3b 3f 94 83 3d df ab 7d 3d 8b 97 84 bc
       0.004668475 0.0642476 0.061931487 -0.016185543
0001d0 c7 95 eb bc 9d 1a 16 bd 2a b0 e7 3d 21 8b 83 bc
       -0.028757943 -0.036646474 0.113128975 -0.016057553
0001e0 11 67 15 3e 54 5d 0d be 75 f1 67 3d 66 81 b7 3d
       0.14590098 -0.13805133 0.056626756 0.08960228
0001f0 1a 6f 8d bd 85 7f 00 3e 91 9c d8 bd 73 29 92 3d
       -0.069059566 0.12548645 -0.10576738 0.07136812
000200 81 8c 97 3b 65 b9 f6 bb 66 99 10 be 77 1b 0f 3c
       0.0046249037 -0.007529425 -0.14121017 0.0087345755
000210 f7 02 93 bd bf 0e 97 bd 12 85 9b bd 2d bc 80 3d
       -0.071783 -0.073758595 -0.075937405 0.06285892
000220 60 7d 10 3b c4 c5 f9 3d f8 e1 65 3c 3f d4 a9 3b
       0.0022047386 0.12195924 0.014030926 0.0051827724
000230 84 f9 85 3e 53 c9 47 bc 91 27 f8 bd 53 9a 6c 3c
       0.26166928 -0.0121939955 -0.12116922 0.014441091
000240 fe e1 d3 bc f3 c8 fe bc ea 31 02 be 5b 6a ae 3c
       -0.025864597 -0.03110168 -0.12714353 0.021290949
000250 7c 86 44 bd ce 64 66 bd c8 3a 49 3e ff 1f 8e 3d
       -0.047979817 -0.05624848 0.1965133 0.069396965
000260 14 72 46 3d fd 01 cf bd c3 4a cf bc 0a 79 b9 3d
       0.048448637 -0.10107801 -0.025304204 0.090562895
000270 5e 38 b7 bc f4 c6 24 3c eb 4b d2 bd d1 fd c1 3d
       -0.022365745 0.0100572 -0.102683865 0.0947224
000280 4d 11 01 bd c8 ab d6 3c 5a 33 87 bc a7 71 a7 bd
       -0.03151064 0.026204959 -0.016503979 -0.08175974
000290 4f 37 46 3e f7 d3 a5 bc ff 86 86 3d 26 e4 1d bc
       0.19357036 -0.020242674 0.06568717 -0.009636914
0002a0 a5 ac c0 3c ac 55 9f 3a dd c8 ee bc ab f2 21 bd
       0.023519823 0.001215627 -0.029148513 -0.039538067
0002b0 2d a9 07 3e 2b 1d f5 3b d1 e9 42 3d 67 87 8f bd
       0.13248129 0.0074802837 0.047586266 -0.07008248
0002c0 83 d6 a6 bc 9a 05 d5 3c 3f 39 bb bd 6e e1 8b 3d
       -0.020365959 0.026003648 -0.09141778 0.06830107
0002d0 1f 6f b5 bd f3 d8 15 3e 45 26 62 bd 8f 88 83 bd
       -0.08859085 0.14633541 -0.055212278 -0.06422531
0002e0 88 e3 9b bd fd a1 94 3d 98 0a fa bd 58 17 43 3d
       -0.076117575 0.07257459 -0.12209052 0.047629684
0002f0 44 cd c1 bd 35 de be 3c 94 54 02 3d 92 06 d1 bc
       -0.094629794 0.023299316 0.03181894 -0.025515828
000300 a0 4e 49 bd 47 52 c1 3d 52 1b 9e 3b 97 2e a0 3b
       -0.04914725 0.09439521 0.004825034 0.0048883664
000310 06 25 3d bd 4a e7 c9 3d e4 65 9c bd a3 f3 28 bc
       -0.046177886 0.09858568 -0.076366216 -0.010311994
000320 34 26 d8 bd ae b6 29 bd 4b 00 22 bd ee 6d 41 bd
       -0.10554162 -0.041433983 -0.03955106 -0.047223978
000330 8a 22 16 3d 3c 46 a2 bd 2c 35 01 3c 9d b0 26 3e
       0.036654033 -0.079235524 0.007886212 0.1627831
000340 32 e6 52 3e 6c ce e9 3d 3b 3c 96 3c b6 52 cd 3c
       0.20595625 0.11416325 0.018339267 0.025063854
000350 fe 3f de bd 71 6a fe bd ca ac e9 3d 01 9a 2b bc
       -0.10852049 -0.12422646 0.1140991 -0.010473729
000360 11 4d a1 bd 5c a9 50 bd 03 79 57 3d cf d4 39 3c
       -0.078760274 -0.050942764 0.05260564 0.011342241
000370 de b1 7d 3d 3f 85 b9 3d a4 bb 98 bd 5a 19 6e 3d
       0.061937205 0.09058618 -0.074576646 0.058129646
000380 7a e9 8c 3d aa c8 8b 3d 6a bd ea 3d e5 03 97 3d
       0.068804696 0.06825383 0.11461909 0.0737379
000390 eb 6f d1 3b b2 33 05 be 5e d6 fe 3c e9 b9 5b be
       0.0063915155 -0.13008001 0.031108078 -0.21457638
0003a0 f1 b7 91 bd 40 2e 45 bd a3 df 3c 3d f0 4e a9 bd
       -0.07115162 -0.04813981 0.046111714 -0.08267009
0003b0 81 12 cf bb e1 51 89 3e 0d 8c ce bd 6e ae ac bb
       -0.0063193445 0.2682028 -0.10085306 -0.005269817
0003c0 23 ab 5f 3d 8d 85 6b 3c d6 fd 0d bd 12 7e 88 bc
       0.054606568 0.014375103 -0.034665905 -0.016661678
0003d0 16 ed 79 3c 76 a6 d6 3b d8 aa 78 bd dd 9d 15 bd
       0.01525428 0.0065506054 -0.060709804 -0.036527503
0003e0 84 9f 79 3d 83 c4 e3 3d b2 f5 4b bd ab 42 8d bd
       0.06094314 0.11121466 -0.04979486 -0.068974815
0003f0 3f 89 2a 3d 60 c8 79 bd d1 ff bf 3d 5a 84 13 bd
       0.041634794 -0.060982108 0.09374965 -0.036014892
