Assets/results/Run05/Robot Path Finder.onnx (onnx, 280587 bytes, 6 tensors)

distribution.branches.0.bias f4 [4]
0	0x00000000	0.0
1	0x00000000	0.0
2	0x00000000	0.0
3	0x00000000	0.0

distribution.branches.0.weight f4 [4, 128]
0	0xbc23c785	-0.0099963
1	0xbbd4a9c7	-0.0064899656
2	0x3cbf32bb	0.02333962
3	0x3a9e941d	0.0012098585
4	0xbb973092	-0.0046139443
5	0xbc255595	-0.010091205
6	0xbc1f5cce	-0.009726716
7	0x3aefd82d	0.0018298678
8	0x3c02a6b6	0.007974317
9	0xbc1fca98	-0.009752892
10	0xbbe56d47	-0.0070015523
11	0xbc033699	-0.008008623
12	0xbc2f0091	-0.010681287
13	0x3c71c1ea	0.014755705
14	0xbb38dcd6	-0.00282078
15	0xbb51c99d	-0.003201104
16	0x3b3ba556	0.0028632483
17	0xbb10585b	-0.002202532
18	0x3c10f940	0.008848488
19	0x3ba8fe2d	0.0051572532
20	0x3c640995	0.0139183
21	0x3c95efd9	0.018302845
22	0x3bc2f63f	0.005949765
23	0x3bc2dbb7	0.005946602
24	0xbc3c8692	-0.011506693
25	0x3c5451af	0.012958928
26	0x3b6cf615	0.0036157419
27	0x3c34dcfd	0.011039016
28	0x3c0164e5	0.00789759
29	0xba9752ad	-0.0011545025
30	0xbb2ef0d2	-0.0026693833
31	0xbc63a398	-0.013893984
32	0xbbd08975	-0.0063640424
33	0x3aa7bf8f	0.0012798178
34	0x3a923111	0.0011153539
35	0xbbed8580	-0.0072485805
36	0xbc853481	-0.016260387
37	0xbbb8e4a2	-0.0056424895
38	0x3bada785	0.005299511
39	0x3c2461e9	0.010033109
40	0xbb7feaa2	-0.0039049764
41	0xbc5606bf	-0.013063132
42	0xbb80e2d9	-0.0039332923
43	0xbbc175df	-0.005903944
44	0x3b348eb9	0.002755089
45	0x3bb4773d	0.0055073784
46	0xba8f678d	-0.0010940895
47	0x3c36b105	0.011150603
48	0xbba39d47	-0.004993114
49	0x3c8093e9	0.015695529
50	0x3bf98ff2	0.0076160366
51	0xbac5c5b4	-0.0015088827
52	0x3c0a146f	0.008427723
53	0xba7a4a98	-0.00095478585
54	0xbbbd5864	-0.0057783592
55	0xbb895e84	-0.0041921753
56	0x3a29ffa8	0.0006484934
57	0x3b66102f	0.003510486
58	0xbc62e227	-0.013847864
59	0x3bfdadbd	0.0077416585
60	0xbc513bad	-0.0127705755
61	0x3baba6f0	0.0052384064
62	0xbc406d24	-0.011744771
63	0xb9584665	-0.00020625589
64	0x3c266b92	0.010157483
65	0xbcb85e37	-0.022505863
66	0x3bbf4f16	0.005838285
67	0xbb1456bb	-0.0022634703
68	0x3a5ec8ba	0.00084985385
69	0xb8f22bef	-0.000115476425
70	0xba333c7f	-0.0006837323
71	0x3c339df7	0.010962955
72	0xbc1837df	-0.009290664
73	0xbb5a5312	-0.0033313674
74	0xbb985a43	-0.004649432
75	0x3acccb6b	0.0015624588
76	0x3c661098	0.014042042
77	0xbc726b28	-0.014796056
78	0xb92bfc34	-0.00016401784
79	0x3c34f89e	0.011045603
80	0xbc4ec0d7	-0.012619219
81	0xbc36abf2	-0.011149393
82	0x3c29d92c	0.010366719
83	0xbc74b852	-0.0149365235
84	0xbaf6e92b	-0.00188378
85	0x3c31e0a4	0.010856781
86	0x3b1eb30b	0.0024215605
87	0x3a1ff42b	0.00061017525
88	0xbc1587ce	-0.009126617
89	0xbc33db77	-0.010977617
90	0x3c708dea	0.014682272
91	0x3a60533b	0.0008557324
92	0xbbea33e3	-0.0071472987
93	0xb8b971dd	-8.842696e-05
94	0x3c15992a	0.009130755
95	0x3ca36d04	0.019949444
96	0x3a4b4b60	0.0007755067
97	0x3c7e2220	0.015511066
98	0x3be9a5a0	0.0071303397
99	0x3c591787	0.013250238
100	0x3c0b5fff	0.008506774
101	0xbb460021	-0.003021248
102	0xbbf9fb7f	-0.0076288576
103	0xbc865563	-0.016398137
104	0xbc24754a	-0.0100377295
105	0x3c70e987	0.014704115
106	0xbcadaa42	-0.02119935
107	0xbc39b9d9	-0.011335813
108	0xbb24ebcb	-0.0025164958
109	0xbba89300	-0.005144477
110	0xbb85c25f	-0.0040820087
111	0xbc8eb299	-0.017419146
112	0x3bd2b9fb	0.006430862
113	0x3b1f628b	0.002432021
114	0x3ab1a03d	0.0013551783
115	0x39d0a157	0.0003979306
116	0xbc575b52	-0.013144331
117	0xbb1e5bb0	-0.0024163537
118	0xbb0c5601	-0.0021413567
119	0x3c28a358	0.01029285
120	0xbb93d4f0	-0.004511468
121	0x3c30120e	0.010746492
122	0xba39b1c3	-0.00070836785
123	0xbb11580b	-0.0022177722
124	0xbb886c6b	-0.004163315
125	0xbb8d767b	-0.0043171025
126	0x3c3b9f67	0.011451579
127	0xbbddfd20	-0.0067745596
128	0x3c2d8ac9	0.010592171
129	0x3be30dda	0.0069291415
130	0xbb7bb972	-0.0038410095
131	0xbb47629d	-0.0030423768
132	0xbc755afa	-0.014975304
133	0x3c46d838	0.0121365115
134	0xbb8cf2b4	-0.0043013934
135	0xbb92669f	-0.0044678
136	0x3b436c6f	0.002981927
137	0xb9763e68	-0.00023483636
138	0xbc7bf92b	-0.0153792305
139	0xbc7746a5	-0.015092527
140	0xbbd2e38b	-0.0064358166
141	0x3aa76d03	0.0012773577
142	0x3ba5f97c	0.0050651412
143	0xbc155fb8	-0.009117059
144	0xbc2491c7	-0.010044522
145	0x3b648f3b	0.003487541
146	0xbba782b3	-0.005112016
147	0xbbc8821c	-0.006119026
148	0xbaed609a	-0.0018110455
149	0x3b394f9e	0.0028276215
150	0xbbbe897f	-0.0058147307
151	0x3c143cf5	0.009047736
152	0xbaee5d62	-0.0018185789
153	0x3bac9f01	0.005267978
154	0xbc182c95	-0.009287973
155	0xbb0e1be7	-0.0021684112
156	0x3bd61e13	0.006534347
157	0xbc7628da	-0.015024388
158	0x3b8a01c7	0.0042116377
159	0x3c00b67b	0.007856007
160	0xbbc202f4	-0.005920762
161	0x3b34b5e4	0.0027574236
162	0xbc2c0337	-0.010498813
163	0xbbab3994	-0.0052253697
164	0x3b49a9de	0.0030771415
165	0x3be1165a	0.0068691196
166	0xbbb18454	-0.005417386
167	0xbb41894c	-0.0029531298
168	0x3bb8ee52	0.0056436444
169	0x3a1e3687	0.0006035347
170	0xbadc91b2	-0.0016828089
171	0x3ac9f679	0.0015408538
172	0x3c549230	0.012974307
173	0xbc217491	-0.009854452
174	0xbb9f7277	-0.00486594
175	0x3c966280	0.018357515
176	0x3b2cc9fd	0.0026365512
177	0xbc2c612c	-0.010521214
178	0xbc3321c7	-0.010933346
179	0xbb80d3ef	-0.0039315145
180	0x3b7b832f	0.0038377752
181	0x3bb84373	0.005623275
182	0x3b7b6c02	0.0038363938
183	0xbc8ff14b	-0.017571112
184	0xbbac8a8c	-0.0052655395
185	0x3a21c713	0.0006171327
186	0x3bdcf677	0.006743248
187	0xbbafe931	-0.0053683748
188	0x3b4d9667	0.0031370164
189	0x3c3d24ca	0.011544416
190	0x3bc4fbfb	0.0060114837
191	0x3c36ee48	0.011165209
192	0x3aa100f4	0.0012283609
193	0xbb0a74a6	-0.0021126657
194	0x3a6cdc17	0.00090354815
195	0x3be8bf12	0.0071028555
196	0x39a617c6	0.000316797
197	0x3c0e3d3d	0.0086815925
198	0x3c23396e	0.009962423
199	0x3c7408af	0.014894648
200	0xbb969a1b	-0.0045960075
201	0x3c187833	0.0093060015
202	0xbc09e126	-0.008415496
203	0x3c814f8f	0.015785007
204	0x3b0e8eec	0.0021752669
205	0x3c1fbe5b	0.009749974
206	0x3b0b4c53	0.002125521
207	0x3b21f032	0.0024709818
208	0xbcf24c4d	-0.029577399
209	0x3c011cd8	0.007880412
210	0x3ba8f6b4	0.0051563624
211	0xbbbcf79d	-0.0057668225
212	0x3cd709cf	0.026249794
213	0xbc3b0e89	-0.01141704
214	0x3b5f85ad	0.0034106777
215	0x3a76e8b3	0.000941883
216	0xbb794437	-0.0038035044
217	0x3b5bbc95	0.0033529152
218	0xbc265a37	-0.010153345
219	0xbbf37aef	-0.0074304263
220	0x3c7190e2	0.014744015
221	0x3bdfa5f8	0.006825205
222	0xbbbd017b	-0.0057679988
223	0xbb8ea5c0	-0.004353255
224	0x3c51e773	0.012811529
225	0x3b5868b7	0.00330214
226	0xbb9761af	-0.004619799
227	0x3c07b80a	0.008283624
228	0xbc543aa0	-0.01295343
229	0xbb2a341a	-0.0025970996
230	0xbbe35627	-0.0069377604
231	0x3c0a61b4	0.008446146
232	0x3b999135	0.0046864995
233	0xbb7c774b	-0.0038523253
234	0x3c039d7b	0.008033152
235	0xbb593025	-0.0033140269
236	0xbc3019b2	-0.010748314
237	0xbc752e82	-0.014964702
238	0xbb68a9a8	-0.0035501514
239	0xbba20486	-0.004944387
240	0x3bee3120	0.0072690398
241	0xbba3369b	-0.0049808747
242	0xbc5fab50	-0.013651684
243	0x3c3b3632	0.011426495
244	0xbb99ca0f	-0.0046932767
245	0x3a1379cc	0.0005625754
246	0x3b9b9ff1	0.004749291
247	0x3bba866f	0.0056922953
248	0xbc2eabfb	-0.0106611205
249	0x3c49703b	0.012294824
250	0x3c28790e	0.010282768
251	0xbb4fa060	-0.0031681284
252	0x3bd5cbcb	0.006524538
253	0xbacbdf8d	-0.0015554294
254	0x3c48e05b	0.012260522
255	0x3b54d75d	0.0032477

network_body.linear_encoder.seq_layers.0.bias f4 [128]
0	0x00000000	0.0
1	0x00000000	0.0
2	0x00000000	0.0
3	0x00000000	0.0
4	0x00000000	0.0
5	0x00000000	0.0
6	0x00000000	0.0
7	0x00000000	0.0
8	0x00000000	0.0
9	0x00000000	0.0
10	0x00000000	0.0
11	0x00000000	0.0
12	0x00000000	0.0
13	0x00000000	0.0
14	0x00000000	0.0
15	0x00000000	0.0
16	0x00000000	0.0
17	0x00000000	0.0
18	0x00000000	0.0
19	0x00000000	0.0
20	0x00000000	0.0
21	0x00000000	0.0
22	0x00000000	0.0
23	0x00000000	0.0
24	0x00000000	0.0
25	0x00000000	0.0
26	0x00000000	0.0
27	0x00000000	0.0
28	0x00000000	0.0
29	0x00000000	0.0
30	0x00000000	0.0
31	0x00000000	0.0
32	0x00000000	0.0
33	0x00000000	0.0
34	0x00000000	0.0
35	0x00000000	0.0
36	0x00000000	0.0
37	0x00000000	0.0
38	0x00000000	0.0
39	0x00000000	0.0
40	0x00000000	0.0
41	0x00000000	0.0
42	0x00000000	0.0
43	0x00000000	0.0
44	0x00000000	0.0
45	0x00000000	0.0
46	0x00000000	0.0
47	0x00000000	0.0
48	0x00000000	0.0
49	0x00000000	0.0
50	0x00000000	0.0
51	0x00000000	0.0
52	0x00000000	0.0
53	0x00000000	0.0
54	0x00000000	0.0
55	0x00000000	0.0
56	0x00000000	0.0
57	0x00000000	0.0
58	0x00000000	0.0
59	0x00000000	0.0
60	0x00000000	0.0
61	0x00000000	0.0
62	0x00000000	0.0
63	0x00000000	0.0
64	0x00000000	0.0
65	0x00000000	0.0
66	0x00000000	0.0
67	0x00000000	0.0
68	0x00000000	0.0
69	0x00000000	0.0
70	0x00000000	0.0
71	0x00000000	0.0
72	0x00000000	0.0
73	0x00000000	0.0
74	0x00000000	0.0
75	0x00000000	0.0
76	0x00000000	0.0
77	0x00000000	0.0
78	0x00000000	0.0
79	0x00000000	0.0
80	0x00000000	0.0
81	0x00000000	0.0
82	0x00000000	0.0
83	0x00000000	0.0
84	0x00000000	0.0
85	0x00000000	0.0
86	0x00000000	0.0
87	0x00000000	0.0
88	0x00000000	0.0
89	0x00000000	0.0
90	0x00000000	0.0
91	0x00000000	0.0
92	0x00000000	0.0
93	0x00000000	0.0
94	0x00000000	0.0
95	0x00000000	0.0
96	0x00000000	0.0
97	0x00000000	0.0
98	0x00000000	0.0
99	0x00000000	0.0
100	0x00000000	0.0
101	0x00000000	0.0
102	0x00000000	0.0
103	0x00000000	0.0
104	0x00000000	0.0
105	0x00000000	0.0
106	0x00000000	0.0
107	0x00000000	0.0
108	0x00000000	0.0
109	0x00000000	0.0
110	0x00000000	0.0
111	0x00000000	0.0
112	0x00000000	0.0
113	0x00000000	0.0
114	0x00000000	0.0
115	0x00000000	0.0
116	0x00000000	0.0
117	0x00000000	0.0
118	0x00000000	0.0
119	0x00000000	0.0
120	0x00000000	0.0
121	0x00000000	0.0
122	0x00000000	0.0
123	0x00000000	0.0
124	0x00000000	0.0
125	0x00000000	0.0
126	0x00000000	0.0
127	0x00000000	0.0

network_body.linear_encoder.seq_layers.0.weight f4 [128, 410]
0	0x3cb57e7e	0.022155043
1	0x3ad0befe	0.0015926061
2	0x3bc05dbf	0.0058705504
3	0xbbd17952	-0.0063926363
4	0xbd3220d9	-0.043488357
5	0xbd3220b8	-0.043488234
6	0xbc976a1e	-0.018483218
7	0x3ceae041	0.028671386
8	0xbdd02e37	-0.10165065
9	0xbc970a5d	-0.018437559
10	0xbce37c94	-0.027769364
11	0xbd44cecd	-0.048048783
12	0x3d05007e	0.032471173
13	0xbcc8875e	-0.02447861
14	0xbdf94a8e	-0.12172423
15	0x3bca35a4	0.0061709452
16	0xbc0174a8	-0.007901348
17	0xbac718f2	-0.0015189929
18	0x3d29380f	0.041313227
19	0x3d5cefcc	0.053939626
20	0xbd5abc30	-0.053402126
21	0xbb957757	-0.0045613456
22	0xbd03e085	-0.03219654
23	0x3d2e1564	0.04250087
24	0xbca39cb3	-0.019972181
25	0xbd342f5e	-0.043990485
26	0xbdb0a176	-0.08624546
27	0xbb77d6be	-0.0037817205
28	0x3c5c194d	0.013433767
29	0x3c840c16	0.016119044
30	0xbd2f0938	-0.0427334
31	0xbd597f53	-0.05309994
32	0xbcca1c69	-0.02467175
33	0x3c50e7f4	0.012750614
34	0x3d226bbe	0.039653532
35	0xbd0d5532	-0.034505077
36	0x3d693423	0.056934487
37	0xbd1d63e4	-0.03842534
38	0x3c4eb34e	0.012615992
39	0x3cc0264e	0.023455765
40	0xbd927eee	-0.07153116
41	0xbd00444c	-0.031315133
42	0x3b0af62c	0.0021203859
43	0xba19fcf5	-0.00058741804
44	0x3b37cbf0	0.002804514
45	0x3d82b89f	0.0638287
46	0xbcb81d03	-0.022474771
47	0xba8ff8d4	-0.0010984191
48	0xbd19d338	-0.03755495
49	0xbceb9b15	-0.028760472
50	0xbcdc1514	-0.02686552
51	0xbcd56777	-0.026050312
52	0x3c7c19bf	0.015386998
53	0xbd89356d	-0.06699643
54	0x3cc16918	0.023609683
55	0x3dc19083	0.094513915
56	0xbcd0ca3f	-0.025487063
57	0x3c00e2de	0.007866589
58	0xbdd02752	-0.1016375
59	0xbcd2ecd0	-0.025747687
60	0x3cbf6d4b	0.023367545
61	0xbdbc71cd	-0.09201393
62	0x3d5a1259	0.053240154
63	0x3d7d35c3	0.06181885
64	0x3c7b4b31	0.015337751
65	0xbc88c546	-0.01669563
66	0x3b5954cf	0.0033162122
67	0x3cffa371	0.031205865
68	0xbc979802	-0.0185051
69	0xbd1d54a3	-0.038410794
70	0xbcd27d15	-0.02569441
71	0xbd124501	-0.03571034
72	0x3cc6f3b2	0.024286125
73	0x3d366949	0.044534
74	0x3c2a8a77	0.010408989
75	0x3b834ba8	0.0040068217
76	0x3c37959c	0.011205103
77	0xbc92e1e0	-0.017929971
78	0xbdcd5053	-0.10025086
79	0xbcb06792	-0.021533761
80	0x3c2c5ff4	0.010520924
81	0x3cd466ad	0.025927866
82	0x3cf52597	0.02992515
83	0xbc8bd867	-0.017070962
84	0x3d7a75d0	0.06114751
85	0xbd5de3ce	-0.05417233
86	0x3c54cfbd	0.012988982
87	0xbcdbd42f	-0.026834575
88	0xbcce7b18	-0.02520518
89	0xbcd7da3f	-0.026349185
90	0x3d4dd397	0.050250616
91	0xbd856823	-0.06514003
92	0x3d828d5f	0.06374621
93	0xbc38b152	-0.011272745
94	0x3c0c3d2c	0.008559506
95	0x3d632f4d	0.05546503
96	0x3d81d423	0.0633929
97	0x3abeab5d	0.001454692
98	0x3d547df2	0.051877923
99	0xbbc34309	-0.005958919
100	0xbc25c4b9	-0.010117703
101	0x3db6e1e5	0.08929805
102	0x3c4f72d0	0.012661651
103	0x3d1a5617	0.037679758
104	0xbc048bbe	-0.008089958
105	0xbd906b20	-0.070516825
106	0x3d45b793	0.048270773
107	0xbd778659	-0.06043086
108	0x3b9c2cb2	0.0047660703
109	0xbdabf269	-0.083958454
110	0xbd21a988	-0.03946832
111	0x3dc3f6f5	0.09568588
112	0xbced438c	-0.028962873
113	0x3d87bfce	0.06628381
114	0xbd19267c	-0.037390217
115	0x3b9d1d12	0.004794725
116	0x3c144d60	0.009051651
117	0x3d249935	0.040185172
118	0x3d6040f9	0.054749463
119	0x3d67a7a4	0.05655636
120	0x3c4846f2	0.012223946
121	0xbcb04223	-0.021515911
122	0x3d854038	0.065063894
123	0x3cb64dbe	0.022253867
124	0x3cc6eafb	0.02428197
125	0x3b8d3895	0.0043097236
126	0xbdb07bf3	-0.086173914
127	0x3cc8a02f	0.024490444
128	0x3dbdde8d	0.09270964
129	0xbd7bbef7	-0.061461415
130	0xbd6dca82	-0.058054455
131	0x3e05e77a	0.13076583
132	0x3d11a8e3	0.035561454
133	0xbd87e2e3	-0.06635072
134	0x3d7741c3	0.06036545
135	0x3ce0e03a	0.02745067
136	0xbd3e30b1	-0.046433154
137	0xbcd95222	-0.026528422
138	0x3cc5e97e	0.02415919
139	0xbe013235	-0.12616809
140	0xbdd3bf15	-0.103391804
141	0x3ca975dd	0.020686084
142	0xbca0c912	-0.019627128
143	0xbd8e1041	-0.06936694
144	0x3d1a68e1	0.037697677
145	0xbd542b9a	-0.051799394
146	0xbcc1eea0	-0.023673356
147	0x3cca7103	0.024712091
148	0x3c35023e	0.011047898
149	0x3d7149c5	0.058908243
150	0x3c03da19	0.008047604
151	0xbd6628f1	-0.05619139
152	0xbd52ba3d	-0.051447142
153	0xbcbb1313	-0.022836244
154	0xbd31b0f8	-0.04338166
155	0xbd9cee88	-0.07662684
156	0x3da3b884	0.07994178
157	0x3c8803d1	0.016603382
158	0xbcd9a534	-0.026568033
159	0xbce01a36	-0.027356248
160	0x3d64f5a7	0.055898335
161	0x3cbb7611	0.022883447
162	0x3c8f28ed	0.01747557
163	0xbd45bba6	-0.04827466
164	0x3cfcd2f2	0.030862305
165	0x3b241833	0.0025038838
166	0xbd3718ff	-0.044701573
167	0xbd703947	-0.058648374
168	0x3bfdd005	0.007745745
169	0xbc36437f	-0.011124491
170	0xbcd9bf36	-0.026580434
171	0x3cc5375f	0.024074255
172	0x3d720f88	0.059096843
173	0xbcd723f9	-0.02626227
174	0x3c9870ae	0.018608417
175	0x3c43dffa	0.011955256
176	0x3c70658f	0.014672651
177	0xbc9fe135	-0.019516567
178	0x3cae10ec	0.021248303
179	0x3d584c7c	0.052807316
180	0x3d80880e	0.0627595
181	0x3c8c2d4a	0.01711144
182	0xbc8ebdd5	-0.017424503
183	0xbcfadfa2	-0.030624215
184	0xbdd7024c	-0.10498485
185	0xbc161d88	-0.009162314
186	0x3cc94eb4	0.024573661
187	0xbcedde1d	-0.029036576
188	0x3d4115af	0.04713982
189	0xbdbfbe81	-0.093625076
190	0x3d5d2c21	0.053997163
191	0xbd4b30d1	-0.0496071
192	0x3c86f483	0.016474014
193	0x3dae5a2b	0.08513292
194	0x3dea6438	0.114448965
195	0xbd4a5ffc	-0.049407944
196	0xbcf0cbc1	-0.029394032
197	0xbd013b9d	-0.031550992
198	0xbc7609b8	-0.015016966
199	0x3c0d70d9	0.008632862
200	0xbcf61b35	-0.03004227
201	0xbce9ee15	-0.02855591
202	0xbd3ad448	-0.045612603
203	0xbc1a70f8	-0.009426348
204	0xbca4f725	-0.020137379
205	0xbdc6ca71	-0.097065814
206	0x3cdcc0c3	0.026947385
207	0xbb458e39	-0.0030144586
208	0x3b2fe56e	0.0026839632
209	0xbd4e6178	-0.050385922
210	0xbbf64744	-0.0075158197
211	0xbbd44beb	-0.0064787767
212	0xbd4a4fbc	-0.049392447
213	0x3c6c6b08	0.014429815
214	0xbdbbd7cd	-0.0917202
215	0x3db3f86c	0.08787617
216	0x3ca8b3d9	0.02059357
217	0x3d39a650	0.045324624
218	0xbda88903	-0.08229258
219	0x3ccc821b	0.024964383
220	0x3d9eaddc	0.07748005
221	0xbce17fe4	-0.027526803
222	0x3d0bd754	0.0341409
223	0xbca06d40	-0.019583344
224	0x3c047b83	0.008086088
225	0xbcc92e82	-0.02455831
226	0x3d8d117a	0.06888099
227	0xbcc19eb3	-0.023635244
228	0x3cd52438	0.026018247
229	0xbb241625	-0.0025037613
230	0x3d0faa98	0.0350748
231	0xbc60e827	-0.013727224
232	0xbb59d459	-0.0033238141
233	0x3cf64523	0.030062264
234	0x3d36dd2a	0.044644512
235	0x3ccbaf94	0.024863996
236	0x3d0b3dc7	0.033994462
237	0x3c1dc03c	0.009628352
238	0x3dbbf728	0.09178001
239	0x3c8df989	0.017330902
240	0xbd55d2c0	-0.05220294
241	0x3e05fb55	0.13084157
242	0x3d0336c7	0.03203466
243	0xbd5f053c	-0.05444835
244	0xbc7fe437	-0.0156183755
245	0xbbca7a0e	-0.006179101
246	0x3cb56d77	0.022146923
247	0x3db49c2f	0.08818852
248	0xbde07c75	-0.10961238
249	0x3ccaba7c	0.024747126
250	0x3c0360a1	0.008018644
251	0x3d861b21	0.06548143
252	0x3c1e17f0	0.009649262
253	0xbd46cb01	-0.048533443
254	0xbcd30c9e	-0.025762852
255	0x3da141b0	0.07873857

network_body.linear_encoder.seq_layers.2.bias f4 [128]
0	0x00000000	0.0
1	0x00000000	0.0
2	0x00000000	0.0
3	0x00000000	0.0
4	0x00000000	0.0
5	0x00000000	0.0
6	0x00000000	0.0
7	0x00000000	0.0
8	0x00000000	0.0
9	0x00000000	0.0
10	0x00000000	0.0
11	0x00000000	0.0
12	0x00000000	0.0
13	0x00000000	0.0
14	0x00000000	0.0
15	0x00000000	0.0
16	0x00000000	0.0
17	0x00000000	0.0
18	0x00000000	0.0
19	0x00000000	0.0
20	0x00000000	0.0
21	0x00000000	0.0
22	0x00000000	0.0
23	0x00000000	0.0
24	0x00000000	0.0
25	0x00000000	0.0
26	0x00000000	0.0
27	0x00000000	0.0
28	0x00000000	0.0
29	0x00000000	0.0
30	0x00000000	0.0
31	0x00000000	0.0
32	0x00000000	0.0
33	0x00000000	0.0
34	0x00000000	0.0
35	0x00000000	0.0
36	0x00000000	0.0
37	0x00000000	0.0
38	0x00000000	0.0
39	0x00000000	0.0
40	0x00000000	0.0
41	0x00000000	0.0
42	0x00000000	0.0
43	0x00000000	0.0
44	0x00000000	0.0
45	0x00000000	0.0
46	0x00000000	0.0
47	0x00000000	0.0
48	0x00000000	0.0
49	0x00000000	0.0
50	0x00000000	0.0
51	0x00000000	0.0
52	0x00000000	0.0
53	0x00000000	0.0
54	0x00000000	0.0
55	0x00000000	0.0
56	0x00000000	0.0
57	0x00000000	0.0
58	0x00000000	0.0
59	0x00000000	0.0
60	0x00000000	0.0
61	0x00000000	0.0
62	0x00000000	0.0
63	0x00000000	0.0
64	0x00000000	0.0
65	0x00000000	0.0
66	0x00000000	0.0
67	0x00000000	0.0
68	0x00000000	0.0
69	0x00000000	0.0
70	0x00000000	0.0
71	0x00000000	0.0
72	0x00000000	0.0
73	0x00000000	0.0
74	0x00000000	0.0
75	0x00000000	0.0
76	0x00000000	0.0
77	0x00000000	0.0
78	0x00000000	0.0
79	0x00000000	0.0
80	0x00000000	0.0
81	0x00000000	0.0
82	0x00000000	0.0
83	0x00000000	0.0
84	0x00000000	0.0
85	0x00000000	0.0
86	0x00000000	0.0
87	0x00000000	0.0
88	0x00000000	0.0
89	0x00000000	0.0
90	0x00000000	0.0
91	0x00000000	0.0
92	0x00000000	0.0
93	0x00000000	0.0
94	0x00000000	0.0
95	0x00000000	0.0
96	0x00000000	0.0
97	0x00000000	0.0
98	0x00000000	0.0
99	0x00000000	0.0
100	0x00000000	0.0
101	0x00000000	0.0
102	0x00000000	0.0
103	0x00000000	0.0
104	0x00000000	0.0
105	0x00000000	0.0
106	0x00000000	0.0
107	0x00000000	0.0
108	0x00000000	0.0
109	0x00000000	0.0
110	0x00000000	0.0
111	0x00000000	0.0
112	0x00000000	0.0
113	0x00000000	0.0
114	0x00000000	0.0
115	0x00000000	0.0
116	0x00000000	0.0
117	0x00000000	0.0
118	0x00000000	0.0
119	0x00000000	0.0
120	0x00000000	0.0
121	0x00000000	0.0
122	0x00000000	0.0
123	0x00000000	0.0
124	0x00000000	0.0
125	0x00000000	0.0
126	0x00000000	0.0
127	0x00000000	0.0

network_body.linear_encoder.seq_layers.2.weight f4 [128, 128]
0	0xbe235dcc	-0.1595375
1	0x3e497bb4	0.19676095
2	0x3df37b42	0.11888744
3	0x3dc05419	0.0939104
4	0x3b2c8b46	0.002632813
5	0xbc8c7cce	-0.017149355
6	0x3d4c96aa	0.049948372
7	0xbd8caf67	-0.06869393
8	0x3c24baaa	0.01005427
9	0x3e0d3747	0.13790618
10	0xbd7fa8a3	-0.062416684
11	0x3e2b70fe	0.16742322
12	0x3e169d6f	0.14708494
13	0x3c6f71d5	0.014614542
14	0xbe6f2afe	-0.23356244
15	0x3e0e4a02	0.13895419
16	0x3e06ee25	0.13176782
17	0x3ce1da4f	0.027569918
18	0xbd4d664f	-0.050146397
19	0xbd16fc06	-0.036861442
20	0x3db744b7	0.08948653
21	0xbceba993	-0.028767383
22	0xbbc29d2a	-0.0059391456
23	0x3d01ea59	0.031717632
24	0x3e83aa90	0.25716066
25	0x3e0f4c97	0.1399406
26	0x3da9a050	0.0828253
27	0xbdedcdc3	-0.116115116
28	0x3db19b44	0.08672193
29	0xbba87ecf	-0.00514207
30	0xbd67f9a2	-0.056634553
31	0xbe6656a4	-0.22493988
32	0xbdf683ff	-0.12036895
33	0xbe11a061	-0.14221336
34	0x3d1ffbed	0.039058615
35	0xbda4e079	-0.08050627
36	0x3e026850	0.12735105
37	0x3d8a763b	0.06760832
38	0xbd73bdc4	-0.059507146
39	0xbd66fd34	-0.056393817
40	0x3d1f3b96	0.038875185
41	0xbd7aa14b	-0.061188977
42	0xbd85e697	-0.06538122
43	0xbd9fcfe7	-0.07803326
44	0xbd68b950	-0.056817353
45	0x3db5c00e	0.08874522
46	0x3e6e7e21	0.23290302
47	0x3ddca857	0.10774296
48	0x3dffc387	0.12488466
49	0xbdea4bde	-0.11440252
50	0x3baf8cde	0.005357369
51	0x3e220d57	0.15825401
52	0xbd455521	-0.04817689
53	0xbe4a8ec1	-0.19781019
54	0xbd86e811	-0.06587232
55	0x3d897209	0.067112036
56	0x3e321cf2	0.17393854
57	0x3d8944fd	0.067026116
58	0x3d407bc0	0.046993017
59	0x3da63e0f	0.081173055
60	0xbd0f4afa	-0.034983613
61	0x3ddd6bd2	0.10811581
62	0x3c220efd	0.009891269
63	0xbdd4a4a7	-0.103829674
64	0x3b97624f	0.0046198736
65	0x3cb6a13f	0.022293685
66	0x3d29a09c	0.041412935
67	0xbd4506f0	-0.04810232
68	0x3d648e4d	0.05579977
69	0x3cfbdd10	0.03074506
70	0x3d93e762	0.07221867
71	0xbd44efb2	-0.048080154
72	0x3d08d27f	0.03340387
73	0xbc532d42	-0.012889208
74	0x3dc53505	0.09629253
75	0xbc81f08e	-0.015861776
76	0xbcf9b1f3	-0.03048036
77	0x3cf12496	0.02943639
78	0x3df4803f	0.119385235
79	0x3dce84ea	0.10083945
80	0x3d4df97d	0.05028676
81	0x3cf40223	0.029786175
82	0x3ccd6809	0.025074022
83	0x3dddc8f7	0.108293466
84	0x3c5492e2	0.012974473
85	0x3cc34699	0.023837375
86	0xbd8be3cd	-0.06830559
87	0x3df68401	0.120368965
88	0x3d24779b	0.040153127
89	0x3ced9f0e	0.029006507
90	0x3d835bc1	0.06413985
91	0x3cac1334	0.02100525
92	0x3ca49c8a	0.020094175
93	0x3dd13331	0.10214842
94	0x3d676d0f	0.05650049
95	0xbe2b29ea	-0.16715208
96	0xbb21f850	-0.0024714656
97	0x3c987f3c	0.018615358
98	0x3d546df2	0.051862665
99	0x3d49470d	0.049140025
100	0xbdf1a03a	-0.11798139
101	0x3d148210	0.03625685
102	0xbdc79641	-0.097454555
103	0xbe1eab96	-0.15495142
104	0xbca4f1dd	-0.02013486
105	0x3c257aef	0.01010011
106	0xbccc2905	-0.024921903
107	0x3dcefd91	0.10106958
108	0xbd45a6be	-0.04825472
109	0xbd778327	-0.06042781
110	0xbca85ccb	-0.02055206
111	0xbd3525fd	-0.04422568
112	0xbdd40491	-0.103524335
113	0x3d6a9fb6	0.05728122
114	0xbd5344b4	-0.051579192
115	0xbd72ccdb	-0.059277397
116	0xbdcd3b04	-0.10021022
117	0x3df9c551	0.12195838
118	0x3d8b709e	0.068085894
119	0x39e506d6	0.00043683377
120	0x3cbd08e1	0.023075523
121	0x3da98228	0.082767785
122	0xbbf38621	-0.007431761
123	0xbcedb1b4	-0.0290154
124	0xbd1a682a	-0.037696995
125	0x3d3e1926	0.046410702
126	0x3e15b8ed	0.14621325
127	0xbd712678	-0.058874577
128	0xbd80074e	-0.06251393
129	0xbce3720d	-0.027764345
130	0x3ccecb98	0.025243565
131	0xbe39749a	-0.18110886
132	0xbc93d2fb	-0.01804494
133	0xbd9b0dc7	-0.07570987
134	0x3e0ae920	0.13565493
135	0xbc40da48	-0.011770792
136	0x3dff4f28	0.1246627
137	0xbcef3a98	-0.029202744
138	0xbcef1db4	-0.029188968
139	0xbcb4b754	-0.022060074
140	0x3ca4cf72	0.020118449
141	0x3e1967fb	0.14981072
142	0xbdfe5c94	-0.124200016
143	0x3e42a058	0.19006479
144	0x3df1dd09	0.11809737
145	0x3c97fde3	0.01855368
146	0x3d2a5f3a	0.04159472
147	0x3d60143b	0.054706793
148	0xbd927aed	-0.071523525
149	0xbd0e65bb	-0.034764986
150	0x3d27b790	0.040946543
151	0x3de4acf0	0.11165798
152	0xbbd84ae1	-0.006600723
153	0x3d09416c	0.033509657
154	0xbc7ec4b5	-0.015549828
155	0xbd8a70c8	-0.067597926
156	0x3dc4e51f	0.09614014
157	0xbd97d94b	-0.07414492
158	0xbd8082c1	-0.06274939
159	0xbdaf7417	-0.08567064
160	0xbb9e2749	-0.0048264605
161	0x3d9184b6	0.07105391
162	0x3d37aaf7	0.04484078
163	0x3da0ab26	0.07845144
164	0x3df079f0	0.11742008
165	0xbd9067a4	-0.07051018
166	0xbdb5f7f9	-0.08885188
167	0xbdf02076	-0.117249414
168	0x3e0ef76f	0.13961576
169	0xbcb684e3	-0.022280162
170	0xbde93c8e	-0.11388503
171	0x3c441faa	0.01197044
172	0x3c081189	0.008304962
173	0x3d92b476	0.071633264
174	0x3ce69fd9	0.028152393
175	0xbe364315	-0.17799027
176	0xbd91b624	-0.07114819
177	0xbdde56b4	-0.10856381
178	0xbd36b3cf	-0.044605073
179	0x3d295ab3	0.041346263
180	0x3cf9c94e	0.030491497
181	0x3e1786a7	0.1479746
182	0x3c8dceaf	0.017310468
183	0xbe0741ec	-0.13208741
184	0x3d95bbef	0.07311236
185	0xbc9aa37f	-0.01887679
186	0x3c80148a	0.015634794
187	0xbd5f5c24	-0.05453123
188	0x3d8f8ae6	0.07008915
189	0x3b253d4c	0.0025213538
190	0x3de1e6c3	0.110303424
191	0x3d18da9c	0.037317857
192	0xbdfc371e	-0.123152
193	0xbdae57e9	-0.08512861
194	0xbcc4ccde	-0.02402347
195	0xbcbf73ef	-0.023370711
196	0x3da095b4	0.078410536
197	0xbd7cf505	-0.061757106
198	0x3abb0cc9	0.0014270778
199	0xbc3b9fee	-0.011451704
200	0x3db657cd	0.089034654
201	0xbb397786	-0.0028300001
202	0x3e393109	0.18085112
203	0xbdc3b4a6	-0.0955594
204	0x3d1c7ad5	0.03820308
205	0x3da7d356	0.08194606
206	0xbc63bcf7	-0.013900033
207	0x3dff2fb7	0.12460273
208	0x3d44c938	0.04804346
209	0xbc8832cf	-0.01662579
210	0x3d485e0e	0.048917823
211	0x3dce0f80	0.1006155
212	0xbd9d1839	-0.07670636
213	0x3dc3cf6b	0.09561046
214	0x3db2c295	0.0872852
215	0xbcd2cac8	-0.02573146
216	0x3d9ea6bb	0.07746645
217	0x3ddc2ec0	0.10751104
218	0x3c15ef4f	0.009151294
219	0x3de0815b	0.109621726
220	0x3d572dec	0.05253403
221	0x3c89e8cd	0.01683464
222	0x3d8d3d94	0.06896511
223	0x3cc066a9	0.023486452
224	0x3d96695f	0.07344317
225	0xbc7cd465	-0.015431498
226	0x3ddb97f7	0.10722344
227	0x3e239915	0.15976365
228	0xbcf3abbc	-0.029744975
229	0xbdd3e1cd	-0.103458025
230	0x3d1e9967	0.038720515
231	0xbd8f791b	-0.07005521
232	0x3c0f755a	0.008756006
233	0x3dabefd7	0.08395355
234	0x3d0e24c7	0.034703042
235	0xbd09182c	-0.033470318
236	0x3d51fa01	0.051263813
237	0x3db3025b	0.08740684
238	0xbcca743c	-0.024713628
239	0xbddd71ca	-0.10812719
240	0x3dd6ef6d	0.104948856
241	0xbe212f40	-0.1574068
242	0xbdd0d851	-0.10197509
243	0x3dcb7eb7	0.09936278
244	0xbd155ab2	-0.036463447
245	0x3dc627bd	0.09675548
246	0xbd8c585f	-0.06852793
247	0xbe070438	-0.13185203
248	0x3c107776	0.008817544
249	0xbda7f278	-0.08200544
250	0xbd46689b	-0.048439603
251	0xbc70b36d	-0.014691216
252	0xbd9b91bd	-0.07596157
253	0xbe7d521f	-0.24738358
254	0xbc9352b4	-0.017983772
255	0xbddb220d	-0.10699854
